output/bertopic_model/ctfidf.safetensors (safetensors, 825200 bytes, 4 tensors)

data f8 [55406]
0.00022761011395893094 0.00018158090392125464 0.00016815742222980399 0.00022761011395893094 0.00022761011395893094 0.00019618294031741623 0.00019618294031741623 0.0004155582768738653
0.00022761011395893094 0.00022761011395893094 0.0009846395094499306 0.00022761011395893094 0.00022761011395893094 0.0007333568025480548 0.002312958940965102 0.00020777913843693266
0.00017637208751488124 0.00022761011395893094 0.00020777913843693266 0.00022761011395893094 0.00022761011395893094 0.00019618294031741623 0.00019618294031741623 0.004013794669525917
0.0004155582768738653 0.0014257587275498418 0.00022761011395893094 0.0008598482366673084 0.00020777913843693266 0.0003631618078425093 0.004888101576847213 0.00020777913843693266
0.00022761011395893094 0.0013492604502090362 0.0005159089420003851 0.00022761011395893094 0.00020777913843693266 0.00022761011395893094 0.00022761011395893094 0.00022761011395893094
0.00019618294031741623 0.00018795822958440274 0.0032627368879768566 0.0004155582768738653 0.00022761011395893094 0.0008832627461298668 0.0034029182459914343 0.000308620376360249
0.0016473884579614635 0.0013807876754507646 0.002869820210229112 0.002532339007758307 0.002919859555627349 0.00039236588063483246 0.00022761011395893094 0.0005291162625446437
0.00022761011395893094 0.00020777913843693266 0.00020777913843693266 0.00020777913843693266 0.00019618294031741623 0.00020777913843693266 0.007944830418014985 0.0001719696473334617
0.0006591839353308312 0.001050193010365502 0.00022761011395893094 0.0004507021551682758 0.00019618294031741623 0.000705488350059525 0.00022761011395893094 0.0010520279082256848
0.0003631618078425093 0.0003759164591688055 0.00019618294031741623 0.00022761011395893094 0.00018795822958440274 0.004296557451666206 0.0019341974772831996 0.00020777913843693266
0.00022761011395893094 0.0002967933819865653 0.0001647959838327078 0.0007175380534311396 0.00022761011395893094 0.005207651941715806 0.0003527441750297625 0.002592288595545167
0.00022761011395893094 0.007052694831988574 0.00022761011395893094 0.00022761011395893094 0.00022761011395893094 0.004208308623826476 0.00022761011395893094 0.0005638746887532082
0.00022761011395893094 0.00018158090392125464 0.00048537039428972624 0.0006087956515355078 0.00022761011395893094 0.0003759164591688055 0.00018158090392125464 0.000705488350059525
0.0012214079956751403 0.0013930355399905234 0.00022761011395893094 0.00022761011395893094 0.00014667136050961095 0.0012558880217543081 0.00022761011395893094 0.00033631484445960797
0.00022761011395893094 0.00018795822958440274 0.0004943879514981233 0.0005447427117637639 0.00022761011395893094 0.00022761011395893094 0.0003439392946669234 0.0004155582768738653
0.00018795822958440274 0.003549020041253087 0.00022761011395893094 0.0021922062953617714 0.00020777913843693266 0.00018158090392125464 0.0032357581839044013 0.0004155582768738653
0.0005638746887532082 0.0001502340517227586 0.0010153167170557395 0.0006087956515355078 0.002165170743089319 0.00022761011395893094 0.00018795822958440274 0.00017637208751488124
0.0001543101881801245 0.001003071765226928 0.00020777913843693266 0.00022761011395893094 0.00018795822958440274 0.0005044722666894119 0.0004155582768738653 0.00022761011395893094
0.00022761011395893094 0.0011480608854898234 0.0004155582768738653 0.00033631484445960797 0.00022761011395893094 0.0010369154382180667 0.00022761011395893094 0.00022761011395893094
0.00022761011395893094 0.000308620376360249 0.00020777913843693266 0.00019618294031741623 0.0003759164591688055 0.00022761011395893094 0.0005474820638042272 0.0003759164591688055
0.000836047065640497 0.0009395480359166461 0.0004005870109389256 0.00016815742222980399 0.0003439392946669234 0.0008075958937101516 0.00020777913843693266 0.00022761011395893094
0.00022761011395893094 0.00020777913843693266 0.00020777913843693266 0.00022761011395893094 0.00018158090392125464 0.00020777913843693266 0.0004629305645403735 0.0005638746887532082
0.0015563521347749202 0.0004155582768738653 0.00019618294031741623 0.0003295919676654156 0.000617240752720498 0.0014158716917284876 0.0004155582768738653 0.00039236588063483246
0.0006726296889192159 0.00022761011395893094 0.00022761011395893094 0.003410951355293338 0.00022761011395893094 0.0008800281630576657 0.00020777913843693266 0.00022761011395893094
0.00018158090392125464 0.003224128247741291 0.00018795822958440274 0.00022761011395893094 0.0010520279082256848 0.00018795822958440274 0.00018795822958440274 0.00022761011395893094
0.00022761011395893094 0.0004155582768738653 0.00022761011395893094 0.00046977401795832304 0.00022761011395893094 0.00018158090392125464 0.0029105750018224553 0.0004507021551682758
0.0007953598111441714 0.00020777913843693266 0.00020777913843693266 0.0010297248667116273 0.0003527441750297625 0.0005044722666894119 0.00020777913843693266 0.0003631618078425093
0.00039236588063483246 0.00022761011395893094 0.00022761011395893094 0.0024819328801775594 0.00020777913843693266 0.00022761011395893094 0.00022761011395893094 0.0003004681034455172
0.00022761011395893094 0.00018795822958440274 0.00046977401795832304 0.00022761011395893094 0.000308620376360249 0.00020777913843693266 0.0019061841947941099 0.0003295919676654156
0.00022761011395893094 0.00022761011395893094 0.00022761011395893094 0.00022761011395893094 0.00022761011395893094 0.004618372766609504 0.00018795822958440274 0.00022761011395893094
0.00020777913843693266 0.00020777913843693266 0.0006726296889192159 0.000617240752720498 0.00022761011395893094 0.00018158090392125464 0.0012175913030710156 0.0003759164591688055
0.0005935867639731306 0.00020777913843693266 0.00022761011395893094 0.00022761011395893094 0.00020777913843693266 0.00020777913843693266 0.00022761011395893094 0.0005638746887532082
00000000: 5266 cbfd 53d5 2d3f 87ab 7c16 d8cc 273f
00000010: 4fb7 1342 6d0a 263f 5266 cbfd 53d5 2d3f
00000020: 5266 cbfd 53d5 2d3f d9be 19a0 ceb6 293f
00000030: d9be 19a0 ceb6 293f d8fd 7035 e93b 3b3f
00000040: 5266 cbfd 53d5 2d3f 5266 cbfd 53d5 2d3f
00000050: e7b3 739f e021 503f 5266 cbfd 53d5 2d3f
00000060: 5266 cbfd 53d5 2d3f 4ee8 dabd d707 483f
00000070: 611b 4560 a0f2 623f d8fd 7035 e93b 2b3f
00000080: 6c52 13b2 101e 273f 5266 cbfd 53d5 2d3f
00000090: d8fd 7035 e93b 2b3f 5266 cbfd 53d5 2d3f
000000a0: 5266 cbfd 53d5 2d3f d9be 19a0 ceb6 293f
000000b0: d9be 19a0 ceb6 293f 9a62 6acd c470 703f
000000c0: d8fd 7035 e93b 3b3f cd06 d6c6 105c 573f
000000d0: 5266 cbfd 53d5 2d3f 8c50 2b07 ee2c 4c3f
000000e0: d8fd 7035 e93b 2b3f 87ab 7c16 d8cc 373f
000000f0: 3ee6 97c6 8b05 743f d8fd 7035 e93b 2b3f
00000100: 5266 cbfd 53d5 2d3f a7cc 7960 351b 563f
00000110: 5430 4d04 c2e7 403f 5266 cbfd 53d5 2d3f
00000120: d8fd 7035 e93b 2b3f 5266 cbfd 53d5 2d3f
00000130: 5266 cbfd 53d5 2d3f 5266 cbfd 53d5 2d3f
00000140: d9be 19a0 ceb6 293f 19b1 ede5 d4a2 283f
00000150: 1689 5687 74ba 6a3f d8fd 7035 e93b 3b3f
00000160: 5266 cbfd 53d5 2d3f ac25 e04d 58f1 4c3f
00000170: 92d6 7ad2 6fe0 6b3f 5b6f 606c ca39 343f
00000180: d086 3fe3 a5fd 5a3f 5977 297a 719f 563f
00000190: 4bc0 58fe 7282 673f 2a08 1027 b3be 643f
000001a0: 0653 9ca9 63eb 673f d9be 19a0 ceb6 393f
000001b0: 5266 cbfd 53d5 2d3f d17d 8e85 8c56 413f
000001c0: 5266 cbfd 53d5 2d3f d8fd 7035 e93b 2b3f
000001d0: d8fd 7035 e93b 2b3f d8fd 7035 e93b 2b3f
000001e0: d9be 19a0 ceb6 293f d8fd 7035 e93b 2b3f
000001f0: 0987 8a16 6145 803f 7040 bc05 588a 263f
00000200: 63a4 deb8 a299 453f b294 9328 d434 513f
00000210: 5266 cbfd 53d5 2d3f d26e 4504 8789 3d3f
00000220: d9be 19a0 ceb6 293f 6c52 13b2 101e 473f
00000230: 5266 cbfd 53d5 2d3f 3ab2 755d 863c 513f
00000240: 87ab 7c16 d8cc 373f 19b1 ede5 d4a2 383f
00000250: d9be 19a0 ceb6 293f 5266 cbfd 53d5 2d3f
00000260: 19b1 ede5 d4a2 283f da3b d85b 4499 713f
00000270: 4906 2cba 9cb0 5f3f d8fd 7035 e93b 2b3f
00000280: 5266 cbfd 53d5 2d3f 998b 8ade 5d73 333f
00000290: 63a4 deb8 a299 253f 0d45 8f3c 2583 473f
000002a0: 5266 cbfd 53d5 2d3f 8b3a 756c 9e54 753f
000002b0: 6c52 13b2 101e 373f 004c ab57 6c3c 653f
000002c0: 5266 cbfd 53d5 2d3f 91d5 6e5a 49e3 7c3f
000002d0: 5266 cbfd 53d5 2d3f 5266 cbfd 53d5 2d3f
000002e0: 5266 cbfd 53d5 2d3f f6ac 923e bb3c 713f
000002f0: 5266 cbfd 53d5 2d3f d344 72ac 1f7a 423f
00000300: 5266 cbfd 53d5 2d3f 87ab 7c16 d8cc 273f
00000310: 1cbe 4cf8 29cf 3f3f bbc0 e6b4 f2f2 433f
00000320: 5266 cbfd 53d5 2d3f 19b1 ede5 d4a2 383f
00000330: 87ab 7c16 d8cc 273f 6c52 13b2 101e 473f
00000340: a037 60d9 f402 543f b7fc 8785 d0d2 563f
00000350: 5266 cbfd 53d5 2d3f 5266 cbfd 53d5 2d3f
00000360: 3e20 af64 7939 233f 169f c67e 9393 543f
00000370: 5266 cbfd 53d5 2d3f 4fb7 1342 6d0a 363f
00000380: 5266 cbfd 53d5 2d3f 19b1 ede5 d4a2 283f
00000390: 4afb a60a 3a33 403f a580 dd10 a2d9 413f
000003a0: 5266 cbfd 53d5 2d3f 5266 cbfd 53d5 2d3f
000003b0: 7040 bc05 588a 363f d8fd 7035 e93b 3b3f
000003c0: 19b1 ede5 d4a2 283f a62b 52a0 d512 6d3f
000003d0: 5266 cbfd 53d5 2d3f 0f7d 07cb 63f5 613f
000003e0: d8fd 7035 e93b 2b3f 87ab 7c16 d8cc 273f
000003f0: caf9 7b72 e081 6a3f d8fd 7035 e93b 3b3f
00000400: d344 72ac 1f7a 423f 379f 83ad 04b1 233f
00000410: 0ecd 1106 8ca2 503f bbc0 e6b4 f2f2 433f
00000420: 1db5 0431 b1bc 613f 5266 cbfd 53d5 2d3f
00000430: 19b1 ede5 d4a2 283f 6c52 13b2 101e 273f
00000440: 5b6f 606c ca39 243f 6f17 571b 306f 503f
00000450: d8fd 7035 e93b 2b3f 5266 cbfd 53d5 2d3f
00000460: 19b1 ede5 d4a2 283f 7bc9 8ef1 d187 403f
00000470: d8fd 7035 e93b 3b3f 5266 cbfd 53d5 2d3f
00000480: 5266 cbfd 53d5 2d3f 716a 3ffd 50cf 523f
00000490: d8fd 7035 e93b 3b3f 4fb7 1342 6d0a 363f
000004a0: 5266 cbfd 53d5 2d3f 66d6 5579 23fd 503f
000004b0: 5266 cbfd 53d5 2d3f 5266 cbfd 53d5 2d3f
000004c0: 5266 cbfd 53d5 2d3f 5b6f 606c ca39 343f
000004d0: d8fd 7035 e93b 2b3f d9be 19a0 ceb6 293f
000004e0: 19b1 ede5 d4a2 383f 5266 cbfd 53d5 2d3f
000004f0: fb65 93c7 9cf0 413f 19b1 ede5 d4a2 383f
00000500: e915 0567 4565 4b3f 1c17 2c0b 80c9 4e3f
00000510: 19a0 761c bc40 3a3f 4fb7 1342 6d0a 263f
00000520: 7040 bc05 588a 363f dad7 d6f9 9a76 4a3f
00000530: d8fd 7035 e93b 2b3f 5266 cbfd 53d5 2d3f
00000540: 5266 cbfd 53d5 2d3f d8fd 7035 e93b 2b3f
00000550: d8fd 7035 e93b 2b3f 5266 cbfd 53d5 2d3f
00000560: 87ab 7c16 d8cc 273f d8fd 7035 e93b 2b3f
00000570: 08a7 90a2 af56 3e3f d344 72ac 1f7a 423f
00000580: 6d56 4661 d07f 593f d8fd 7035 e93b 3b3f
00000590: d9be 19a0 ceb6 293f 63a4 deb8 a299 353f
000005a0: 5b6f 606c ca39 443f 67a3 1fa7 9832 573f
000005b0: d8fd 7035 e93b 3b3f d9be 19a0 ceb6 393f
000005c0: 4fb7 1342 6d0a 463f 5266 cbfd 53d5 2d3f
000005d0: 5266 cbfd 53d5 2d3f ee8b 9d90 48f1 6b3f
000005e0: 5266 cbfd 53d5 2d3f 5db0 0617 36d6 4c3f
000005f0: d8fd 7035 e93b 2b3f 5266 cbfd 53d5 2d3f
00000600: 87ab 7c16 d8cc 273f bda4 3aac 7c69 6a3f
00000610: 19b1 ede5 d4a2 283f 5266 cbfd 53d5 2d3f
00000620: 3ab2 755d 863c 513f 19b1 ede5 d4a2 283f
00000630: 19b1 ede5 d4a2 283f 5266 cbfd 53d5 2d3f
00000640: 5266 cbfd 53d5 2d3f d8fd 7035 e93b 3b3f
00000650: 5266 cbfd 53d5 2d3f 1c17 2c0b 80c9 3e3f
00000660: 5266 cbfd 53d5 2d3f 87ab 7c16 d8cc 273f
00000670: fb92 400e ebd7 673f d26e 4504 8789 3d3f
00000680: de32 4f30 f60f 4a3f d8fd 7035 e93b 2b3f
00000690: d8fd 7035 e93b 2b3f 7902 17a8 fade 503f
000006a0: 6c52 13b2 101e 373f 7bc9 8ef1 d187 403f
000006b0: d8fd 7035 e93b 2b3f 87ab 7c16 d8cc 373f
000006c0: d9be 19a0 ceb6 393f 5266 cbfd 53d5 2d3f
000006d0: 5266 cbfd 53d5 2d3f 7aac a391 fd54 643f
000006e0: d8fd 7035 e93b 2b3f 5266 cbfd 53d5 2d3f
000006f0: 5266 cbfd 53d5 2d3f 379f 83ad 04b1 333f
00000700: 5266 cbfd 53d5 2d3f 19b1 ede5 d4a2 283f
00000710: 1c17 2c0b 80c9 3e3f 5266 cbfd 53d5 2d3f
00000720: 5b6f 606c ca39 343f d8fd 7035 e93b 2b3f
00000730: 21f9 b6b1 1d3b 5f3f 63a4 deb8 a299 353f
00000740: 5266 cbfd 53d5 2d3f 5266 cbfd 53d5 2d3f
00000750: 5266 cbfd 53d5 2d3f 5266 cbfd 53d5 2d3f
00000760: 5266 cbfd 53d5 2d3f 9ca8 e4ff b6ea 723f
00000770: 19b1 ede5 d4a2 283f 5266 cbfd 53d5 2d3f
00000780: d8fd 7035 e93b 2b3f d8fd 7035 e93b 2b3f
00000790: 4fb7 1342 6d0a 463f 5b6f 606c ca39 443f
000007a0: 5266 cbfd 53d5 2d3f 87ab 7c16 d8cc 273f
000007b0: bbc0 e6b4 f2f2 533f 19b1 ede5 d4a2 383f
000007c0: 998b 8ade 5d73 433f d8fd 7035 e93b 2b3f
000007d0: 5266 cbfd 53d5 2d3f 5266 cbfd 53d5 2d3f
000007e0: d8fd 7035 e93b 2b3f d8fd 7035 e93b 2b3f
000007f0: 5266 cbfd 53d5 2d3f d344 72ac 1f7a 423f

diag f8 [19971]
5.557179000464326 6.343528878489031 5.874579545598202 6.853651019988936 7.951559331155252 7.951559331155252 6.853651019988936 7.258764201294243
7.951559331155252 6.343528878489031 7.258764201294243 7.951559331155252 7.951559331155252 7.951559331155252 7.951559331155252 7.951559331155252
7.951559331155252 7.258764201294243 7.951559331155252 7.951559331155252 7.951559331155252 7.951559331155252 7.951559331155252 7.951559331155252
7.258764201294243 7.951559331155252 7.951559331155252 7.951559331155252 7.258764201294243 7.951559331155252 7.951559331155252 7.951559331155252
7.951559331155252 7.951559331155252 7.951559331155252 7.951559331155252 7.951559331155252 7.951559331155252 7.951559331155252 7.951559331155252
7.951559331155252 7.258764201294243 7.951559331155252 7.951559331155252 7.258764201294243 7.951559331155252 7.951559331155252 7.951559331155252
7.951559331155252 7.951559331155252 6.566320750531109 7.951559331155252 7.258764201294243 7.258764201294243 7.951559331155252 7.258764201294243
7.951559331155252 6.566320750531109 7.951559331155252 7.951559331155252 6.566320750531109 7.258764201294243 6.853651019988936 7.258764201294243
7.951559331155252 7.258764201294243 6.566320750531109 7.951559331155252 7.258764201294243 7.258764201294243 7.951559331155252 7.951559331155252
7.951559331155252 7.951559331155252 7.951559331155252 7.951559331155252 7.258764201294243 7.258764201294243 7.951559331155252 4.781571474750169
7.951559331155252 7.951559331155252 7.951559331155252 7.951559331155252 7.258764201294243 7.951559331155252 7.951559331155252 7.258764201294243
7.258764201294243 7.951559331155252 7.258764201294243 7.951559331155252 7.951559331155252 6.343528878489031 7.258764201294243 6.853651019988936
5.874579545598202 7.258764201294243 7.951559331155252 5.652138241503862 7.258764201294243 6.853651019988936 6.853651019988936 7.951559331155252
6.566320750531109 7.951559331155252 7.951559331155252 7.951559331155252 7.951559331155252 7.258764201294243 5.39082642407265 6.566320750531109
7.258764201294243 7.258764201294243 7.951559331155252 7.951559331155252 5.470518439124672 4.6288169557081655 6.853651019988936 7.951559331155252
6.853651019988936 7.258764201294243 7.951559331155252 7.951559331155252 7.951559331155252 6.343528878489031 7.951559331155252 7.951559331155252
6.566320750531109 7.951559331155252 7.951559331155252 7.951559331155252 7.951559331155252 7.951559331155252 7.951559331155252 7.258764201294243
7.951559331155252 7.951559331155252 7.258764201294243 7.951559331155252 7.258764201294243 7.951559331155252 7.258764201294243 5.248426596934571
7.951559331155252 7.951559331155252 6.566320750531109 7.258764201294243 7.951559331155252 7.951559331155252 6.853651019988936 7.951559331155252
7.951559331155252 7.951559331155252 7.951559331155252 7.258764201294243 7.951559331155252 7.951559331155252 7.951559331155252 7.951559331155252
6.566320750531109 6.853651019988936 7.258764201294243 7.951559331155252 7.951559331155252 7.951559331155252 7.951559331155252 7.951559331155252
7.951559331155252 7.951559331155252 7.951559331155252 7.951559331155252 7.951559331155252 6.161558877332376 7.951559331155252 7.258764201294243
7.951559331155252 7.951559331155252 7.951559331155252 6.566320750531109 7.258764201294243 7.258764201294243 7.951559331155252 7.951559331155252
7.951559331155252 7.951559331155252 7.951559331155252 7.951559331155252 7.258764201294243 7.951559331155252 7.951559331155252 7.258764201294243
7.951559331155252 7.258764201294243 5.874579545598202 6.007759629594484 6.343528878489031 7.951559331155252 7.258764201294243 7.951559331155252
7.951559331155252 7.951559331155252 7.258764201294243 7.258764201294243 7.258764201294243 7.951559331155252 7.258764201294243 7.951559331155252
7.258764201294243 7.951559331155252 7.951559331155252 6.853651019988936 7.258764201294243 7.951559331155252 4.914054466090476 7.951559331155252
7.951559331155252 7.951559331155252 3.6468917584982616 7.951559331155252 7.258764201294243 7.951559331155252 7.951559331155252 7.951559331155252
7.258764201294243 7.951559331155252 6.566320750531109 7.258764201294243 7.951559331155252 7.951559331155252 7.951559331155252 7.258764201294243
6.566320750531109 7.951559331155252 7.951559331155252 6.853651019988936 7.951559331155252 7.951559331155252 6.161558877332376 6.853651019988936
6.853651019988936 7.951559331155252 5.470518439124672 6.007759629594484 7.258764201294243 7.951559331155252 4.5605214343192095 5.248426596934571
7.951559331155252 7.258764201294243 7.258764201294243 7.258764201294243 7.951559331155252 6.853651019988936 6.161558877332376 6.853651019988936
00000000: 8b0c c421 8d3a 1640 275e c908 c65f 1940
00000010: 1861 c8c7 917f 1740 b632 347e 236a 1b40
00000020: d00f be91 65ce 1f40 d00f be91 65ce 1f40
00000030: b632 347e 236a 1b40 c2bc 977b f908 1d40
00000040: d00f be91 65ce 1f40 275e c908 c65f 1940
00000050: c2bc 977b f908 1d40 d00f be91 65ce 1f40
00000060: d00f be91 65ce 1f40 d00f be91 65ce 1f40
00000070: d00f be91 65ce 1f40 d00f be91 65ce 1f40
00000080: d00f be91 65ce 1f40 c2bc 977b f908 1d40
00000090: d00f be91 65ce 1f40 d00f be91 65ce 1f40
000000a0: d00f be91 65ce 1f40 d00f be91 65ce 1f40
000000b0: d00f be91 65ce 1f40 d00f be91 65ce 1f40
000000c0: c2bc 977b f908 1d40 d00f be91 65ce 1f40
000000d0: d00f be91 65ce 1f40 d00f be91 65ce 1f40
000000e0: c2bc 977b f908 1d40 d00f be91 65ce 1f40
000000f0: d00f be91 65ce 1f40 d00f be91 65ce 1f40
00000100: d00f be91 65ce 1f40 d00f be91 65ce 1f40
00000110: d00f be91 65ce 1f40 d00f be91 65ce 1f40
00000120: d00f be91 65ce 1f40 d00f be91 65ce 1f40
00000130: d00f be91 65ce 1f40 d00f be91 65ce 1f40
00000140: d00f be91 65ce 1f40 c2bc 977b f908 1d40
00000150: d00f be91 65ce 1f40 d00f be91 65ce 1f40
00000160: c2bc 977b f908 1d40 d00f be91 65ce 1f40
00000170: d00f be91 65ce 1f40 d00f be91 65ce 1f40
00000180: d00f be91 65ce 1f40 d00f be91 65ce 1f40
00000190: 254f 3a96 e943 1a40 d00f be91 65ce 1f40
000001a0: c2bc 977b f908 1d40 c2bc 977b f908 1d40
000001b0: d00f be91 65ce 1f40 c2bc 977b f908 1d40
000001c0: d00f be91 65ce 1f40 254f 3a96 e943 1a40
000001d0: d00f be91 65ce 1f40 d00f be91 65ce 1f40
000001e0: 254f 3a96 e943 1a40 c2bc 977b f908 1d40
000001f0: b632 347e 236a 1b40 c2bc 977b f908 1d40
00000200: d00f be91 65ce 1f40 c2bc 977b f908 1d40
00000210: 254f 3a96 e943 1a40 d00f be91 65ce 1f40
00000220: c2bc 977b f908 1d40 c2bc 977b f908 1d40
00000230: d00f be91 65ce 1f40 d00f be91 65ce 1f40
00000240: d00f be91 65ce 1f40 d00f be91 65ce 1f40
00000250: d00f be91 65ce 1f40 d00f be91 65ce 1f40
00000260: c2bc 977b f908 1d40 c2bc 977b f908 1d40
00000270: d00f be91 65ce 1f40 6427 ce45 5420 1340
00000280: d00f be91 65ce 1f40 d00f be91 65ce 1f40
00000290: d00f be91 65ce 1f40 d00f be91 65ce 1f40
000002a0: c2bc 977b f908 1d40 d00f be91 65ce 1f40
000002b0: d00f be91 65ce 1f40 c2bc 977b f908 1d40
000002c0: c2bc 977b f908 1d40 d00f be91 65ce 1f40
000002d0: c2bc 977b f908 1d40 d00f be91 65ce 1f40
000002e0: d00f be91 65ce 1f40 275e c908 c65f 1940
000002f0: c2bc 977b f908 1d40 b632 347e 236a 1b40
00000300: 1861 c8c7 917f 1740 c2bc 977b f908 1d40
00000310: d00f be91 65ce 1f40 8feb 8e20 ca9b 1640
00000320: c2bc 977b f908 1d40 b632 347e 236a 1b40
00000330: b632 347e 236a 1b40 d00f be91 65ce 1f40
00000340: 254f 3a96 e943 1a40 d00f be91 65ce 1f40
00000350: d00f be91 65ce 1f40 d00f be91 65ce 1f40
00000360: d00f be91 65ce 1f40 c2bc 977b f908 1d40
00000370: f837 57cd 3490 1540 254f 3a96 e943 1a40
00000380: c2bc 977b f908 1d40 c2bc 977b f908 1d40
00000390: d00f be91 65ce 1f40 d00f be91 65ce 1f40
000003a0: 5dd2 f095 cfe1 1540 56bf 8f97 e883 1240
000003b0: b632 347e 236a 1b40 d00f be91 65ce 1f40
000003c0: b632 347e 236a 1b40 c2bc 977b f908 1d40
000003d0: d00f be91 65ce 1f40 d00f be91 65ce 1f40
000003e0: d00f be91 65ce 1f40 275e c908 c65f 1940
000003f0: d00f be91 65ce 1f40 d00f be91 65ce 1f40
00000400: 254f 3a96 e943 1a40 d00f be91 65ce 1f40
00000410: d00f be91 65ce 1f40 d00f be91 65ce 1f40
00000420: d00f be91 65ce 1f40 d00f be91 65ce 1f40
00000430: d00f be91 65ce 1f40 c2bc 977b f908 1d40
00000440: d00f be91 65ce 1f40 d00f be91 65ce 1f40
00000450: c2bc 977b f908 1d40 d00f be91 65ce 1f40
00000460: c2bc 977b f908 1d40 d00f be91 65ce 1f40
00000470: c2bc 977b f908 1d40 8829 b58a 63fe 1440
00000480: d00f be91 65ce 1f40 d00f be91 65ce 1f40
00000490: 254f 3a96 e943 1a40 c2bc 977b f908 1d40
000004a0: d00f be91 65ce 1f40 d00f be91 65ce 1f40
000004b0: b632 347e 236a 1b40 d00f be91 65ce 1f40
000004c0: d00f be91 65ce 1f40 d00f be91 65ce 1f40
000004d0: d00f be91 65ce 1f40 c2bc 977b f908 1d40
000004e0: d00f be91 65ce 1f40 d00f be91 65ce 1f40
000004f0: d00f be91 65ce 1f40 d00f be91 65ce 1f40
00000500: 254f 3a96 e943 1a40 b632 347e 236a 1b40
00000510: c2bc 977b f908 1d40 d00f be91 65ce 1f40
00000520: d00f be91 65ce 1f40 d00f be91 65ce 1f40
00000530: d00f be91 65ce 1f40 d00f be91 65ce 1f40
00000540: d00f be91 65ce 1f40 d00f be91 65ce 1f40
00000550: d00f be91 65ce 1f40 d00f be91 65ce 1f40
00000560: d00f be91 65ce 1f40 8915 bab0 6fa5 1840
00000570: d00f be91 65ce 1f40 c2bc 977b f908 1d40
00000580: d00f be91 65ce 1f40 d00f be91 65ce 1f40
00000590: d00f be91 65ce 1f40 254f 3a96 e943 1a40
000005a0: c2bc 977b f908 1d40 c2bc 977b f908 1d40
000005b0: d00f be91 65ce 1f40 d00f be91 65ce 1f40
000005c0: d00f be91 65ce 1f40 d00f be91 65ce 1f40
000005d0: d00f be91 65ce 1f40 d00f be91 65ce 1f40
000005e0: c2bc 977b f908 1d40 d00f be91 65ce 1f40
000005f0: d00f be91 65ce 1f40 c2bc 977b f908 1d40
00000600: d00f be91 65ce 1f40 c2bc 977b f908 1d40
00000610: 1861 c8c7 917f 1740 7b59 ed23 f207 1840
00000620: 275e c908 c65f 1940 d00f be91 65ce 1f40
00000630: c2bc 977b f908 1d40 d00f be91 65ce 1f40
00000640: d00f be91 65ce 1f40 d00f be91 65ce 1f40
00000650: c2bc 977b f908 1d40 c2bc 977b f908 1d40
00000660: c2bc 977b f908 1d40 d00f be91 65ce 1f40
00000670: c2bc 977b f908 1d40 d00f be91 65ce 1f40
00000680: c2bc 977b f908 1d40 d00f be91 65ce 1f40
00000690: d00f be91 65ce 1f40 b632 347e 236a 1b40
000006a0: c2bc 977b f908 1d40 d00f be91 65ce 1f40
000006b0: 3f7c dae4 fda7 1340 d00f be91 65ce 1f40
000006c0: d00f be91 65ce 1f40 d00f be91 65ce 1f40
000006d0: 6c6a 1696 d52c 0d40 d00f be91 65ce 1f40
000006e0: c2bc 977b f908 1d40 d00f be91 65ce 1f40
000006f0: d00f be91 65ce 1f40 d00f be91 65ce 1f40
00000700: c2bc 977b f908 1d40 d00f be91 65ce 1f40
00000710: 254f 3a96 e943 1a40 c2bc 977b f908 1d40
00000720: d00f be91 65ce 1f40 d00f be91 65ce 1f40
00000730: d00f be91 65ce 1f40 c2bc 977b f908 1d40
00000740: 254f 3a96 e943 1a40 d00f be91 65ce 1f40
00000750: d00f be91 65ce 1f40 b632 347e 236a 1b40
00000760: d00f be91 65ce 1f40 d00f be91 65ce 1f40
00000770: 8915 bab0 6fa5 1840 b632 347e 236a 1b40
00000780: b632 347e 236a 1b40 d00f be91 65ce 1f40
00000790: 5dd2 f095 cfe1 1540 7b59 ed23 f207 1840
000007a0: c2bc 977b f908 1d40 d00f be91 65ce 1f40
000007b0: 9c6e b454 f93d 1240 8829 b58a 63fe 1440
000007c0: d00f be91 65ce 1f40 c2bc 977b f908 1d40
000007d0: c2bc 977b f908 1d40 c2bc 977b f908 1d40
000007e0: d00f be91 65ce 1f40 b632 347e 236a 1b40
000007f0: 8915 bab0 6fa5 1840 b632 347e 236a 1b40

indices i4 [55406]
19969 19967 19966 19964 19962 19961 19957 19955
19953 19952 19946 19944 19943 19940 19939 19937
19935 19934 19933 19929 19928 19927 19925 19921
19920 19918 19917 19915 19913 19910 19909 19908
19907 19906 19904 19902 19900 19897 19893 19892
19890 19888 19887 19886 19884 19881 19879 19878
19875 19874 19873 19872 19871 19870 19867 19865
19863 19859 19858 19851 19849 19848 19847 19846
19844 19842 19840 19839 19838 19836 19835 19834
19833 19831 19830 19829 19827 19823 19820 19814
19812 19811 19809 19806 19804 19803 19802 19801
19800 19799 19797 19794 19793 19792 19791 19790
19787 19785 19784 19782 19780 19779 19776 19775
19773 19769 19768 19767 19765 19763 19761 19759
19754 19752 19749 19748 19747 19746 19745 19743
19742 19740 19739 19737 19730 19727 19719 19718
19714 19713 19712 19711 19710 19709 19708 19707
19706 19705 19703 19702 19701 19700 19697 19696
19695 19694 19692 19690 19687 19685 19684 19683
19682 19681 19680 19678 19676 19673 19672 19670
19669 19667 19664 19657 19656 19654 19650 19646
19645 19644 19643 19641 19640 19638 19637 19636
19635 19634 19632 19628 19626 19625 19624 19623
19620 19619 19617 19616 19614 19612 19609 19607
19605 19603 19599 19598 19591 19588 19587 19584
19583 19580 19577 19576 19574 19571 19569 19567
19563 19562 19561 19560 19559 19558 19557 19555
19554 19553 19550 19546 19545 19544 19542 19541
19539 19538 19537 19535 19533 19528 19526 19516
19513 19510 19509 19507 19506 19502 19501 19499
19498 19497 19496 19489 19488 19485 19484 19483
19480 19478 19475 19473 19472 19471 19470 19469
00000000: 014e 0000 ff4d 0000 fe4d 0000 fc4d 0000
00000010: fa4d 0000 f94d 0000 f54d 0000 f34d 0000
00000020: f14d 0000 f04d 0000 ea4d 0000 e84d 0000
00000030: e74d 0000 e44d 0000 e34d 0000 e14d 0000
00000040: df4d 0000 de4d 0000 dd4d 0000 d94d 0000
00000050: d84d 0000 d74d 0000 d54d 0000 d14d 0000
00000060: d04d 0000 ce4d 0000 cd4d 0000 cb4d 0000
00000070: c94d 0000 c64d 0000 c54d 0000 c44d 0000
00000080: c34d 0000 c24d 0000 c04d 0000 be4d 0000
00000090: bc4d 0000 b94d 0000 b54d 0000 b44d 0000
000000a0: b24d 0000 b04d 0000 af4d 0000 ae4d 0000
000000b0: ac4d 0000 a94d 0000 a74d 0000 a64d 0000
000000c0: a34d 0000 a24d 0000 a14d 0000 a04d 0000
000000d0: 9f4d 0000 9e4d 0000 9b4d 0000 994d 0000
000000e0: 974d 0000 934d 0000 924d 0000 8b4d 0000
000000f0: 894d 0000 884d 0000 874d 0000 864d 0000
00000100: 844d 0000 824d 0000 804d 0000 7f4d 0000
00000110: 7e4d 0000 7c4d 0000 7b4d 0000 7a4d 0000
00000120: 794d 0000 774d 0000 764d 0000 754d 0000
00000130: 734d 0000 6f4d 0000 6c4d 0000 664d 0000
00000140: 644d 0000 634d 0000 614d 0000 5e4d 0000
00000150: 5c4d 0000 5b4d 0000 5a4d 0000 594d 0000
00000160: 584d 0000 574d 0000 554d 0000 524d 0000
00000170: 514d 0000 504d 0000 4f4d 0000 4e4d 0000
00000180: 4b4d 0000 494d 0000 484d 0000 464d 0000
00000190: 444d 0000 434d 0000 404d 0000 3f4d 0000
000001a0: 3d4d 0000 394d 0000 384d 0000 374d 0000
000001b0: 354d 0000 334d 0000 314d 0000 2f4d 0000
000001c0: 2a4d 0000 284d 0000 254d 0000 244d 0000
000001d0: 234d 0000 224d 0000 214d 0000 1f4d 0000
000001e0: 1e4d 0000 1c4d 0000 1b4d 0000 194d 0000
000001f0: 124d 0000 0f4d 0000 074d 0000 064d 0000
00000200: 024d 0000 014d 0000 004d 0000 ff4c 0000
00000210: fe4c 0000 fd4c 0000 fc4c 0000 fb4c 0000
00000220: fa4c 0000 f94c 0000 f74c 0000 f64c 0000
00000230: f54c 0000 f44c 0000 f14c 0000 f04c 0000
00000240: ef4c 0000 ee4c 0000 ec4c 0000 ea4c 0000
00000250: e74c 0000 e54c 0000 e44c 0000 e34c 0000
00000260: e24c 0000 e14c 0000 e04c 0000 de4c 0000
00000270: dc4c 0000 d94c 0000 d84c 0000 d64c 0000
00000280: d54c 0000 d34c 0000 d04c 0000 c94c 0000
00000290: c84c 0000 c64c 0000 c24c 0000 be4c 0000
000002a0: bd4c 0000 bc4c 0000 bb4c 0000 b94c 0000
000002b0: b84c 0000 b64c 0000 b54c 0000 b44c 0000
000002c0: b34c 0000 b24c 0000 b04c 0000 ac4c 0000
000002d0: aa4c 0000 a94c 0000 a84c 0000 a74c 0000
000002e0: a44c 0000 a34c 0000 a14c 0000 a04c 0000
000002f0: 9e4c 0000 9c4c 0000 994c 0000 974c 0000
00000300: 954c 0000 934c 0000 8f4c 0000 8e4c 0000
00000310: 874c 0000 844c 0000 834c 0000 804c 0000
00000320: 7f4c 0000 7c4c 0000 794c 0000 784c 0000
00000330: 764c 0000 734c 0000 714c 0000 6f4c 0000
00000340: 6b4c 0000 6a4c 0000 694c 0000 684c 0000
00000350: 674c 0000 664c 0000 654c 0000 634c 0000
00000360: 624c 0000 614c 0000 5e4c 0000 5a4c 0000
00000370: 594c 0000 584c 0000 564c 0000 554c 0000
00000380: 534c 0000 524c 0000 514c 0000 4f4c 0000
00000390: 4d4c 0000 484c 0000 464c 0000 3c4c 0000
000003a0: 394c 0000 364c 0000 354c 0000 334c 0000
000003b0: 324c 0000 2e4c 0000 2d4c 0000 2b4c 0000
000003c0: 2a4c 0000 294c 0000 284c 0000 214c 0000
000003d0: 204c 0000 1d4c 0000 1c4c 0000 1b4c 0000
000003e0: 184c 0000 164c 0000 134c 0000 114c 0000
000003f0: 104c 0000 0f4c 0000 0e4c 0000 0d4c 0000

indptr i4 [48]
0 9856 14637 17827 21293 23065 25185 28213
30901 32153 34050 34432 35820 36358 37805 38326
38461 39145 40765 40810 40844 41860 42086 42276
43752 44854 44870 45984 47348 47593 47725 48428
49342 50178 50374 51146 51330 52088 52204 53070
53633 54059 54671 54699 54736 54766 54845 55406
00000000: 0000 0000 8026 0000 2d39 0000 a345 0000
00000010: 2d53 0000 195a 0000 6162 0000 356e 0000
00000020: b578 0000 997d 0000 0285 0000 8086 0000
00000030: ec8b 0000 068e 0000 ad93 0000 b695 0000
00000040: 3d96 0000 e998 0000 3d9f 0000 6a9f 0000
00000050: 8c9f 0000 84a3 0000 66a4 0000 24a5 0000
00000060: e8aa 0000 36af 0000 46af 0000 a0b3 0000
00000070: f4b8 0000 e9b9 0000 6dba 0000 2cbd 0000
00000080: bec0 0000 02c4 0000 c6c4 0000 cac7 0000
00000090: 82c8 0000 78cb 0000 eccb 0000 4ecf 0000
000000a0: 81d1 0000 2bd3 0000 8fd5 0000 abd5 0000
000000b0: d0d5 0000 eed5 0000 3dd6 0000 6ed8 0000
