output/bertopic_model/ctfidf.safetensors (safetensors, 823124 bytes, 4 tensors)

data f8 [55232]
00000000: 1314 6ddd 882d 263f 1d30 e7a5 bc85 243f
00000010: 7323 7e0c deda 2b3f ac03 af07 91fa 273f
00000020: c142 c3c5 ecfb 413f 50ee e1e7 b468 393f
00000030: 7323 7e0c deda 2b3f 7323 7e0c deda 2b3f
00000040: 00c1 5869 34fb 4d3f 7323 7e0c deda 2b3f
00000050: 7323 7e0c deda 2b3f 0953 1319 7adf 413f
00000060: ce46 a818 56b2 5c3f 7323 7e0c deda 2b3f
00000070: 50ee e1e7 b468 293f de67 1cf3 1489 253f
00000080: 7323 7e0c deda 2b3f 50ee e1e7 b468 293f
00000090: ac03 af07 91fa 373f 7323 7e0c deda 2b3f
000000a0: 7323 7e0c deda 2b3f ac03 af07 91fa 373f
000000b0: ac03 af07 91fa 273f 3ae8 9fdc 2985 713f
000000c0: 50ee e1e7 b468 393f 35c5 9e8c 66a0 593f
000000d0: 7323 7e0c deda 2b3f e8cd fe25 9d3d 4a3f
000000e0: 50ee e1e7 b468 293f 7323 7e0c deda 2b3f
000000f0: 7323 7e0c deda 2b3f 0ecf 11a6 26a2 403f
00000100: 6575 f0a1 70ee 733f 50ee e1e7 b468 293f
00000110: ee37 2142 c099 593f e8cd fe25 9d3d 4a3f
00000120: 50ee e1e7 b468 293f 7323 7e0c deda 2b3f
00000130: 7323 7e0c deda 2b3f 7323 7e0c deda 2b3f
00000140: 7323 7e0c deda 2b3f 7323 7e0c deda 2b3f
00000150: ac03 af07 91fa 373f 67d7 ba57 e2f6 363f
00000160: f44a 2332 8d66 6a3f 50ee e1e7 b468 393f
00000170: 128d 3382 3905 473f 073b 95bc 4f27 6f3f
00000180: 7323 7e0c deda 2b3f 4952 a959 8769 573f
00000190: 5f09 2257 47d0 503f 68eb 53d4 28ed 603f
000001a0: 9efd 25b6 e366 5e3f c94a 1d00 5bd9 663f
000001b0: ac03 af07 91fa 373f 7323 7e0c deda 2b3f
000001c0: e74d 55b6 cf26 403f 7323 7e0c deda 2b3f
000001d0: 50ee e1e7 b468 293f ac03 af07 91fa 273f
000001e0: 50ee e1e7 b468 293f ac03 af07 91fa 273f
000001f0: 50ee e1e7 b468 293f 37d8 50bc 687b 803f
00000200: b9a4 9851 17fe 343f 0954 b3e0 9d1b 443f
00000210: 089e ed7d bb5a 4c3f 7323 7e0c deda 2b3f
00000220: 6c4d ea8b ee4f 423f de67 1cf3 1489 453f
00000230: 7323 7e0c deda 2b3f 2587 de16 f900 443f
00000240: 1314 6ddd 882d 363f 7323 7e0c deda 2b3f
00000250: 67d7 ba57 e2f6 363f ac03 af07 91fa 373f
00000260: 7323 7e0c deda 2b3f 67d7 ba57 e2f6 263f
00000270: c8b1 b395 2c1c 723f 58fd dfef 9399 563f
00000280: 7323 7e0c deda 2b3f 50ee e1e7 b468 293f
00000290: 50ee e1e7 b468 293f 7323 7e0c deda 2b3f
000002a0: 1e65 9587 ef15 423f 0954 b3e0 9d1b 343f
000002b0: ac03 af07 91fa 273f 3d89 2210 86da 453f
000002c0: 39f4 cbe6 a5dc 723f de67 1cf3 1489 453f
000002d0: 19f7 dd20 7ec1 603f 7323 7e0c deda 2b3f
000002e0: 901b 29ed 651c 7b3f 7323 7e0c deda 2b3f
000002f0: 7323 7e0c deda 2b3f 7323 7e0c deda 2b3f
00000300: 1640 9fbf 2d47 723f 7323 7e0c deda 2b3f
00000310: 8e21 ccc1 2939 413f 7323 7e0c deda 2b3f
00000320: 1314 6ddd 882d 263f a0e8 5430 169b 3d3f
00000330: ba1f 274d eed4 3b3f 7323 7e0c deda 2b3f
00000340: 67d7 ba57 e2f6 363f 1314 6ddd 882d 263f
00000350: de67 1cf3 1489 353f 1d30 e7a5 bc85 343f
00000360: 26fe 043f aeb7 563f bfeb b778 43f1 543f
00000370: 7323 7e0c deda 2b3f 7323 7e0c deda 2b3f
00000380: 0953 1319 7adf 213f 7f74 9c50 8590 5a3f
00000390: 7323 7e0c deda 2b3f 1d30 e7a5 bc85 343f
000003a0: ac03 af07 91fa 273f 7323 7e0c deda 2b3f
000003b0: 7323 7e0c deda 2b3f 67d7 ba57 e2f6 263f
000003c0: 0efe 0cd1 6c29 3e3f 0ecf 11a6 26a2 403f
000003d0: 7323 7e0c deda 2b3f 7323 7e0c deda 2b3f
000003e0: 16f7 64fa 227d 3f3f 50ee e1e7 b468 393f
000003f0: 67d7 ba57 e2f6 263f 5827 6b9f 56fb 6c3f
00000400: 7323 7e0c deda 2b3f 8c4d 205e 979e 603f
00000410: 50ee e1e7 b468 293f 7323 7e0c deda 2b3f
00000420: 1314 6ddd 882d 263f ea0c 092e f56c 623f
00000430: 50ee e1e7 b468 393f 8e21 ccc1 2939 413f
00000440: 6c4d ea8b ee4f 223f 188e cea8 43ed 4e3f
00000450: 1c45 4b40 7131 473f e4af 85dc 8e6f 603f
00000460: 7323 7e0c deda 2b3f 67d7 ba57 e2f6 363f
00000470: de67 1cf3 1489 353f d3c3 6161 99d0 223f
00000480: 5f16 678d 607f 4e3f 50ee e1e7 b468 293f
00000490: 7323 7e0c deda 2b3f 67d7 ba57 e2f6 263f
000004a0: 2dc8 daf8 9ac8 3e3f 50ee e1e7 b468 393f
000004b0: 7323 7e0c deda 2b3f 7323 7e0c deda 2b3f
000004c0: c363 8cde f909 583f 50ee e1e7 b468 393f
000004d0: 1d30 e7a5 bc85 343f 7323 7e0c deda 2b3f
000004e0: 78e6 c844 76b6 533f 7323 7e0c deda 2b3f
000004f0: 7323 7e0c deda 2b3f d3c3 6161 99d0 523f
00000500: 50ee e1e7 b468 293f ac03 af07 91fa 273f
00000510: 67d7 ba57 e2f6 363f 7323 7e0c deda 2b3f
00000520: f015 ab11 afd4 543f 67d7 ba57 e2f6 363f
00000530: 1f73 5436 2e74 493f 7323 7e0c deda 2b3f
00000540: ca98 ab9a e9a4 4c3f 50ee e1e7 b468 293f
00000550: 8b78 4639 0b61 383f b9a4 9851 17fe 243f
00000560: 50ee e1e7 b468 293f 1f73 c43a b593 483f
00000570: 50ee e1e7 b468 293f 7323 7e0c deda 2b3f
00000580: 7323 7e0c deda 2b3f 50ee e1e7 b468 293f
00000590: 50ee e1e7 b468 293f 7323 7e0c deda 2b3f
000005a0: 1314 6ddd 882d 263f 50ee e1e7 b468 293f
000005b0: d3c3 6161 99d0 423f 8e21 ccc1 2939 413f
000005c0: c433 5adc 5748 5b3f 50ee e1e7 b468 293f
000005d0: ac03 af07 91fa 373f ac03 af07 91fa 273f
000005e0: 0954 b3e0 9d1b 343f d3c3 6161 99d0 423f
000005f0: a011 4c91 1c88 553f 50ee e1e7 b468 393f
00000600: ac03 af07 91fa 373f 25fc 60cf 2ba7 493f
00000610: 7323 7e0c deda 2b3f 1537 4448 511e 693f
00000620: 7323 7e0c deda 2b3f 50d1 e1ab 1547 4f3f
00000630: 50ee e1e7 b468 293f 7323 7e0c deda 2b3f
00000640: 1314 6ddd 882d 263f ce3c 7f53 3759 6a3f
00000650: 7323 7e0c deda 2b3f 67d7 ba57 e2f6 263f
00000660: 7323 7e0c deda 2b3f d4ac 2e2e e000 523f
00000670: 67d7 ba57 e2f6 263f 67d7 ba57 e2f6 263f
00000680: 7323 7e0c deda 2b3f 7323 7e0c deda 2b3f
00000690: 50ee e1e7 b468 393f 7323 7e0c deda 2b3f
000006a0: dc65 72bc 9b18 333f 7323 7e0c deda 2b3f
000006b0: 7323 7e0c deda 2b3f 1314 6ddd 882d 263f
000006c0: 32f6 0955 ef4a 6a3f 2374 dfd1 e577 3b3f
000006d0: 7b17 8721 a540 483f 50ee e1e7 b468 293f
000006e0: 50ee e1e7 b468 293f 826b f8d3 e89d 513f
000006f0: de67 1cf3 1489 353f 2dc8 daf8 9ac8 3e3f
00000700: 50ee e1e7 b468 293f 1314 6ddd 882d 363f
00000710: ac03 af07 91fa 373f 7323 7e0c deda 2b3f
00000720: 0954 b3e0 9d1b 243f 7323 7e0c deda 2b3f
00000730: 1314 6ddd 882d 263f 5edf ba08 c001 623f
00000740: 50ee e1e7 b468 293f 7323 7e0c deda 2b3f
00000750: 6c4d ea8b ee4f 223f 7323 7e0c deda 2b3f
00000760: 67d7 ba57 e2f6 263f 53ff 8eab c2de 473f
00000770: 50ee e1e7 b468 293f d3c3 6161 99d0 323f
00000780: 7323 7e0c deda 2b3f 50ee e1e7 b468 293f
00000790: 1132 67df 6d0f 603f 0954 b3e0 9d1b 343f
000007a0: 7323 7e0c deda 2b3f 7323 7e0c deda 2b3f
000007b0: 7323 7e0c deda 2b3f 7323 7e0c deda 2b3f
000007c0: 7323 7e0c deda 2b3f 7323 7e0c deda 2b3f
000007d0: 50ee e1e7 b468 393f 159b 9570 5cd7 723f
000007e0: 67d7 ba57 e2f6 263f 7323 7e0c deda 2b3f
000007f0: 50ee e1e7 b468 293f 50ee e1e7 b468 293f
0.0001692037173716415 0.00015657356102705212 0.0002125164085067483 0.00018294353853145812 0.0005488306155943743 0.00038771073003094226 0.0002125164085067483 0.0002125164085067483
0.0009149557033137079 0.0002125164085067483 0.0002125164085067483 0.0005454393559839187 0.0017515030655243405 0.0002125164085067483 0.00019385536501547113 0.00016430264218386578
0.0002125164085067483 0.00019385536501547113 0.00036588707706291623 0.0002125164085067483 0.0002125164085067483 0.00036588707706291623 0.00018294353853145812 0.004277385256495287
0.00038771073003094226 0.001564121385382156 0.0002125164085067483 0.0008008019758478065 0.00019385536501547113 0.0002125164085067483 0.0002125164085067483 0.0005076111521149244
0.004866065951344954 0.00019385536501547113 0.0015625360033655294 0.0008008019758478065 0.00019385536501547113 0.0002125164085067483 0.0002125164085067483 0.0002125164085067483
0.0002125164085067483 0.0002125164085067483 0.00036588707706291623 0.000350408801505045 0.0032227285129037223 0.00038771073003094226 0.0007025271228510452 0.0038029248577581306
0.0002125164085067483 0.0014289685992895532 0.0010262200053437682 0.0020662114571882613 0.0018555854554448202 0.0027891900398711905 0.00036588707706291623 0.0002125164085067483
0.0004929079265515974 0.0002125164085067483 0.00019385536501547113 0.00018294353853145812 0.00019385536501547113 0.00018294353853145812 0.00019385536501547113 0.00804788422292911
0.00032032079033912257 0.0006136437308678087 0.0008653083312823448 0.0002125164085067483 0.0005588450220152369 0.0006572105687354631 0.0002125164085067483 0.0006104675537594624
0.000338407434743283 0.0002125164085067483 0.000350408801505045 0.00036588707706291623 0.0002125164085067483 0.0001752044007525225 0.004421400222082324 0.0013793892571810264
0.0002125164085067483 0.00019385536501547113 0.00019385536501547113 0.0002125164085067483 0.0005519313410033177 0.00030682186543390437 0.00018294353853145812 0.0006669191937087937
0.004604957631042566 0.0006572105687354631 0.002045389503961281 0.0002125164085067483 0.006618879461320129 0.0002125164085067483 0.0002125164085067483 0.0002125164085067483
0.004462412552996417 0.0002125164085067483 0.0005256132022575675 0.0002125164085067483 0.0001692037173716415 0.0004517487689842479 0.0004246789732431606 0.0002125164085067483
0.000350408801505045 0.0001692037173716415 0.00032860528436773155 0.00031314712205410424 0.0013865663168671854 0.0012782248403471056 0.0002125164085067483 0.0002125164085067483
0.00013635983899597966 0.0016213704970547136 0.0002125164085067483 0.00031314712205410424 0.00018294353853145812 0.0002125164085067483 0.0002125164085067483 0.0001752044007525225
0.0004602327981508566 0.0005076111521149244 0.0002125164085067483 0.0002125164085067483 0.0004804811855086839 0.00038771073003094226 0.0001752044007525225 0.00353781622411457
0.0002125164085067483 0.0020287472152717475 0.00019385536501547113 0.0002125164085067483 0.0001692037173716415 0.0022492207210987785 0.00038771073003094226 0.0005256132022575675
0.00013971125550380924 0.0009438114517376665 0.0007077982887386011 0.002006320024682028 0.0002125164085067483 0.000350408801505045 0.00032860528436773155 0.0001435458404475386
0.0009307118842165166 0.00019385536501547113 0.0002125164085067483 0.0001752044007525225 0.00046972068308115644 0.00038771073003094226 0.0002125164085067483 0.0002125164085067483
0.001467222226159346 0.00038771073003094226 0.00031314712205410424 0.0002125164085067483 0.0012031702964478124 0.0002125164085067483 0.0002125164085067483 0.0011483667235803088
0.00019385536501547113 0.00018294353853145812 0.000350408801505045 0.0002125164085067483 0.0012714109094970026 0.000350408801505045 0.0007767892499575857 0.0002125164085067483
0.0008741512914099078 0.00019385536501547113 0.0003719952012718539 0.00016016039516956128 0.00019385536501547113 0.000750030032154212 0.00019385536501547113 0.0002125164085067483
0.0002125164085067483 0.00019385536501547113 0.00019385536501547113 0.0002125164085067483 0.0001692037173716415 0.00019385536501547113 0.0005741833617901544 0.0005256132022575675
0.001665197183146492 0.00019385536501547113 0.00036588707706291623 0.00018294353853145812 0.00030682186543390437 0.0005741833617901544 0.001314189813627832 0.00038771073003094226
0.00036588707706291623 0.0007828678051352607 0.0002125164085067483 0.0030662143273109213 0.0002125164085067483 0.0009545188729718577 0.00019385536501547113 0.0002125164085067483
0.0001692037173716415 0.0032163696850840756 0.0002125164085067483 0.0001752044007525225 0.0002125164085067483 0.0010988415967670322 0.0001752044007525225 0.0001752044007525225
0.0002125164085067483 0.0002125164085067483 0.00038771073003094226 0.0002125164085067483 0.0002913837638033026 0.0002125164085067483 0.0002125164085067483 0.0001692037173716415
0.003209559865637223 0.00041913376651142776 0.0007401281646301905 0.00019385536501547113 0.00019385536501547113 0.0010752462111500443 0.00032860528436773155 0.00046972068308115644
0.00019385536501547113 0.000338407434743283 0.00036588707706291623 0.0002125164085067483 0.00015341093271695219 0.0002125164085067483 0.0001692037173716415 0.002198100153545753
0.00019385536501547113 0.0002125164085067483 0.00013971125550380924 0.0002125164085067483 0.0001752044007525225 0.0007284594095082565 0.00019385536501547113 0.0002870916808950772
0.0002125164085067483 0.00019385536501547113 0.0019604822111658556 0.00030682186543390437 0.0002125164085067483 0.0002125164085067483 0.0002125164085067483 0.0002125164085067483
0.0002125164085067483 0.0002125164085067483 0.00038771073003094226 0.004599915593053412 0.0001752044007525225 0.0002125164085067483 0.00019385536501547113 0.00019385536501547113

diag f8 [19971]
00000000: 0e77 b6dd 30fb 1540 267c 1c77 4620 1940
00000010: bb13 d5e1 2340 1740 a17f 3c1f 982a 1b40
00000020: 1948 1761 ce8e 1f40 1948 1761 ce8e 1f40
00000030: a17f 3c1f 982a 1b40 062f 5534 68c9 1c40
00000040: 1948 1761 ce8e 1f40 267c 1c77 4620 1940
00000050: 062f 5534 68c9 1c40 1948 1761 ce8e 1f40
00000060: 1948 1761 ce8e 1f40 1948 1761 ce8e 1f40
00000070: 1948 1761 ce8e 1f40 1948 1761 ce8e 1f40
00000080: 1948 1761 ce8e 1f40 062f 5534 68c9 1c40
00000090: 1948 1761 ce8e 1f40 1948 1761 ce8e 1f40
000000a0: 1948 1761 ce8e 1f40 1948 1761 ce8e 1f40
000000b0: 1948 1761 ce8e 1f40 1948 1761 ce8e 1f40
000000c0: 062f 5534 68c9 1c40 1948 1761 ce8e 1f40
000000d0: 1948 1761 ce8e 1f40 1948 1761 ce8e 1f40
000000e0: 062f 5534 68c9 1c40 1948 1761 ce8e 1f40
000000f0: 1948 1761 ce8e 1f40 1948 1761 ce8e 1f40
00000100: 1948 1761 ce8e 1f40 1948 1761 ce8e 1f40
00000110: 1948 1761 ce8e 1f40 1948 1761 ce8e 1f40
00000120: 1948 1761 ce8e 1f40 1948 1761 ce8e 1f40
00000130: 1948 1761 ce8e 1f40 1948 1761 ce8e 1f40
00000140: 1948 1761 ce8e 1f40 062f 5534 68c9 1c40
00000150: 1948 1761 ce8e 1f40 1948 1761 ce8e 1f40
00000160: 062f 5534 68c9 1c40 1948 1761 ce8e 1f40
00000170: 1948 1761 ce8e 1f40 1948 1761 ce8e 1f40
00000180: 1948 1761 ce8e 1f40 1948 1761 ce8e 1f40
00000190: da65 741e 6404 1a40 1948 1761 ce8e 1f40
000001a0: 062f 5534 68c9 1c40 062f 5534 68c9 1c40
000001b0: 1948 1761 ce8e 1f40 062f 5534 68c9 1c40
000001c0: 1948 1761 ce8e 1f40 da65 741e 6404 1a40
000001d0: 1948 1761 ce8e 1f40 1948 1761 ce8e 1f40
000001e0: da65 741e 6404 1a40 062f 5534 68c9 1c40
000001f0: a17f 3c1f 982a 1b40 062f 5534 68c9 1c40
00000200: 1948 1761 ce8e 1f40 062f 5534 68c9 1c40
00000210: da65 741e 6404 1a40 1948 1761 ce8e 1f40
00000220: 062f 5534 68c9 1c40 062f 5534 68c9 1c40
00000230: 1948 1761 ce8e 1f40 1948 1761 ce8e 1f40
00000240: 1948 1761 ce8e 1f40 1948 1761 ce8e 1f40
00000250: 1948 1761 ce8e 1f40 1948 1761 ce8e 1f40
00000260: 062f 5534 68c9 1c40 062f 5534 68c9 1c40
00000270: 1948 1761 ce8e 1f40 c249 30f9 43e1 1240
00000280: 1948 1761 ce8e 1f40 1948 1761 ce8e 1f40
00000290: 1948 1761 ce8e 1f40 1948 1761 ce8e 1f40
000002a0: 062f 5534 68c9 1c40 1948 1761 ce8e 1f40
000002b0: 1948 1761 ce8e 1f40 062f 5534 68c9 1c40
000002c0: 062f 5534 68c9 1c40 1948 1761 ce8e 1f40
000002d0: 062f 5534 68c9 1c40 1948 1761 ce8e 1f40
000002e0: 1948 1761 ce8e 1f40 267c 1c77 4620 1940
000002f0: 062f 5534 68c9 1c40 a17f 3c1f 982a 1b40
00000300: bb13 d5e1 2340 1740 062f 5534 68c9 1c40
00000310: 1948 1761 ce8e 1f40 c876 f6fc 675c 1640
00000320: 062f 5534 68c9 1c40 a17f 3c1f 982a 1b40
00000330: a17f 3c1f 982a 1b40 1948 1761 ce8e 1f40
00000340: da65 741e 6404 1a40 1948 1761 ce8e 1f40
00000350: 1948 1761 ce8e 1f40 1948 1761 ce8e 1f40
00000360: 1948 1761 ce8e 1f40 062f 5534 68c9 1c40
00000370: e3ca 1b45 e450 1540 da65 741e 6404 1a40
00000380: 062f 5534 68c9 1c40 062f 5534 68c9 1c40
00000390: 1948 1761 ce8e 1f40 1948 1761 ce8e 1f40
000003a0: f67a 5730 79a2 1540 ce2c 2a86 ef44 1240
000003b0: a17f 3c1f 982a 1b40 1948 1761 ce8e 1f40
000003c0: a17f 3c1f 982a 1b40 062f 5534 68c9 1c40
000003d0: 1948 1761 ce8e 1f40 1948 1761 ce8e 1f40
000003e0: 1948 1761 ce8e 1f40 267c 1c77 4620 1940
000003f0: 1948 1761 ce8e 1f40 1948 1761 ce8e 1f40
00000400: da65 741e 6404 1a40 1948 1761 ce8e 1f40
00000410: 1948 1761 ce8e 1f40 1948 1761 ce8e 1f40
00000420: 1948 1761 ce8e 1f40 1948 1761 ce8e 1f40
00000430: 1948 1761 ce8e 1f40 062f 5534 68c9 1c40
00000440: 1948 1761 ce8e 1f40 1948 1761 ce8e 1f40
00000450: 062f 5534 68c9 1c40 1948 1761 ce8e 1f40
00000460: 062f 5534 68c9 1c40 1948 1761 ce8e 1f40
00000470: 062f 5534 68c9 1c40 07cb f3b9 1ebf 1440
00000480: 1948 1761 ce8e 1f40 1948 1761 ce8e 1f40
00000490: da65 741e 6404 1a40 062f 5534 68c9 1c40
000004a0: 1948 1761 ce8e 1f40 1948 1761 ce8e 1f40
000004b0: a17f 3c1f 982a 1b40 1948 1761 ce8e 1f40
000004c0: 1948 1761 ce8e 1f40 1948 1761 ce8e 1f40
000004d0: 1948 1761 ce8e 1f40 062f 5534 68c9 1c40
000004e0: 1948 1761 ce8e 1f40 1948 1761 ce8e 1f40
000004f0: 1948 1761 ce8e 1f40 1948 1761 ce8e 1f40
00000500: da65 741e 6404 1a40 a17f 3c1f 982a 1b40
00000510: 062f 5534 68c9 1c40 1948 1761 ce8e 1f40
00000520: 1948 1761 ce8e 1f40 1948 1761 ce8e 1f40
00000530: 1948 1761 ce8e 1f40 1948 1761 ce8e 1f40
00000540: 1948 1761 ce8e 1f40 1948 1761 ce8e 1f40
00000550: 1948 1761 ce8e 1f40 1948 1761 ce8e 1f40
00000560: 1948 1761 ce8e 1f40 8dc6 0d04 f665 1840
00000570: 1948 1761 ce8e 1f40 062f 5534 68c9 1c40
00000580: 1948 1761 ce8e 1f40 1948 1761 ce8e 1f40
00000590: 1948 1761 ce8e 1f40 da65 741e 6404 1a40
000005a0: 062f 5534 68c9 1c40 062f 5534 68c9 1c40
000005b0: 1948 1761 ce8e 1f40 1948 1761 ce8e 1f40
000005c0: 1948 1761 ce8e 1f40 1948 1761 ce8e 1f40
000005d0: 1948 1761 ce8e 1f40 1948 1761 ce8e 1f40
000005e0: 062f 5534 68c9 1c40 1948 1761 ce8e 1f40
000005f0: 1948 1761 ce8e 1f40 062f 5534 68c9 1c40
00000600: 1948 1761 ce8e 1f40 062f 5534 68c9 1c40
00000610: bb13 d5e1 2340 1740 5f77 295b 7ec8 1740
00000620: 267c 1c77 4620 1940 1948 1761 ce8e 1f40
00000630: 062f 5534 68c9 1c40 1948 1761 ce8e 1f40
00000640: 1948 1761 ce8e 1f40 1948 1761 ce8e 1f40
00000650: 062f 5534 68c9 1c40 062f 5534 68c9 1c40
00000660: 062f 5534 68c9 1c40 1948 1761 ce8e 1f40
00000670: 062f 5534 68c9 1c40 1948 1761 ce8e 1f40
00000680: 062f 5534 68c9 1c40 1948 1761 ce8e 1f40
00000690: 1948 1761 ce8e 1f40 a17f 3c1f 982a 1b40
000006a0: 062f 5534 68c9 1c40 1948 1761 ce8e 1f40
000006b0: 17c3 8e20 dc68 1340 1948 1761 ce8e 1f40
000006c0: 1948 1761 ce8e 1f40 1948 1761 ce8e 1f40
000006d0: d362 05bf 06b1 0c40 1948 1761 ce8e 1f40
000006e0: 062f 5534 68c9 1c40 1948 1761 ce8e 1f40
000006f0: 1948 1761 ce8e 1f40 1948 1761 ce8e 1f40
00000700: 062f 5534 68c9 1c40 1948 1761 ce8e 1f40
00000710: da65 741e 6404 1a40 062f 5534 68c9 1c40
00000720: 1948 1761 ce8e 1f40 1948 1761 ce8e 1f40
00000730: 1948 1761 ce8e 1f40 062f 5534 68c9 1c40
00000740: da65 741e 6404 1a40 1948 1761 ce8e 1f40
00000750: 1948 1761 ce8e 1f40 a17f 3c1f 982a 1b40
00000760: 1948 1761 ce8e 1f40 1948 1761 ce8e 1f40
00000770: 8dc6 0d04 f665 1840 a17f 3c1f 982a 1b40
00000780: a17f 3c1f 982a 1b40 1948 1761 ce8e 1f40
00000790: f67a 5730 79a2 1540 5f77 295b 7ec8 1740
000007a0: 062f 5534 68c9 1c40 1948 1761 ce8e 1f40
000007b0: 508c 80da 0bff 1140 07cb f3b9 1ebf 1440
000007c0: 1948 1761 ce8e 1f40 062f 5534 68c9 1c40
000007d0: 062f 5534 68c9 1c40 062f 5534 68c9 1c40
000007e0: 1948 1761 ce8e 1f40 a17f 3c1f 982a 1b40
000007f0: 8dc6 0d04 f665 1840 a17f 3c1f 982a 1b40
5.495303596746238 6.281518803704818 5.8126368795682835 6.791595924441851 7.889459149404524 7.889459149404524 6.791595924441851 7.19668657083435
7.889459149404524 6.281518803704818 7.19668657083435 7.889459149404524 7.889459149404524 7.889459149404524 7.889459149404524 7.889459149404524
7.889459149404524 7.19668657083435 7.889459149404524 7.889459149404524 7.889459149404524 7.889459149404524 7.889459149404524 7.889459149404524
7.19668657083435 7.889459149404524 7.889459149404524 7.889459149404524 7.19668657083435 7.889459149404524 7.889459149404524 7.889459149404524
7.889459149404524 7.889459149404524 7.889459149404524 7.889459149404524 7.889459149404524 7.889459149404524 7.889459149404524 7.889459149404524
7.889459149404524 7.19668657083435 7.889459149404524 7.889459149404524 7.19668657083435 7.889459149404524 7.889459149404524 7.889459149404524
7.889459149404524 7.889459149404524 6.504288173536645 7.889459149404524 7.19668657083435 7.19668657083435 7.889459149404524 7.19668657083435
7.889459149404524 6.504288173536645 7.889459149404524 7.889459149404524 6.504288173536645 7.19668657083435 6.791595924441851 7.19668657083435
7.889459149404524 7.19668657083435 6.504288173536645 7.889459149404524 7.19668657083435 7.19668657083435 7.889459149404524 7.889459149404524
7.889459149404524 7.889459149404524 7.889459149404524 7.889459149404524 7.19668657083435 7.19668657083435 7.889459149404524 4.7199858604166725
7.889459149404524 7.889459149404524 7.889459149404524 7.889459149404524 7.19668657083435 7.889459149404524 7.889459149404524 7.19668657083435
7.19668657083435 7.889459149404524 7.19668657083435 7.889459149404524 7.889459149404524 6.281518803704818 7.19668657083435 6.791595924441851
5.8126368795682835 7.19668657083435 7.889459149404524 5.5902404332570725 7.19668657083435 6.791595924441851 6.791595924441851 7.889459149404524
6.504288173536645 7.889459149404524 7.889459149404524 7.889459149404524 7.889459149404524 7.19668657083435 5.328995780774423 6.504288173536645
7.19668657083435 7.19668657083435 7.889459149404524 7.889459149404524 5.4086654237169025 4.5673199618569935 6.791595924441851 7.889459149404524
6.791595924441851 7.19668657083435 7.889459149404524 7.889459149404524 7.889459149404524 6.281518803704818 7.889459149404524 7.889459149404524
6.504288173536645 7.889459149404524 7.889459149404524 7.889459149404524 7.889459149404524 7.889459149404524 7.889459149404524 7.19668657083435
7.889459149404524 7.889459149404524 7.19668657083435 7.889459149404524 7.19668657083435 7.889459149404524 7.19668657083435 5.186640649323414
7.889459149404524 7.889459149404524 6.504288173536645 7.19668657083435 7.889459149404524 7.889459149404524 6.791595924441851 7.889459149404524
7.889459149404524 7.889459149404524 7.889459149404524 7.19668657083435 7.889459149404524 7.889459149404524 7.889459149404524 7.889459149404524
6.504288173536645 6.791595924441851 7.19668657083435 7.889459149404524 7.889459149404524 7.889459149404524 7.889459149404524 7.889459149404524
7.889459149404524 7.889459149404524 7.889459149404524 7.889459149404524 7.889459149404524 6.099571288433833 7.889459149404524 7.19668657083435
7.889459149404524 7.889459149404524 7.889459149404524 6.504288173536645 7.19668657083435 7.19668657083435 7.889459149404524 7.889459149404524
7.889459149404524 7.889459149404524 7.889459149404524 7.889459149404524 7.19668657083435 7.889459149404524 7.889459149404524 7.19668657083435
7.889459149404524 7.19668657083435 5.8126368795682835 5.945794510274793 6.281518803704818 7.889459149404524 7.19668657083435 7.889459149404524
7.889459149404524 7.889459149404524 7.19668657083435 7.19668657083435 7.19668657083435 7.889459149404524 7.19668657083435 7.889459149404524
7.19668657083435 7.889459149404524 7.889459149404524 6.791595924441851 7.19668657083435 7.889459149404524 4.852402218545442 7.889459149404524
7.889459149404524 7.889459149404524 3.586438648559445 7.889459149404524 7.19668657083435 7.889459149404524 7.889459149404524 7.889459149404524
7.19668657083435 7.889459149404524 6.504288173536645 7.19668657083435 7.889459149404524 7.889459149404524 7.889459149404524 7.19668657083435
6.504288173536645 7.889459149404524 7.889459149404524 6.791595924441851 7.889459149404524 7.889459149404524 6.099571288433833 6.791595924441851
6.791595924441851 7.889459149404524 5.4086654237169025 5.945794510274793 7.19668657083435 7.889459149404524 4.499068655105546 5.186640649323414
7.889459149404524 7.19668657083435 7.19668657083435 7.19668657083435 7.889459149404524 6.791595924441851 6.099571288433833 6.791595924441851

indices i4 [55232]
00000000: ff4d 0000 fe4d 0000 fa4d 0000 f94d 0000
00000010: f54d 0000 f34d 0000 f14d 0000 f04d 0000
00000020: ea4d 0000 e84d 0000 e74d 0000 e44d 0000
00000030: e34d 0000 e24d 0000 e14d 0000 df4d 0000
00000040: de4d 0000 dd4d 0000 db4d 0000 d94d 0000
00000050: d84d 0000 d74d 0000 d54d 0000 d14d 0000
00000060: d04d 0000 ce4d 0000 cd4d 0000 cb4d 0000
00000070: c94d 0000 c84d 0000 c74d 0000 c64d 0000
00000080: c54d 0000 c44d 0000 c24d 0000 c04d 0000
00000090: bc4d 0000 ba4d 0000 b94d 0000 b74d 0000
000000a0: b54d 0000 b44d 0000 b24d 0000 b04d 0000
000000b0: af4d 0000 ae4d 0000 a94d 0000 a74d 0000
000000c0: a54d 0000 a34d 0000 a24d 0000 a14d 0000
000000d0: a04d 0000 9f4d 0000 9e4d 0000 9b4d 0000
000000e0: 994d 0000 984d 0000 924d 0000 8c4d 0000
000000f0: 8b4d 0000 894d 0000 884d 0000 874d 0000
00000100: 864d 0000 844d 0000 824d 0000 804d 0000
00000110: 7f4d 0000 7c4d 0000 7b4d 0000 7a4d 0000
00000120: 794d 0000 784d 0000 774d 0000 764d 0000
00000130: 754d 0000 734d 0000 6f4d 0000 6c4d 0000
00000140: 6b4d 0000 6a4d 0000 664d 0000 644d 0000
00000150: 634d 0000 614d 0000 604d 0000 5e4d 0000
00000160: 5b4d 0000 5a4d 0000 594d 0000 584d 0000
00000170: 574d 0000 554d 0000 524d 0000 514d 0000
00000180: 504d 0000 4f4d 0000 4e4d 0000 4b4d 0000
00000190: 494d 0000 484d 0000 464d 0000 444d 0000
000001a0: 434d 0000 404d 0000 3f4d 0000 3e4d 0000
000001b0: 3d4d 0000 394d 0000 384d 0000 374d 0000
000001c0: 354d 0000 334d 0000 314d 0000 2f4d 0000
000001d0: 2e4d 0000 2c4d 0000 2a4d 0000 284d 0000
000001e0: 254d 0000 244d 0000 234d 0000 224d 0000
000001f0: 214d 0000 1f4d 0000 1e4d 0000 1c4d 0000
00000200: 1b4d 0000 194d 0000 124d 0000 104d 0000
00000210: 0f4d 0000 074d 0000 064d 0000 024d 0000
00000220: 014d 0000 004d 0000 ff4c 0000 fe4c 0000
00000230: fd4c 0000 fc4c 0000 fb4c 0000 fa4c 0000
00000240: f94c 0000 f74c 0000 f64c 0000 f54c 0000
00000250: f44c 0000 f14c 0000 f04c 0000 ef4c 0000
00000260: ee4c 0000 ec4c 0000 ea4c 0000 e74c 0000
00000270: e54c 0000 e44c 0000 e34c 0000 e14c 0000
00000280: e04c 0000 de4c 0000 dc4c 0000 d94c 0000
00000290: d84c 0000 d64c 0000 d54c 0000 d44c 0000
000002a0: d34c 0000 d14c 0000 d04c 0000 c84c 0000
000002b0: c74c 0000 c64c 0000 c24c 0000 be4c 0000
000002c0: bd4c 0000 bc4c 0000 bb4c 0000 b94c 0000
000002d0: b84c 0000 b64c 0000 b54c 0000 b44c 0000
000002e0: b34c 0000 b24c 0000 b04c 0000 ad4c 0000
000002f0: ac4c 0000 aa4c 0000 a94c 0000 a84c 0000
00000300: a74c 0000 a44c 0000 a34c 0000 a04c 0000
00000310: 9e4c 0000 9c4c 0000 994c 0000 974c 0000
00000320: 954c 0000 934c 0000 904c 0000 8f4c 0000
00000330: 8e4c 0000 874c 0000 844c 0000 834c 0000
00000340: 804c 0000 7f4c 0000 7c4c 0000 794c 0000
00000350: 784c 0000 764c 0000 744c 0000 734c 0000
00000360: 714c 0000 6f4c 0000 6b4c 0000 6a4c 0000
00000370: 694c 0000 684c 0000 674c 0000 664c 0000
00000380: 654c 0000 634c 0000 624c 0000 614c 0000
00000390: 604c 0000 5e4c 0000 5c4c 0000 5a4c 0000
000003a0: 594c 0000 564c 0000 554c 0000 534c 0000
000003b0: 524c 0000 514c 0000 504c 0000 4d4c 0000
000003c0: 4b4c 0000 484c 0000 464c 0000 3c4c 0000
000003d0: 3b4c 0000 394c 0000 364c 0000 354c 0000
000003e0: 334c 0000 324c 0000 304c 0000 2e4c 0000
000003f0: 2d4c 0000 2b4c 0000 2a4c 0000 294c 0000
19967 19966 19962 19961 19957 19955 19953 19952
19946 19944 19943 19940 19939 19938 19937 19935
19934 19933 19931 19929 19928 19927 19925 19921
19920 19918 19917 19915 19913 19912 19911 19910
19909 19908 19906 19904 19900 19898 19897 19895
19893 19892 19890 19888 19887 19886 19881 19879
19877 19875 19874 19873 19872 19871 19870 19867
19865 19864 19858 19852 19851 19849 19848 19847
19846 19844 19842 19840 19839 19836 19835 19834
19833 19832 19831 19830 19829 19827 19823 19820
19819 19818 19814 19812 19811 19809 19808 19806
19803 19802 19801 19800 19799 19797 19794 19793
19792 19791 19790 19787 19785 19784 19782 19780
19779 19776 19775 19774 19773 19769 19768 19767
19765 19763 19761 19759 19758 19756 19754 19752
19749 19748 19747 19746 19745 19743 19742 19740
19739 19737 19730 19728 19727 19719 19718 19714
19713 19712 19711 19710 19709 19708 19707 19706
19705 19703 19702 19701 19700 19697 19696 19695
19694 19692 19690 19687 19685 19684 19683 19681
19680 19678 19676 19673 19672 19670 19669 19668
19667 19665 19664 19656 19655 19654 19650 19646
19645 19644 19643 19641 19640 19638 19637 19636
19635 19634 19632 19629 19628 19626 19625 19624
19623 19620 19619 19616 19614 19612 19609 19607
19605 19603 19600 19599 19598 19591 19588 19587
19584 19583 19580 19577 19576 19574 19572 19571
19569 19567 19563 19562 19561 19560 19559 19558
19557 19555 19554 19553 19552 19550 19548 19546
19545 19542 19541 19539 19538 19537 19536 19533
19531 19528 19526 19516 19515 19513 19510 19509
19507 19506 19504 19502 19501 19499 19498 19497

indptr i4 [51]
00000000: 0000 0000 ff27 0000 d53a 0000 0c47 0000
00000010: b954 0000 9f5b 0000 df63 0000 7770 0000
00000020: 9d7a 0000 1b7c 0000 8881 0000 a283 0000
00000030: db88 0000 6f8e 0000 5d90 0000 8b90 0000
00000040: b190 0000 aa93 0000 7b98 0000 699c 0000
00000050: 539d 0000 719f 0000 ce9f 0000 92a5 0000
00000060: 4ba6 0000 9fab 0000 adab 0000 deac 0000
00000070: 62ad 0000 aeb1 0000 5cb4 0000 abb7 0000
00000080: d8ba 0000 e9bd 0000 c0c0 0000 a3c3 0000
00000090: 15c4 0000 ccc4 0000 c0c7 0000 f0c7 0000
000000a0: 92c8 0000 07cb 0000 dbcd 0000 1cce 0000
000000b0: c0cf 0000 04d2 0000 29d2 0000 8dd2 0000
000000c0: 0cd5 0000 23d7 0000 c0d7 0000
0 10239 15061 18188 21689 23455 25567 28791
31389 31771 33160 33698 35035 36463 36957 37003
37041 37802 39035 40041 40275 40817 40910 42386
42571 43935 43949 44254 44386 45486 46172 47019
47832 48617 49344 50083 50197 50380 51136 51184
51346 51975 52699 52764 53184 53764 53801 53901
54540 55075 55232
