output/bertopic_model/ctfidf.safetensors (safetensors, 825736 bytes, 4 tensors)

data f8 [55449]
0.00018532797877410622 0.0004421113523251975 0.0005452100893745265 0.00018532797877410622 0.00018532797877410622 0.00031882246026637267 0.00018532797877410622 0.00016897392550165028
0.00018532797877410622 0.00018532797877410622 0.00018532797877410622 0.0013636633837004549 0.00018532797877410622 0.00018532797877410622 0.0005929524845419764 0.002025194959170647
0.00016897392550165028 0.00028615106780592326 0.00018532797877410622 0.00016897392550165028 0.00031882246026637267 0.00018532797877410622 0.00018532797877410622 0.00015941123013318633
0.00016897392550165028 0.00015941123013318633 0.00363544410716658 0.00033794785100330055 0.001149890818672182 0.00018532797877410622 0.0005577825933169434 0.00016897392550165028
0.00018532797877410622 0.00018532797877410622 0.0004421113523251975 0.004332752681457876 0.00016897392550165028 0.0017174558906660564 0.0006972282416461793 0.00018532797877410622
0.00016897392550165028 0.00018532797877410622 0.00018532797877410622 0.00018532797877410622 0.00018532797877410622 0.00018532797877410622 0.00011051367621212554 0.00015941123013318633
0.0003052581122176287 0.0028830065242628337 0.00033794785100330055 0.00016897392550165028 0.00018532797877410622 0.00016897392550165028 0.0011187756195361572 0.003292529296329657
0.0002497737322200098 0.00018532797877410622 0.001569329001180816 0.00089207417635928 0.0023039982849722197 0.0023714703746444315 0.002572859920884333 0.00031882246026637267
0.00016897392550165028 0.00018532797877410622 0.0005723021356118465 0.00018532797877410622 0.00015941123013318633 0.00015941123013318633 0.00016897392550165028 0.00031882246026637267
0.00016897392550165028 0.007421529729627624 0.0002788912966584717 0.0006676558351937697 0.001314466173216184 0.00018532797877410622 0.0007291617561779608 0.00015941123013318633
0.0005723021356118465 0.00018532797877410622 0.0008487338934114287 0.0004421113523251975 0.00018532797877410622 0.0003052581122176287 0.00031882246026637267 0.00018532797877410622
0.00015262905610881434 0.00018532797877410622 0.004455838833856331 0.0021071060566612253 0.00018532797877410622 0.00033794785100330055 0.00016897392550165028 0.00018532797877410622
0.0003600375955500571 0.00013353116703875394 0.00015941123013318633 0.0005799152275467528 0.005062990044849477 0.0004292266017088849 0.002404317166314562 0.00018532797877410622
0.006116913657636413 0.00018532797877410622 0.00018532797877410622 0.00018532797877410622 0.004237996278029602 0.00018532797877410622 0.0006105162244352573 0.00018532797877410622
0.00014737045077506584 0.0002621061375934938 0.0004925861518697266 0.00018532797877410622 0.0003052581122176287 0.0005894818031002634 0.0007153776695148083 0.00027260504468726326
0.0009860318744392158 0.00018532797877410622 0.0011524722158024034 0.00018532797877410622 0.00018532797877410622 0.00011859049690839528 0.0013359551547975097 0.00018532797877410622
0.00027260504468726326 0.00015941123013318633 0.00018532797877410622 0.00018532797877410622 0.00015941123013318633 0.00015262905610881434 0.0005341246681550158 0.0004421113523251975
0.00018532797877410622 0.00018532797877410622 0.0002788912966584717 0.00033794785100330055 0.0038794830905312014 0.00018532797877410622 0.00018532797877410622 0.0018429716521603087
0.00018532797877410622 0.00033794785100330055 0.00018532797877410622 0.00014737045077506584 0.00018532797877410622 0.00016897392550165028 0.0022311378299183114 0.00033794785100330055
0.0006105162244352573 0.00012152695936299347 0.00093800228649789 0.0007388792278045898 0.0016495519335088674 0.00018532797877410622 0.0003052581122176287 0.0004292266017088849
0.0002497737322200098 0.0007073563985909911 0.00016897392550165028 0.00018532797877410622 0.00040890756703089486 0.00033794785100330055 0.00018532797877410622 0.00018532797877410622
0.0009278643640748043 0.00033794785100330055 0.00018532797877410622 0.00013630252234363163 0.00018532797877410622 0.0008362842317615868 0.00018532797877410622 0.00018532797877410622
0.00018532797877410622 0.0008742080627700344 0.00016897392550165028 0.00018532797877410622 0.00015941123013318633 0.0003052581122176287 0.00018532797877410622 0.001215650438333381
0.00015262905610881434 0.0007878467284192004 0.00018532797877410622 0.0007606037583160243 0.00016897392550165028 0.0003232814390605053 0.00018532797877410622 0.00013630252234363163
0.0002788912966584717 0.00016897392550165028 0.0007604962142623887 0.00016897392550165028 0.00016897392550165028 0.00018532797877410622 0.00018532797877410622 0.00016897392550165028
0.00018532797877410622 0.00018532797877410622 0.00014737045077506584 0.00018532797877410622 0.00016897392550165028 0.00037466059833001473 0.000457887168326443 0.0016385639690456593
0.00016897392550165028 0.00031882246026637267 0.00016897392550165028 0.00015941123013318633 0.0004005935011162618 0.0004995474644400196 0.0015569268039769186 0.00033794785100330055
0.00031882246026637267 0.0008178151340617897 0.00018532797877410622 0.00018532797877410622 0.0028700104617388343 0.00018532797877410622 0.000830133478358767 0.00016897392550165028
0.00018532797877410622 0.00014737045077506584 0.0029926808023259897 0.00018532797877410622 0.00018532797877410622 0.00015262905610881434 0.00018532797877410622 0.00018532797877410622
0.0008487338934114287 0.00015262905610881434 0.00015262905610881434 0.00018532797877410622 0.00018532797877410622 0.00033794785100330055 0.00018532797877410622 0.0002535345861053415
0.00018532797877410622 0.00018532797877410622 0.00014737045077506584 0.0031558715149371287 0.00012152695936299347 0.000644061135251888 0.00016897392550165028 0.00016897392550165028
0.001037951202651279 0.00028615106780592326 0.00027260504468726326 0.00016897392550165028 0.0004421113523251975 0.00031882246026637267 0.00018532797877410622 0.00013353116703875394
00000000: 8b8c 3a37 934a 283f 6940 a7cc 65f9 3c3f
00000010: 058e 6cc0 8ddd 413f 8b8c 3a37 934a 283f
00000020: 8b8c 3a37 934a 283f b14f 420a f4e4 343f
00000030: 8b8c 3a37 934a 283f fd91 c2f7 d225 263f
00000040: 8b8c 3a37 934a 283f 8b8c 3a37 934a 283f
00000050: 8b8c 3a37 934a 283f a210 b068 9e57 563f
00000060: 8b8c 3a37 934a 283f 8b8c 3a37 934a 283f
00000070: 3d7d bcc3 0b6e 433f 11e3 c343 2497 603f
00000080: fd91 c2f7 d225 263f cf66 5a7a d1c0 323f
00000090: 8b8c 3a37 934a 283f fd91 c2f7 d225 263f
000000a0: b14f 420a f4e4 343f 8b8c 3a37 934a 283f
000000b0: 8b8c 3a37 934a 283f b14f 420a f4e4 243f
000000c0: fd91 c2f7 d225 263f b14f 420a f4e4 243f
000000d0: 5ab3 7e31 14c8 6d3f fd91 c2f7 d225 363f
000000e0: 2c63 73dd fdd6 523f 8b8c 3a37 934a 283f
000000f0: 7bbf 8fff 0447 423f fd91 c2f7 d225 263f
00000100: 8b8c 3a37 934a 283f 8b8c 3a37 934a 283f
00000110: 6940 a7cc 65f9 3c3f 35a6 1871 38bf 713f
00000120: fd91 c2f7 d225 263f a9b3 7e38 8823 5c3f
00000130: 5baf 733f c6d8 463f 8b8c 3a37 934a 283f
00000140: fd91 c2f7 d225 263f 8b8c 3a37 934a 283f
00000150: 8b8c 3a37 934a 283f 8b8c 3a37 934a 283f
00000160: 8b8c 3a37 934a 283f 8b8c 3a37 934a 283f
00000170: 6c11 1880 72f8 1c3f b14f 420a f4e4 243f
00000180: 2332 db9b 6101 343f 9d31 8c57 1a9e 673f
00000190: fd91 c2f7 d225 363f fd91 c2f7 d225 263f
000001a0: 8b8c 3a37 934a 283f fd91 c2f7 d225 263f
000001b0: ef58 a32c 7c54 523f 5f71 c334 eff8 6a3f
000001c0: 968f e302 825e 303f 8b8c 3a37 934a 283f
000001d0: 8bae 262f 3eb6 593f f773 dfb4 423b 4d3f
000001e0: 4d7e 16a9 d5df 623f aa21 7b76 556d 633f
000001f0: 55d6 f4a6 ad13 653f b14f 420a f4e4 343f
00000200: fd91 c2f7 d225 263f 8b8c 3a37 934a 283f
00000210: cf66 5a7a d1c0 423f 8b8c 3a37 934a 283f
00000220: b14f 420a f4e4 243f b14f 420a f4e4 243f
00000230: fd91 c2f7 d225 263f b14f 420a f4e4 343f
00000240: fd91 c2f7 d225 263f 06c6 99b7 0966 7e3f
00000250: 7bbf 8fff 0447 323f 30f3 12fd b3e0 453f
00000260: 1d3e 714e 4589 553f 8b8c 3a37 934a 283f
00000270: 0c3f b9f2 a6e4 473f b14f 420a f4e4 243f
00000280: cf66 5a7a d1c0 423f 8b8c 3a37 934a 283f
00000290: 5dc3 5828 b2cf 4b3f 6940 a7cc 65f9 3c3f
000002a0: 8b8c 3a37 934a 283f 2332 db9b 6101 343f
000002b0: b14f 420a f4e4 343f 8b8c 3a37 934a 283f
000002c0: 2332 db9b 6101 243f 8b8c 3a37 934a 283f
000002d0: 5c22 1521 4940 723f 3833 48f3 eb42 613f
000002e0: 8b8c 3a37 934a 283f fd91 c2f7 d225 363f
000002f0: fd91 c2f7 d225 263f 8b8c 3a37 934a 283f
00000300: b469 beb2 6d98 373f 8dc2 a8fd 8f80 213f
00000310: b14f 420a f4e4 243f 42f0 e777 ae00 433f
00000320: a304 9a0a eebc 743f 379a 8737 3a21 3c3f
00000330: 7f2d 27f3 37b2 633f 8b8c 3a37 934a 283f
00000340: d9c4 ca81 0c0e 793f 8b8c 3a37 934a 283f
00000350: 8b8c 3a37 934a 283f 8b8c 3a37 934a 283f
00000360: aaa3 a276 dc5b 713f 8b8c 3a37 934a 283f
00000370: 2332 db9b 6101 443f 8b8c 3a37 934a 283f
00000380: 4680 6f88 ee50 233f 42d9 fe49 692d 313f
00000390: f0c2 d4b4 1c24 403f 8b8c 3a37 934a 283f
000003a0: 2332 db9b 6101 343f 4680 6f88 ee50 433f
000003b0: 8400 f1d8 0571 473f 058e 6cc0 8ddd 313f
000003c0: 896f d3a9 b727 503f 8b8c 3a37 934a 283f
000003d0: 37aa 7d9e d1e1 523f 8b8c 3a37 934a 283f
000003e0: 8b8c 3a37 934a 283f 2e95 2d39 7916 1f3f
000003f0: 08c7 b8ec 66e3 553f 8b8c 3a37 934a 283f
00000400: 058e 6cc0 8ddd 313f b14f 420a f4e4 243f
00000410: 8b8c 3a37 934a 283f 8b8c 3a37 934a 283f
00000420: b14f 420a f4e4 243f 2332 db9b 6101 243f
00000430: 8dc2 a8fd 8f80 413f 6940 a7cc 65f9 3c3f
00000440: 8b8c 3a37 934a 283f 8b8c 3a37 934a 283f
00000450: 7bbf 8fff 0447 323f fd91 c2f7 d225 363f
00000460: eb94 f99f ddc7 6f3f 8b8c 3a37 934a 283f
00000470: 8b8c 3a37 934a 283f 378e 4dbe fb31 5e3f
00000480: 8b8c 3a37 934a 283f fd91 c2f7 d225 363f
00000490: 8b8c 3a37 934a 283f 4680 6f88 ee50 233f
000004a0: 8b8c 3a37 934a 283f fd91 c2f7 d225 263f
000004b0: a650 6500 0947 623f fd91 c2f7 d225 363f
000004c0: 2332 db9b 6101 443f 65a9 a143 89db 1f3f
000004d0: 9144 7192 88bc 4e3f 6724 3f0f 2b36 483f
000004e0: 44db e0e6 b806 5b3f 8b8c 3a37 934a 283f
000004f0: 2332 db9b 6101 343f 379a 8737 3a21 3c3f
00000500: 968f e302 825e 303f 30c4 9d4c bc2d 473f
00000510: fd91 c2f7 d225 263f 8b8c 3a37 934a 283f
00000520: 07d5 a2a0 54cc 3a3f fd91 c2f7 d225 363f
00000530: 8b8c 3a37 934a 283f 8b8c 3a37 934a 283f
00000540: 354d a68c 7d67 4e3f fd91 c2f7 d225 363f
00000550: 8b8c 3a37 934a 283f 058e 6cc0 8ddd 213f
00000560: 8b8c 3a37 934a 283f 6e4a 79b6 4267 4b3f
00000570: 8b8c 3a37 934a 283f 8b8c 3a37 934a 283f
00000580: 8b8c 3a37 934a 283f 483b 0e85 63a5 4c3f
00000590: fd91 c2f7 d225 263f 8b8c 3a37 934a 283f
000005a0: b14f 420a f4e4 243f 2332 db9b 6101 343f
000005b0: 8b8c 3a37 934a 283f fb8b 10b8 ceea 533f
000005c0: 2332 db9b 6101 243f 34ae 66f7 efd0 493f
000005d0: 8b8c 3a37 934a 283f 2b05 3322 68ec 483f
000005e0: fd91 c2f7 d225 263f 088b 4a35 c32f 353f
000005f0: 8b8c 3a37 934a 283f 058e 6cc0 8ddd 213f
00000600: 7bbf 8fff 0447 323f fd91 c2f7 d225 263f
00000610: 2206 3b2f 81eb 483f fd91 c2f7 d225 263f
00000620: fd91 c2f7 d225 263f 8b8c 3a37 934a 283f
00000630: 8b8c 3a37 934a 283f fd91 c2f7 d225 263f
00000640: 8b8c 3a37 934a 283f 8b8c 3a37 934a 283f
00000650: 4680 6f88 ee50 233f 8b8c 3a37 934a 283f
00000660: fd91 c2f7 d225 263f 6257 5504 c38d 383f
00000670: 34cb c869 1202 3e3f 0283 34aa a2d8 5a3f
00000680: fd91 c2f7 d225 263f b14f 420a f4e4 343f
00000690: fd91 c2f7 d225 263f b14f 420a f4e4 243f
000006a0: d323 7dfc d740 3a3f 968f e302 825e 403f
000006b0: 5a66 246d 3982 593f fd91 c2f7 d225 363f
000006c0: b14f 420a f4e4 343f 07d5 a2a0 54cc 4a3f
000006d0: 8b8c 3a37 934a 283f 8b8c 3a37 934a 283f
000006e0: e1a8 5022 d982 673f 8b8c 3a37 934a 283f
000006f0: 89e2 0712 aa33 4b3f fd91 c2f7 d225 263f
00000700: 8b8c 3a37 934a 283f 4680 6f88 ee50 233f
00000710: 5424 8c45 1b84 683f 8b8c 3a37 934a 283f
00000720: 8b8c 3a37 934a 283f 2332 db9b 6101 243f
00000730: 8b8c 3a37 934a 283f 8b8c 3a37 934a 283f
00000740: 5dc3 5828 b2cf 4b3f 2332 db9b 6101 243f
00000750: 2332 db9b 6101 243f 8b8c 3a37 934a 283f
00000760: 8b8c 3a37 934a 283f fd91 c2f7 d225 363f
00000770: 8b8c 3a37 934a 283f c858 77c1 9a9d 303f
00000780: 8b8c 3a37 934a 283f 8b8c 3a37 934a 283f
00000790: 4680 6f88 ee50 233f 0818 4e9e 57da 693f
000007a0: 65a9 a143 89db 1f3f c5a1 9ac1 c61a 453f
000007b0: fd91 c2f7 d225 263f fd91 c2f7 d225 263f
000007c0: 3c44 189e 7b01 513f cf66 5a7a d1c0 323f
000007d0: 058e 6cc0 8ddd 313f fd91 c2f7 d225 263f
000007e0: 6940 a7cc 65f9 3c3f b14f 420a f4e4 343f
000007f0: 8b8c 3a37 934a 283f 8dc2 a8fd 8f80 213f

diag f8 [19971]
5.456485937853994 6.2426122948317895 5.773774846476236 6.752659708441774 7.8504931808711405 7.8504931808711405 6.752659708441774 7.157735484249907
7.8504931808711405 6.2426122948317895 7.157735484249907 7.8504931808711405 7.8504931808711405 7.8504931808711405 7.8504931808711405 7.8504931808711405
7.8504931808711405 7.157735484249907 7.8504931808711405 7.8504931808711405 7.8504931808711405 7.8504931808711405 7.8504931808711405 7.8504931808711405
7.157735484249907 7.8504931808711405 7.8504931808711405 7.8504931808711405 7.157735484249907 7.8504931808711405 7.8504931808711405 7.8504931808711405
7.8504931808711405 7.8504931808711405 7.8504931808711405 7.8504931808711405 7.8504931808711405 7.8504931808711405 7.8504931808711405 7.8504931808711405
7.8504931808711405 7.157735484249907 7.8504931808711405 7.8504931808711405 7.157735484249907 7.8504931808711405 7.8504931808711405 7.8504931808711405
7.8504931808711405 7.8504931808711405 6.465366816769375 7.8504931808711405 7.157735484249907 7.157735484249907 7.8504931808711405 7.157735484249907
7.8504931808711405 6.465366816769375 7.8504931808711405 7.8504931808711405 6.465366816769375 7.157735484249907 6.752659708441774 7.157735484249907
7.8504931808711405 7.157735484249907 6.465366816769375 7.8504931808711405 7.157735484249907 7.157735484249907 7.8504931808711405 7.8504931808711405
7.8504931808711405 7.8504931808711405 7.8504931808711405 7.8504931808711405 7.157735484249907 7.157735484249907 7.8504931808711405 4.681359324345638
7.8504931808711405 7.8504931808711405 7.8504931808711405 7.8504931808711405 7.157735484249907 7.8504931808711405 7.8504931808711405 7.157735484249907
7.157735484249907 7.8504931808711405 7.157735484249907 7.8504931808711405 7.8504931808711405 6.2426122948317895 7.157735484249907 6.752659708441774
5.773774846476236 7.157735484249907 7.8504931808711405 5.551407994230199 7.157735484249907 6.752659708441774 6.752659708441774 7.8504931808711405
6.465366816769375 7.8504931808711405 7.8504931808711405 7.8504931808711405 7.8504931808711405 7.157735484249907 5.290207648419808 6.465366816769375
7.157735484249907 7.157735484249907 7.8504931808711405 7.8504931808711405 5.3698625337111325 4.528751854701185 6.752659708441774 7.8504931808711405
6.752659708441774 7.157735484249907 7.8504931808711405 7.8504931808711405 7.8504931808711405 6.2426122948317895 7.8504931808711405 7.8504931808711405
6.465366816769375 7.8504931808711405 7.8504931808711405 7.8504931808711405 7.8504931808711405 7.8504931808711405 7.8504931808711405 7.157735484249907
7.8504931808711405 7.8504931808711405 7.157735484249907 7.8504931808711405 7.157735484249907 7.8504931808711405 7.157735484249907 5.147881998616404
7.8504931808711405 7.8504931808711405 6.465366816769375 7.157735484249907 7.8504931808711405 7.8504931808711405 6.752659708441774 7.8504931808711405
7.8504931808711405 7.8504931808711405 7.8504931808711405 7.157735484249907 7.8504931808711405 7.8504931808711405 7.8504931808711405 7.8504931808711405
6.465366816769375 6.752659708441774 7.157735484249907 7.8504931808711405 7.8504931808711405 7.8504931808711405 7.8504931808711405 7.8504931808711405
7.8504931808711405 7.8504931808711405 7.8504931808711405 7.8504931808711405 7.8504931808711405 6.060679616129455 7.8504931808711405 7.157735484249907
7.8504931808711405 7.8504931808711405 7.8504931808711405 6.465366816769375 7.157735484249907 7.157735484249907 7.8504931808711405 7.8504931808711405
7.8504931808711405 7.8504931808711405 7.8504931808711405 7.8504931808711405 7.157735484249907 7.8504931808711405 7.8504931808711405 7.157735484249907
7.8504931808711405 7.157735484249907 5.773774846476236 5.906917663226431 6.2426122948317895 7.8504931808711405 7.157735484249907 7.8504931808711405
7.8504931808711405 7.8504931808711405 7.157735484249907 7.157735484249907 7.157735484249907 7.8504931808711405 7.157735484249907 7.8504931808711405
7.157735484249907 7.8504931808711405 7.8504931808711405 6.752659708441774 7.157735484249907 7.8504931808711405 4.813731744462606 7.8504931808711405
7.8504931808711405 7.8504931808711405 3.5485581447959396 7.8504931808711405 7.157735484249907 7.8504931808711405 7.8504931808711405 7.8504931808711405
7.157735484249907 7.8504931808711405 6.465366816769375 7.157735484249907 7.8504931808711405 7.8504931808711405 7.8504931808711405 7.157735484249907
6.465366816769375 7.8504931808711405 7.8504931808711405 6.752659708441774 7.8504931808711405 7.8504931808711405 6.060679616129455 6.752659708441774
6.752659708441774 7.8504931808711405 5.3698625337111325 5.906917663226431 7.157735484249907 7.8504931808711405 4.460529696161825 5.147881998616404
7.8504931808711405 7.157735484249907 7.157735484249907 7.157735484249907 7.8504931808711405 6.752659708441774 6.060679616129455 6.752659708441774
00000000: ccaa b80c 71d3 1540 e3a3 7f5b 6ff8 1840
00000010: d854 f06e 5818 1740 e618 033a b902 1b40
00000020: 1040 35af e766 1f40 1040 35af e766 1f40
00000030: e618 033a b902 1b40 9a16 2969 85a1 1c40
00000040: 1040 35af e766 1f40 e3a3 7f5b 6ff8 1840
00000050: 9a16 2969 85a1 1c40 1040 35af e766 1f40
00000060: 1040 35af e766 1f40 1040 35af e766 1f40
00000070: 1040 35af e766 1f40 1040 35af e766 1f40
00000080: 1040 35af e766 1f40 9a16 2969 85a1 1c40
00000090: 1040 35af e766 1f40 1040 35af e766 1f40
000000a0: 1040 35af e766 1f40 1040 35af e766 1f40
000000b0: 1040 35af e766 1f40 1040 35af e766 1f40
000000c0: 9a16 2969 85a1 1c40 1040 35af e766 1f40
000000d0: 1040 35af e766 1f40 1040 35af e766 1f40
000000e0: 9a16 2969 85a1 1c40 1040 35af e766 1f40
000000f0: 1040 35af e766 1f40 1040 35af e766 1f40
00000100: 1040 35af e766 1f40 1040 35af e766 1f40
00000110: 1040 35af e766 1f40 1040 35af e766 1f40
00000120: 1040 35af e766 1f40 1040 35af e766 1f40
00000130: 1040 35af e766 1f40 1040 35af e766 1f40
00000140: 1040 35af e766 1f40 9a16 2969 85a1 1c40
00000150: 1040 35af e766 1f40 1040 35af e766 1f40
00000160: 9a16 2969 85a1 1c40 1040 35af e766 1f40
00000170: 1040 35af e766 1f40 1040 35af e766 1f40
00000180: 1040 35af e766 1f40 1040 35af e766 1f40
00000190: 20ac 6a1e 89dc 1940 1040 35af e766 1f40
000001a0: 9a16 2969 85a1 1c40 9a16 2969 85a1 1c40
000001b0: 1040 35af e766 1f40 9a16 2969 85a1 1c40
000001c0: 1040 35af e766 1f40 20ac 6a1e 89dc 1940
000001d0: 1040 35af e766 1f40 1040 35af e766 1f40
000001e0: 20ac 6a1e 89dc 1940 9a16 2969 85a1 1c40
000001f0: e618 033a b902 1b40 9a16 2969 85a1 1c40
00000200: 1040 35af e766 1f40 9a16 2969 85a1 1c40
00000210: 20ac 6a1e 89dc 1940 1040 35af e766 1f40
00000220: 9a16 2969 85a1 1c40 9a16 2969 85a1 1c40
00000230: 1040 35af e766 1f40 1040 35af e766 1f40
00000240: 1040 35af e766 1f40 1040 35af e766 1f40
00000250: 1040 35af e766 1f40 1040 35af e766 1f40
00000260: 9a16 2969 85a1 1c40 9a16 2969 85a1 1c40
00000270: 1040 35af e766 1f40 838e 3b42 b6b9 1240
00000280: 1040 35af e766 1f40 1040 35af e766 1f40
00000290: 1040 35af e766 1f40 1040 35af e766 1f40
000002a0: 9a16 2969 85a1 1c40 1040 35af e766 1f40
000002b0: 1040 35af e766 1f40 9a16 2969 85a1 1c40
000002c0: 9a16 2969 85a1 1c40 1040 35af e766 1f40
000002d0: 9a16 2969 85a1 1c40 1040 35af e766 1f40
000002e0: 1040 35af e766 1f40 e3a3 7f5b 6ff8 1840
000002f0: 9a16 2969 85a1 1c40 e618 033a b902 1b40
00000300: d854 f06e 5818 1740 9a16 2969 85a1 1c40
00000310: 1040 35af e766 1f40 fbe2 174c a434 1640
00000320: 9a16 2969 85a1 1c40 e618 033a b902 1b40
00000330: e618 033a b902 1b40 1040 35af e766 1f40
00000340: 20ac 6a1e 89dc 1940 1040 35af e766 1f40
00000350: 1040 35af e766 1f40 1040 35af e766 1f40
00000360: 1040 35af e766 1f40 9a16 2969 85a1 1c40
00000370: 6f0c 9c31 2c29 1540 20ac 6a1e 89dc 1940
00000380: 9a16 2969 85a1 1c40 9a16 2969 85a1 1c40
00000390: 1040 35af e766 1f40 1040 35af e766 1f40
000003a0: 5538 793e bd7a 1540 5190 4e20 711d 1240
000003b0: e618 033a b902 1b40 1040 35af e766 1f40
000003c0: e618 033a b902 1b40 9a16 2969 85a1 1c40
000003d0: 1040 35af e766 1f40 1040 35af e766 1f40
000003e0: 1040 35af e766 1f40 e3a3 7f5b 6ff8 1840
000003f0: 1040 35af e766 1f40 1040 35af e766 1f40
00000400: 20ac 6a1e 89dc 1940 1040 35af e766 1f40
00000410: 1040 35af e766 1f40 1040 35af e766 1f40
00000420: 1040 35af e766 1f40 1040 35af e766 1f40
00000430: 1040 35af e766 1f40 9a16 2969 85a1 1c40
00000440: 1040 35af e766 1f40 1040 35af e766 1f40
00000450: 9a16 2969 85a1 1c40 1040 35af e766 1f40
00000460: 9a16 2969 85a1 1c40 1040 35af e766 1f40
00000470: 9a16 2969 85a1 1c40 f6e5 ee60 6e97 1440
00000480: 1040 35af e766 1f40 1040 35af e766 1f40
00000490: 20ac 6a1e 89dc 1940 9a16 2969 85a1 1c40
000004a0: 1040 35af e766 1f40 1040 35af e766 1f40
000004b0: e618 033a b902 1b40 1040 35af e766 1f40
000004c0: 1040 35af e766 1f40 1040 35af e766 1f40
000004d0: 1040 35af e766 1f40 9a16 2969 85a1 1c40
000004e0: 1040 35af e766 1f40 1040 35af e766 1f40
000004f0: 1040 35af e766 1f40 1040 35af e766 1f40
00000500: 20ac 6a1e 89dc 1940 e618 033a b902 1b40
00000510: 9a16 2969 85a1 1c40 1040 35af e766 1f40
00000520: 1040 35af e766 1f40 1040 35af e766 1f40
00000530: 1040 35af e766 1f40 1040 35af e766 1f40
00000540: 1040 35af e766 1f40 1040 35af e766 1f40
00000550: 1040 35af e766 1f40 1040 35af e766 1f40
00000560: 1040 35af e766 1f40 483d 1bcc 223e 1840
00000570: 1040 35af e766 1f40 9a16 2969 85a1 1c40
00000580: 1040 35af e766 1f40 1040 35af e766 1f40
00000590: 1040 35af e766 1f40 20ac 6a1e 89dc 1940
000005a0: 9a16 2969 85a1 1c40 9a16 2969 85a1 1c40
000005b0: 1040 35af e766 1f40 1040 35af e766 1f40
000005c0: 1040 35af e766 1f40 1040 35af e766 1f40
000005d0: 1040 35af e766 1f40 1040 35af e766 1f40
000005e0: 9a16 2969 85a1 1c40 1040 35af e766 1f40
000005f0: 1040 35af e766 1f40 9a16 2969 85a1 1c40
00000600: 1040 35af e766 1f40 9a16 2969 85a1 1c40
00000610: d854 f06e 5818 1740 99e3 1e06 afa0 1740
00000620: e3a3 7f5b 6ff8 1840 1040 35af e766 1f40
00000630: 9a16 2969 85a1 1c40 1040 35af e766 1f40
00000640: 1040 35af e766 1f40 1040 35af e766 1f40
00000650: 9a16 2969 85a1 1c40 9a16 2969 85a1 1c40
00000660: 9a16 2969 85a1 1c40 1040 35af e766 1f40
00000670: 9a16 2969 85a1 1c40 1040 35af e766 1f40
00000680: 9a16 2969 85a1 1c40 1040 35af e766 1f40
00000690: 1040 35af e766 1f40 e618 033a b902 1b40
000006a0: 9a16 2969 85a1 1c40 1040 35af e766 1f40
000006b0: 56bc f8e4 4241 1340 1040 35af e766 1f40
000006c0: 1040 35af e766 1f40 1040 35af e766 1f40
000006d0: eed2 de73 7263 0c40 1040 35af e766 1f40
000006e0: 9a16 2969 85a1 1c40 1040 35af e766 1f40
000006f0: 1040 35af e766 1f40 1040 35af e766 1f40
00000700: 9a16 2969 85a1 1c40 1040 35af e766 1f40
00000710: 20ac 6a1e 89dc 1940 9a16 2969 85a1 1c40
00000720: 1040 35af e766 1f40 1040 35af e766 1f40
00000730: 1040 35af e766 1f40 9a16 2969 85a1 1c40
00000740: 20ac 6a1e 89dc 1940 1040 35af e766 1f40
00000750: 1040 35af e766 1f40 e618 033a b902 1b40
00000760: 1040 35af e766 1f40 1040 35af e766 1f40
00000770: 483d 1bcc 223e 1840 e618 033a b902 1b40
00000780: e618 033a b902 1b40 1040 35af e766 1f40
00000790: 5538 793e bd7a 1540 99e3 1e06 afa0 1740
000007a0: 9a16 2969 85a1 1c40 1040 35af e766 1f40
000007b0: 4d68 bf18 95d7 1140 f6e5 ee60 6e97 1440
000007c0: 1040 35af e766 1f40 9a16 2969 85a1 1c40
000007d0: 9a16 2969 85a1 1c40 9a16 2969 85a1 1c40
000007e0: 1040 35af e766 1f40 e618 033a b902 1b40
000007f0: 483d 1bcc 223e 1840 e618 033a b902 1b40

indices i4 [55449]
19969 19967 19966 19964 19962 19957 19956 19955
19954 19953 19952 19946 19944 19943 19940 19939
19937 19935 19934 19933 19931 19929 19928 19927
19926 19925 19921 19920 19918 19917 19915 19913
19912 19911 19910 19909 19908 19906 19904 19902
19900 19898 19897 19895 19893 19892 19891 19890
19888 19887 19886 19885 19884 19883 19881 19879
19878 19877 19875 19874 19873 19872 19871 19870
19868 19867 19865 19863 19853 19852 19851 19849
19848 19847 19846 19844 19842 19840 19839 19838
19836 19835 19834 19833 19832 19831 19830 19829
19827 19824 19823 19820 19819 19818 19814 19812
19811 19809 19808 19806 19803 19802 19801 19800
19799 19797 19794 19793 19792 19791 19790 19787
19785 19784 19782 19780 19779 19776 19775 19774
19773 19771 19769 19768 19767 19765 19763 19761
19759 19758 19756 19754 19753 19752 19749 19748
19747 19746 19745 19743 19740 19739 19738 19737
19734 19730 19728 19727 19722 19720 19719 19718
19714 19713 19712 19711 19710 19709 19708 19707
19706 19705 19703 19702 19700 19697 19696 19695
19694 19692 19691 19690 19687 19685 19684 19683
19682 19681 19680 19679 19678 19676 19673 19672
19670 19669 19668 19667 19665 19664 19659 19657
19656 19655 19654 19651 19650 19646 19645 19643
19642 19641 19640 19639 19638 19637 19636 19635
19634 19632 19631 19629 19628 19626 19625 19624
19623 19620 19619 19617 19616 19614 19612 19609
19607 19605 19603 19601 19600 19599 19598 19595
19591 19588 19587 19584 19583 19580 19577 19576
19574 19572 19571 19569 19567 19563 19562 19561
19560 19559 19558 19557 19555 19554 19553 19552
00000000: 014e 0000 ff4d 0000 fe4d 0000 fc4d 0000
00000010: fa4d 0000 f54d 0000 f44d 0000 f34d 0000
00000020: f24d 0000 f14d 0000 f04d 0000 ea4d 0000
00000030: e84d 0000 e74d 0000 e44d 0000 e34d 0000
00000040: e14d 0000 df4d 0000 de4d 0000 dd4d 0000
00000050: db4d 0000 d94d 0000 d84d 0000 d74d 0000
00000060: d64d 0000 d54d 0000 d14d 0000 d04d 0000
00000070: ce4d 0000 cd4d 0000 cb4d 0000 c94d 0000
00000080: c84d 0000 c74d 0000 c64d 0000 c54d 0000
00000090: c44d 0000 c24d 0000 c04d 0000 be4d 0000
000000a0: bc4d 0000 ba4d 0000 b94d 0000 b74d 0000
000000b0: b54d 0000 b44d 0000 b34d 0000 b24d 0000
000000c0: b04d 0000 af4d 0000 ae4d 0000 ad4d 0000
000000d0: ac4d 0000 ab4d 0000 a94d 0000 a74d 0000
000000e0: a64d 0000 a54d 0000 a34d 0000 a24d 0000
000000f0: a14d 0000 a04d 0000 9f4d 0000 9e4d 0000
00000100: 9c4d 0000 9b4d 0000 994d 0000 974d 0000
00000110: 8d4d 0000 8c4d 0000 8b4d 0000 894d 0000
00000120: 884d 0000 874d 0000 864d 0000 844d 0000
00000130: 824d 0000 804d 0000 7f4d 0000 7e4d 0000
00000140: 7c4d 0000 7b4d 0000 7a4d 0000 794d 0000
00000150: 784d 0000 774d 0000 764d 0000 754d 0000
00000160: 734d 0000 704d 0000 6f4d 0000 6c4d 0000
00000170: 6b4d 0000 6a4d 0000 664d 0000 644d 0000
00000180: 634d 0000 614d 0000 604d 0000 5e4d 0000
00000190: 5b4d 0000 5a4d 0000 594d 0000 584d 0000
000001a0: 574d 0000 554d 0000 524d 0000 514d 0000
000001b0: 504d 0000 4f4d 0000 4e4d 0000 4b4d 0000
000001c0: 494d 0000 484d 0000 464d 0000 444d 0000
000001d0: 434d 0000 404d 0000 3f4d 0000 3e4d 0000
000001e0: 3d4d 0000 3b4d 0000 394d 0000 384d 0000
000001f0: 374d 0000 354d 0000 334d 0000 314d 0000
00000200: 2f4d 0000 2e4d 0000 2c4d 0000 2a4d 0000
00000210: 294d 0000 284d 0000 254d 0000 244d 0000
00000220: 234d 0000 224d 0000 214d 0000 1f4d 0000
00000230: 1c4d 0000 1b4d 0000 1a4d 0000 194d 0000
00000240: 164d 0000 124d 0000 104d 0000 0f4d 0000
00000250: 0a4d 0000 084d 0000 074d 0000 064d 0000
00000260: 024d 0000 014d 0000 004d 0000 ff4c 0000
00000270: fe4c 0000 fd4c 0000 fc4c 0000 fb4c 0000
00000280: fa4c 0000 f94c 0000 f74c 0000 f64c 0000
00000290: f44c 0000 f14c 0000 f04c 0000 ef4c 0000
000002a0: ee4c 0000 ec4c 0000 eb4c 0000 ea4c 0000
000002b0: e74c 0000 e54c 0000 e44c 0000 e34c 0000
000002c0: e24c 0000 e14c 0000 e04c 0000 df4c 0000
000002d0: de4c 0000 dc4c 0000 d94c 0000 d84c 0000
000002e0: d64c 0000 d54c 0000 d44c 0000 d34c 0000
000002f0: d14c 0000 d04c 0000 cb4c 0000 c94c 0000
00000300: c84c 0000 c74c 0000 c64c 0000 c34c 0000
00000310: c24c 0000 be4c 0000 bd4c 0000 bb4c 0000
00000320: ba4c 0000 b94c 0000 b84c 0000 b74c 0000
00000330: b64c 0000 b54c 0000 b44c 0000 b34c 0000
00000340: b24c 0000 b04c 0000 af4c 0000 ad4c 0000
00000350: ac4c 0000 aa4c 0000 a94c 0000 a84c 0000
00000360: a74c 0000 a44c 0000 a34c 0000 a14c 0000
00000370: a04c 0000 9e4c 0000 9c4c 0000 994c 0000
00000380: 974c 0000 954c 0000 934c 0000 914c 0000
00000390: 904c 0000 8f4c 0000 8e4c 0000 8b4c 0000
000003a0: 874c 0000 844c 0000 834c 0000 804c 0000
000003b0: 7f4c 0000 7c4c 0000 794c 0000 784c 0000
000003c0: 764c 0000 744c 0000 734c 0000 714c 0000
000003d0: 6f4c 0000 6b4c 0000 6a4c 0000 694c 0000
000003e0: 684c 0000 674c 0000 664c 0000 654c 0000
000003f0: 634c 0000 624c 0000 614c 0000 604c 0000

indptr i4 [53]
0 10980 14608 18324 21489 23239 25372 27012
28826 29208 30574 31112 31667 32903 33615 35426
36432 37694 37922 38738 40082 40270 41746 42890
43999 45069 45378 46742 46756 46885 47765 48860
48885 49695 50382 50563 51299 51409 51484 51529
51549 51707 52287 52301 52447 52644 52680 53360
53397 54303 55050 55055 55449
00000000: 0000 0000 e42a 0000 1039 0000 9447 0000
00000010: f153 0000 c75a 0000 1c63 0000 8469 0000
00000020: 9a70 0000 1872 0000 6e77 0000 8879 0000
00000030: b37b 0000 8780 0000 4f83 0000 628a 0000
00000040: 508e 0000 3e93 0000 2294 0000 5297 0000
00000050: 929c 0000 4e9d 0000 12a3 0000 8aa7 0000
00000060: dfab 0000 0db0 0000 42b1 0000 96b6 0000
00000070: a4b6 0000 25b7 0000 95ba 0000 dcbe 0000
00000080: f5be 0000 1fc2 0000 cec4 0000 83c5 0000
00000090: 63c8 0000 d1c8 0000 1cc9 0000 49c9 0000
000000a0: 5dc9 0000 fbc9 0000 3fcc 0000 4dcc 0000
000000b0: dfcc 0000 a4cd 0000 c8cd 0000 70d0 0000
000000c0: 95d0 0000 1fd4 0000 0ad7 0000 0fd7 0000
000000d0: 99d8 0000
