output/bertopic_model/ctfidf.safetensors (safetensors, 816780 bytes, 4 tensors)

data f8 [54702]
0.0001763249637450085 0.00014003840577242514 0.0001294583265331051 0.0001763249637450085 0.0001763249637450085 0.00015154887865409563 0.00030309775730819126 0.0001763249637450085
0.0003213812131603724 0.0001763249637450085 0.0001763249637450085 0.0015091394116449228 0.0001763249637450085 0.0001763249637450085 0.0005626420264283616 0.001756574474422126
0.0001763249637450085 0.0001606906065801862 0.00040779823243097146 0.0001763249637450085 0.0001606906065801862 0.00030309775730819126 0.0001763249637450085 0.0001763249637450085
0.00015154887865409563 0.0003213812131603724 0.00015154887865409563 0.004080141308764056 0.0003213812131603724 0.0010900594315366814 0.0007947771666885428 0.0001606906065801862
0.0001763249637450085 0.0001763249637450085 0.0004201152173172755 0.004383807902771427 0.0001606906065801862 0.0001763249637450085 0.0016260921542172416 0.0006623143055737858
0.0001763249637450085 0.0001606906065801862 0.0001763249637450085 0.0001763249637450085 0.0001763249637450085 0.0001763249637450085 0.0001763249637450085 0.0004546466359622869
0.00029013073253212213 0.002811494404127611 0.0003213812131603724 0.0001763249637450085 0.0010603273784926901 0.003719028297289914 0.00023709296466143819 0.0018753106141693632
0.0014806491851396253 0.0025840540384720638 0.0024042746281646766 0.0025063610920340474 0.00030309775730819126 0.0001606906065801862 0.0005437309765746285 0.0001763249637450085
0.0001606906065801862 0.00015154887865409563 0.00015154887865409563 0.0001606906065801862 0.00024888089962300005 0.00030309775730819126 0.0003213812131603724 0.007230325340525545
0.00026492572222951426 0.0008876644661978303 0.0012449550735409915 0.00046134014046522796 0.00015154887865409563 0.0005437309765746285 0.0001763249637450085 0.0006035004420144645
0.0004201152173172755 0.00029013073253212213 0.00015154887865409563 0.0001763249637450085 0.00014506536626606107 0.004854581692177657 0.001525824952030717 0.0001606906065801862
0.0001763249637450085 0.0001606906065801862 0.0001763249637450085 0.000341662668186844 0.00012680920945683287 0.00015154887865409563 0.0008802905071732267 0.004951058701281983
0.0006796637207182858 0.001882829927199722 0.0001763249637450085 0.005980491866714008 0.0001763249637450085 0.0001763249637450085 0.0001763249637450085 0.004058198973045994
0.0001763249637450085 0.0005802614650642443 0.0001763249637450085 0.00014003840577242514 0.00037332134943450013 0.00023376607952855946 0.0001763249637450085 0.00029013073253212213
0.0002800768115448503 0.0006796637207182858 0.0003883749795993153 0.000935072336130133 0.0001763249637450085 0.001320358544955483 0.0001763249637450085 0.0001763249637450085
0.0001125284052856723 0.001324245491360122 0.0001763249637450085 0.0002589166530662102 0.00015154887865409563 0.0001763249637450085 0.0001763249637450085 0.00014506536626606107
0.0005072368378273315 0.0005601536230897006 0.0001763249637450085 0.0003973885833442714 0.0003213812131603724 0.0037682153032902884 0.0001763249637450085 0.0001763249637450085
0.001902243680350155 0.0001606906065801862 0.0001763249637450085 0.0002800768115448503 0.0001763249637450085 0.0001606906065801862 0.002112969491778486 0.0003213812131603724
0.00043519609879818323 0.00011533503511630699 0.0007787323525987946 0.0005844151988213987 0.0017355446049990683 0.0001763249637450085 0.00029013073253212213 0.00027186548828731427
0.0003556394469921573 0.0007661329589387588 0.0001606906065801862 0.0001763249637450085 0.00014506536626606107 0.0003883749795993153 0.0001763249637450085 0.0007702541937765735
0.0003213812131603724 0.0001763249637450085 0.0001294583265331051 0.0001763249637450085 0.0010900594315366814 0.0001763249637450085 0.0001763249637450085 0.0008298253763150337
0.0001606906065801862 0.00015154887865409563 0.00029013073253212213 0.0001763249637450085 0.0006288551099556757 0.00029013073253212213 0.0005337741350702162 0.000842407026790069
0.0001606906065801862 0.00010217808627324457 0.0001763249637450085 0.0001763249637450085 0.0001294583265331051 0.00026492572222951426 0.0001606906065801862 0.0009271872254017156
0.0001606906065801862 0.0001606906065801862 0.0001763249637450085 0.0001763249637450085 0.0001606906065801862 0.0001606906065801862 0.0001763249637450085 0.0002800768115448503
0.0001606906065801862 0.00047418592932287637 0.00043519609879818323 0.0015522637303135895 0.0001606906065801862 0.00030309775730819126 0.00015154887865409563 0.00038042762837049867
0.00047418592932287637 0.0010822768122718302 0.0003213812131603724 0.00030309775730819126 0.0005178333061324204 0.0001763249637450085 0.0001763249637450085 0.0031180775622064016
0.0001763249637450085 0.0007876988369997062 0.0001606906065801862 0.0001763249637450085 0.0002800768115448503 0.003352226130219299 0.00014506536626606107 0.0001763249637450085
0.0001763249637450085 0.0008046672560192861 0.00014506536626606107 0.00014506536626606107 0.0001763249637450085 0.0001763249637450085 0.0003213812131603724 0.00015154887865409563
0.0001763249637450085 0.00036103158291002954 0.0001763249637450085 0.0001763249637450085 0.0002800768115448503 0.002982806056195325 0.00034600510534892097 0.0006114925515094204
0.0001606906065801862 0.0001606906065801862 0.001180665613387451 0.00040779823243097146 0.0002589166530662102 0.0001606906065801862 0.0002800768115448503 0.00030309775730819126
0.0001763249637450085 0.00025361841891366574 0.0001763249637450085 0.00014003840577242514 0.0020506212219206974 0.0001606906065801862 0.0001763249637450085 0.0001763249637450085
0.0001763249637450085 0.00023067007023261398 0.0001763249637450085 0.00014506536626606107 0.00024068772194001968 0.0001763249637450085 0.0003556394469921573 0.0001763249637450085
00000000: 5e44 cfe7 7b1c 273f 12c8 f6be e85a 223f
00000010: 01d0 ab8e e6f7 203f 5e44 cfe7 7b1c 273f
00000020: 5e44 cfe7 7b1c 273f 0d60 83f4 22dd 233f
00000030: 0d60 83f4 22dd 333f 5e44 cfe7 7b1c 273f
00000040: e68e d1cc e10f 353f 5e44 cfe7 7b1c 273f
00000050: 5e44 cfe7 7b1c 273f d178 c21a cab9 583f
00000060: 5e44 cfe7 7b1c 273f 5e44 cfe7 7b1c 273f
00000070: 00ae 2a8d c86f 423f 0ca0 eb7a 9bc7 5c3f
00000080: 5e44 cfe7 7b1c 273f e68e d1cc e10f 253f
00000090: 8527 5812 b8b9 3a3f 5e44 cfe7 7b1c 273f
000000a0: e68e d1cc e10f 253f 0d60 83f4 22dd 333f
000000b0: 5e44 cfe7 7b1c 273f 5e44 cfe7 7b1c 273f
000000c0: 0d60 83f4 22dd 233f e68e d1cc e10f 353f
000000d0: 0d60 83f4 22dd 233f c548 bf97 56b6 703f
000000e0: e68e d1cc e10f 353f 2c41 fc66 0adc 513f
000000f0: cde8 21f8 120b 4a3f e68e d1cc e10f 253f
00000100: 5e44 cfe7 7b1c 273f 5e44 cfe7 7b1c 273f
00000110: 1c2c 721e 5d88 3b3f 3c89 3079 c1f4 713f
00000120: e68e d1cc e10f 253f 5e44 cfe7 7b1c 273f
00000130: 6d6b d927 53a4 5a3f 0142 1c24 e5b3 453f
00000140: 5e44 cfe7 7b1c 273f e68e d1cc e10f 253f
00000150: 5e44 cfe7 7b1c 273f 5e44 cfe7 7b1c 273f
00000160: 5e44 cfe7 7b1c 273f 5e44 cfe7 7b1c 273f
00000170: 5e44 cfe7 7b1c 273f 1410 c56e b4cb 3d3f
00000180: 4f86 fe01 9603 333f b07e 9890 2108 673f
00000190: e68e d1cc e10f 353f 5e44 cfe7 7b1c 273f
000001a0: a8b9 79da 555f 513f 60be 1c1d 5e77 6e3f
000001b0: 6aad 040f 8513 2f3f 5224 7e70 9fb9 5e3f
000001c0: fbf4 edf4 4a42 583f 0640 c372 272b 653f
000001d0: 8d15 c11c 21b2 633f e418 835d 3888 643f
000001e0: 0d60 83f4 22dd 333f e68e d1cc e10f 253f
000001f0: 581a 9061 25d1 413f 5e44 cfe7 7b1c 273f
00000200: e68e d1cc e10f 253f 0d60 83f4 22dd 233f
00000210: 0d60 83f4 22dd 233f e68e d1cc e10f 253f
00000220: 6e1c 1153 874f 303f 0d60 83f4 22dd 333f
00000230: e68e d1cc e10f 353f 4d2e 08ae 8b9d 7d3f
00000240: 339b 1650 b75c 313f a1f4 12ed 4416 4d3f
00000250: dfb0 da54 b865 543f 0c24 cdd0 003c 3e3f
00000260: 0d60 83f4 22dd 233f 581a 9061 25d1 413f
00000270: 5e44 cfe7 7b1c 273f 2d72 ae54 87c6 433f
00000280: 1c2c 721e 5d88 3b3f 4f86 fe01 9603 333f
00000290: 0d60 83f4 22dd 233f 5e44 cfe7 7b1c 273f
000002a0: 4f86 fe01 9603 233f ee9a a8d9 65e2 733f
000002b0: 9158 2d11 c6ff 583f e68e d1cc e10f 253f
000002c0: 5e44 cfe7 7b1c 273f e68e d1cc e10f 253f
000002d0: 5e44 cfe7 7b1c 273f e2ca 72fc 2564 363f
000002e0: 121e 9dd0 029f 203f 0d60 83f4 22dd 233f
000002f0: 0899 3a78 69d8 4c3f fec6 3db3 8f47 743f
00000300: ef20 f4b9 6e45 463f bf2a 853d 29d9 5e3f
00000310: 5e44 cfe7 7b1c 273f 7d59 b40f 007f 783f
00000320: 5e44 cfe7 7b1c 273f 5e44 cfe7 7b1c 273f
00000330: 5e44 cfe7 7b1c 273f 4515 eb7d 549f 703f
00000340: 5e44 cfe7 7b1c 273f 4f86 fe01 9603 433f
00000350: 5e44 cfe7 7b1c 273f 12c8 f6be e85a 223f
00000360: a6aa 99fc 4a77 383f d415 3e55 e3a3 2e3f
00000370: 5e44 cfe7 7b1c 273f 4f86 fe01 9603 333f
00000380: 12c8 f6be e85a 323f ef20 f4b9 6e45 463f
00000390: 02b8 01d6 d973 393f 0281 318d f4a3 4e3f
000003a0: 5e44 cfe7 7b1c 273f dbc3 4031 fca1 553f
000003b0: 5e44 cfe7 7b1c 273f 5e44 cfe7 7b1c 273f
000003c0: 9849 4448 a77f 1d3f 05f2 f1c4 49b2 553f
000003d0: 5e44 cfe7 7b1c 273f 01d0 ab8e e6f7 303f
000003e0: 0d60 83f4 22dd 233f 5e44 cfe7 7b1c 273f
000003f0: 5e44 cfe7 7b1c 273f 4f86 fe01 9603 233f
00000400: 121e 9dd0 029f 403f 12c8 f6be e85a 423f
00000410: 5e44 cfe7 7b1c 273f cde8 21f8 120b 3a3f
00000420: e68e d1cc e10f 353f e3cb bd2f 85de 6e3f
00000430: 5e44 cfe7 7b1c 273f 5e44 cfe7 7b1c 273f
00000440: 5b23 5a99 962a 5f3f e68e d1cc e10f 253f
00000450: 5e44 cfe7 7b1c 273f 12c8 f6be e85a 323f
00000460: 5e44 cfe7 7b1c 273f e68e d1cc e10f 253f
00000470: a215 abdb 374f 613f e68e d1cc e10f 353f
00000480: 77c9 fd02 6185 3c3f 0c24 cdd0 003c 1e3f
00000490: 40ca 4dfe 7a84 493f a5cd 4615 6e26 433f
000004a0: b71a 6ed4 666f 5c3f 5e44 cfe7 7b1c 273f
000004b0: 4f86 fe01 9603 333f 581a 9061 25d1 313f
000004c0: 1082 43cb a34e 373f cc46 6300 ca1a 493f
000004d0: e68e d1cc e10f 253f 5e44 cfe7 7b1c 273f
000004e0: 4f86 fe01 9603 233f 02b8 01d6 d973 393f
000004f0: 5e44 cfe7 7b1c 273f e845 3349 5c3d 493f
00000500: e68e d1cc e10f 353f 5e44 cfe7 7b1c 273f
00000510: 01d0 ab8e e6f7 203f 5e44 cfe7 7b1c 273f
00000520: 2c41 fc66 0adc 513f 5e44 cfe7 7b1c 273f
00000530: 5e44 cfe7 7b1c 273f bd17 246d 1431 4b3f
00000540: e68e d1cc e10f 253f 0d60 83f4 22dd 233f
00000550: 4f86 fe01 9603 333f 5e44 cfe7 7b1c 273f
00000560: 4f93 ca10 389b 443f 4f86 fe01 9603 333f
00000570: e0d1 0e3a 9f7d 413f 5650 a350 9f9a 4b3f
00000580: e68e d1cc e10f 253f 5667 d827 0ec9 1a3f
00000590: 5e44 cfe7 7b1c 273f 5e44 cfe7 7b1c 273f
000005a0: 01d0 ab8e e6f7 203f 339b 1650 b75c 313f
000005b0: e68e d1cc e10f 253f ce2e ba67 cf61 4e3f
000005c0: e68e d1cc e10f 253f e68e d1cc e10f 253f
000005d0: 5e44 cfe7 7b1c 273f 5e44 cfe7 7b1c 273f
000005e0: e68e d1cc e10f 253f e68e d1cc e10f 253f
000005f0: 5e44 cfe7 7b1c 273f 12c8 f6be e85a 323f
00000600: e68e d1cc e10f 253f 6aad 040f 8513 3f3f
00000610: 77c9 fd02 6185 3c3f 12b4 367d aa6e 593f
00000620: e68e d1cc e10f 253f 0d60 83f4 22dd 333f
00000630: 0d60 83f4 22dd 233f 1cad eb38 84ee 383f
00000640: 6aad 040f 8513 3f3f 922c e4e0 65bb 513f
00000650: e68e d1cc e10f 353f 0d60 83f4 22dd 333f
00000660: 01d0 ab8e e6f7 403f 5e44 cfe7 7b1c 273f
00000670: 5e44 cfe7 7b1c 273f 1c82 fe24 158b 693f
00000680: 5e44 cfe7 7b1c 273f 66c0 3b5f b2cf 493f
00000690: e68e d1cc e10f 253f 5e44 cfe7 7b1c 273f
000006a0: 12c8 f6be e85a 323f 8d8a 23b3 2076 6b3f
000006b0: 4f86 fe01 9603 233f 5e44 cfe7 7b1c 273f
000006c0: 5e44 cfe7 7b1c 273f 92ed 3dc6 095e 4a3f
000006d0: 4f86 fe01 9603 233f 4f86 fe01 9603 233f
000006e0: 5e44 cfe7 7b1c 273f 5e44 cfe7 7b1c 273f
000006f0: e68e d1cc e10f 353f 0d60 83f4 22dd 233f
00000700: 5e44 cfe7 7b1c 273f 6e69 67d7 1aa9 373f
00000710: 5e44 cfe7 7b1c 273f 5e44 cfe7 7b1c 273f
00000720: 12c8 f6be e85a 323f 73ff c5ce 656f 683f
00000730: 09db 999c 00ad 363f 476d 5741 9209 443f
00000740: e68e d1cc e10f 253f e68e d1cc e10f 253f
00000750: 88d3 9b0c 1258 533f 8527 5812 b8b9 3a3f
00000760: 01d0 ab8e e6f7 303f e68e d1cc e10f 253f
00000770: 12c8 f6be e85a 323f 0d60 83f4 22dd 333f
00000780: 5e44 cfe7 7b1c 273f 121e 9dd0 029f 303f
00000790: 5e44 cfe7 7b1c 273f 12c8 f6be e85a 223f
000007a0: 2b50 b5e2 76cc 603f e68e d1cc e10f 253f
000007b0: 5e44 cfe7 7b1c 273f 5e44 cfe7 7b1c 273f
000007c0: 5e44 cfe7 7b1c 273f 0c24 cdd0 003c 2e3f
000007d0: 5e44 cfe7 7b1c 273f 4f86 fe01 9603 233f
000007e0: 3d37 dfc9 238c 2f3f 5e44 cfe7 7b1c 273f
000007f0: 1082 43cb a34e 373f 5e44 cfe7 7b1c 273f

diag f8 [19971]
5.418924692966182 6.2049617213703865 5.736168990355354 6.714979264284324 7.812782818577581 7.812782818577581 6.714979264284324 7.120040086961471
7.812782818577581 6.2049617213703865 7.120040086961471 7.812782818577581 7.812782818577581 7.812782818577581 7.812782818577581 7.812782818577581
7.812782818577581 7.120040086961471 7.812782818577581 7.812782818577581 7.812782818577581 7.812782818577581 7.812782818577581 7.812782818577581
7.120040086961471 7.812782818577581 7.812782818577581 7.812782818577581 7.120040086961471 7.812782818577581 7.812782818577581 7.812782818577581
7.812782818577581 7.812782818577581 7.812782818577581 7.812782818577581 7.812782818577581 7.812782818577581 7.812782818577581 7.812782818577581
7.812782818577581 7.120040086961471 7.812782818577581 7.812782818577581 7.120040086961471 7.812782818577581 7.812782818577581 7.812782818577581
7.812782818577581 7.812782818577581 6.4277013138829 7.812782818577581 7.120040086961471 7.120040086961471 7.812782818577581 7.120040086961471
7.812782818577581 6.4277013138829 7.812782818577581 7.812782818577581 6.4277013138829 7.120040086961471 6.714979264284324 7.120040086961471
7.812782818577581 7.120040086961471 6.4277013138829 7.812782818577581 7.120040086961471 7.120040086961471 7.812782818577581 7.812782818577581
7.812782818577581 7.812782818577581 7.812782818577581 7.812782818577581 7.120040086961471 7.120040086961471 7.812782818577581 4.643990177837673
7.812782818577581 7.812782818577581 7.812782818577581 7.812782818577581 7.120040086961471 7.812782818577581 7.812782818577581 7.120040086961471
7.120040086961471 7.812782818577581 7.120040086961471 7.812782818577581 7.812782818577581 6.2049617213703865 7.120040086961471 6.714979264284324
5.736168990355354 7.120040086961471 7.812782818577581 5.513831890697755 7.120040086961471 6.714979264284324 6.714979264284324 7.812782818577581
6.4277013138829 7.812782818577581 7.812782818577581 7.812782818577581 7.812782818577581 7.120040086961471 5.252676085591832 6.4277013138829
7.120040086961471 7.120040086961471 7.812782818577581 7.812782818577581 5.332316135720166 4.491441420659749 6.714979264284324 7.812782818577581
6.714979264284324 7.120040086961471 7.812782818577581 7.812782818577581 7.812782818577581 6.2049617213703865 7.812782818577581 7.812782818577581
6.4277013138829 7.812782818577581 7.812782818577581 7.812782818577581 7.812782818577581 7.812782818577581 7.812782818577581 7.120040086961471
7.812782818577581 7.812782818577581 7.120040086961471 7.812782818577581 7.120040086961471 7.812782818577581 7.120040086961471 5.110380070968446
7.812782818577581 7.812782818577581 6.4277013138829 7.120040086961471 7.812782818577581 7.812782818577581 6.714979264284324 7.812782818577581
7.812782818577581 7.812782818577581 7.812782818577581 7.120040086961471 7.812782818577581 7.812782818577581 7.812782818577581 7.812782818577581
6.4277013138829 6.714979264284324 7.120040086961471 7.812782818577581 7.812782818577581 7.812782818577581 7.812782818577581 7.812782818577581
7.812782818577581 7.812782818577581 7.812782818577581 7.812782818577581 7.812782818577581 6.023043960261305 7.812782818577581 7.120040086961471
7.812782818577581 7.812782818577581 7.812782818577581 6.4277013138829 7.120040086961471 7.120040086961471 7.812782818577581 7.812782818577581
7.812782818577581 7.812782818577581 7.812782818577581 7.812782818577581 7.120040086961471 7.812782818577581 7.812782818577581 7.120040086961471
7.812782818577581 7.120040086961471 5.736168990355354 5.869296913133774 6.2049617213703865 7.812782818577581 7.120040086961471 7.812782818577581
7.812782818577581 7.812782818577581 7.120040086961471 7.120040086961471 7.120040086961471 7.812782818577581 7.120040086961471 7.812782818577581
7.120040086961471 7.812782818577581 7.812782818577581 6.714979264284324 7.120040086961471 7.812782818577581 4.77631844218392 7.812782818577581
7.812782818577581 7.812782818577581 3.5119381346931258 7.812782818577581 7.120040086961471 7.812782818577581 7.812782818577581 7.812782818577581
7.120040086961471 7.812782818577581 6.4277013138829 7.120040086961471 7.812782818577581 7.812782818577581 7.812782818577581 7.120040086961471
6.4277013138829 7.812782818577581 7.812782818577581 6.714979264284324 7.812782818577581 7.812782818577581 6.023043960261305 6.714979264284324
6.714979264284324 7.812782818577581 5.332316135720166 5.869296913133774 7.120040086961471 7.812782818577581 4.423248549215463 5.110380070968446
7.812782818577581 7.120040086961471 7.120040086961471 7.120040086961471 7.812782818577581 6.714979264284324 6.023043960261305 6.714979264284324
00000000: 3b1b 3f98 faac 1540 e6de 487c e1d1 1840
00000010: 529f a748 d6f1 1640 60ad 3586 23dc 1a40
00000020: 682a a223 4a40 1f40 682a a223 4a40 1f40
00000030: 60ad 3586 23dc 1a40 85d5 dec9 eb7a 1c40
00000040: 682a a223 4a40 1f40 e6de 487c e1d1 1840
00000050: 85d5 dec9 eb7a 1c40 682a a223 4a40 1f40
00000060: 682a a223 4a40 1f40 682a a223 4a40 1f40
00000070: 682a a223 4a40 1f40 682a a223 4a40 1f40
00000080: 682a a223 4a40 1f40 85d5 dec9 eb7a 1c40
00000090: 682a a223 4a40 1f40 682a a223 4a40 1f40
000000a0: 682a a223 4a40 1f40 682a a223 4a40 1f40
000000b0: 682a a223 4a40 1f40 682a a223 4a40 1f40
000000c0: 85d5 dec9 eb7a 1c40 682a a223 4a40 1f40
000000d0: 682a a223 4a40 1f40 682a a223 4a40 1f40
000000e0: 85d5 dec9 eb7a 1c40 682a a223 4a40 1f40
000000f0: 682a a223 4a40 1f40 682a a223 4a40 1f40
00000100: 682a a223 4a40 1f40 682a a223 4a40 1f40
00000110: 682a a223 4a40 1f40 682a a223 4a40 1f40
00000120: 682a a223 4a40 1f40 682a a223 4a40 1f40
00000130: 682a a223 4a40 1f40 682a a223 4a40 1f40
00000140: 682a a223 4a40 1f40 85d5 dec9 eb7a 1c40
00000150: 682a a223 4a40 1f40 682a a223 4a40 1f40
00000160: 85d5 dec9 eb7a 1c40 682a a223 4a40 1f40
00000170: 682a a223 4a40 1f40 682a a223 4a40 1f40
00000180: 682a a223 4a40 1f40 682a a223 4a40 1f40
00000190: 4955 4e55 f7b5 1940 682a a223 4a40 1f40
000001a0: 85d5 dec9 eb7a 1c40 85d5 dec9 eb7a 1c40
000001b0: 682a a223 4a40 1f40 85d5 dec9 eb7a 1c40
000001c0: 682a a223 4a40 1f40 4955 4e55 f7b5 1940
000001d0: 682a a223 4a40 1f40 682a a223 4a40 1f40
000001e0: 4955 4e55 f7b5 1940 85d5 dec9 eb7a 1c40
000001f0: 60ad 3586 23dc 1a40 85d5 dec9 eb7a 1c40
00000200: 682a a223 4a40 1f40 85d5 dec9 eb7a 1c40
00000210: 4955 4e55 f7b5 1940 682a a223 4a40 1f40
00000220: 85d5 dec9 eb7a 1c40 85d5 dec9 eb7a 1c40
00000230: 682a a223 4a40 1f40 682a a223 4a40 1f40
00000240: 682a a223 4a40 1f40 682a a223 4a40 1f40
00000250: 682a a223 4a40 1f40 682a a223 4a40 1f40
00000260: 85d5 dec9 eb7a 1c40 85d5 dec9 eb7a 1c40
00000270: 682a a223 4a40 1f40 3908 4329 7293 1240
00000280: 682a a223 4a40 1f40 682a a223 4a40 1f40
00000290: 682a a223 4a40 1f40 682a a223 4a40 1f40
000002a0: 85d5 dec9 eb7a 1c40 682a a223 4a40 1f40
000002b0: 682a a223 4a40 1f40 85d5 dec9 eb7a 1c40
000002c0: 85d5 dec9 eb7a 1c40 682a a223 4a40 1f40
000002d0: 85d5 dec9 eb7a 1c40 682a a223 4a40 1f40
000002e0: 682a a223 4a40 1f40 e6de 487c e1d1 1840
000002f0: 85d5 dec9 eb7a 1c40 60ad 3586 23dc 1a40
00000300: 529f a748 d6f1 1640 85d5 dec9 eb7a 1c40
00000310: 682a a223 4a40 1f40 3cc1 78f2 290e 1640
00000320: 85d5 dec9 eb7a 1c40 60ad 3586 23dc 1a40
00000330: 60ad 3586 23dc 1a40 682a a223 4a40 1f40
00000340: 4955 4e55 f7b5 1940 682a a223 4a40 1f40
00000350: 682a a223 4a40 1f40 682a a223 4a40 1f40
00000360: 682a a223 4a40 1f40 85d5 dec9 eb7a 1c40
00000370: 9364 1085 bd02 1540 4955 4e55 f7b5 1940
00000380: 85d5 dec9 eb7a 1c40 85d5 dec9 eb7a 1c40
00000390: 682a a223 4a40 1f40 682a a223 4a40 1f40
000003a0: a467 5bae 4a54 1540 9a88 766b 3cf7 1140
000003b0: 60ad 3586 23dc 1a40 682a a223 4a40 1f40
000003c0: 60ad 3586 23dc 1a40 85d5 dec9 eb7a 1c40
000003d0: 682a a223 4a40 1f40 682a a223 4a40 1f40
000003e0: 682a a223 4a40 1f40 e6de 487c e1d1 1840
000003f0: 682a a223 4a40 1f40 682a a223 4a40 1f40
00000400: 4955 4e55 f7b5 1940 682a a223 4a40 1f40
00000410: 682a a223 4a40 1f40 682a a223 4a40 1f40
00000420: 682a a223 4a40 1f40 682a a223 4a40 1f40
00000430: 682a a223 4a40 1f40 85d5 dec9 eb7a 1c40
00000440: 682a a223 4a40 1f40 682a a223 4a40 1f40
00000450: 85d5 dec9 eb7a 1c40 682a a223 4a40 1f40
00000460: 85d5 dec9 eb7a 1c40 682a a223 4a40 1f40
00000470: 85d5 dec9 eb7a 1c40 30c2 2b79 0771 1440
00000480: 682a a223 4a40 1f40 682a a223 4a40 1f40
00000490: 4955 4e55 f7b5 1940 85d5 dec9 eb7a 1c40
000004a0: 682a a223 4a40 1f40 682a a223 4a40 1f40
000004b0: 60ad 3586 23dc 1a40 682a a223 4a40 1f40
000004c0: 682a a223 4a40 1f40 682a a223 4a40 1f40
000004d0: 682a a223 4a40 1f40 85d5 dec9 eb7a 1c40
000004e0: 682a a223 4a40 1f40 682a a223 4a40 1f40
000004f0: 682a a223 4a40 1f40 682a a223 4a40 1f40
00000500: 4955 4e55 f7b5 1940 60ad 3586 23dc 1a40
00000510: 85d5 dec9 eb7a 1c40 682a a223 4a40 1f40
00000520: 682a a223 4a40 1f40 682a a223 4a40 1f40
00000530: 682a a223 4a40 1f40 682a a223 4a40 1f40
00000540: 682a a223 4a40 1f40 682a a223 4a40 1f40
00000550: 682a a223 4a40 1f40 682a a223 4a40 1f40
00000560: 682a a223 4a40 1f40 40c5 fed5 9817 1840
00000570: 682a a223 4a40 1f40 85d5 dec9 eb7a 1c40
00000580: 682a a223 4a40 1f40 682a a223 4a40 1f40
00000590: 682a a223 4a40 1f40 4955 4e55 f7b5 1940
000005a0: 85d5 dec9 eb7a 1c40 85d5 dec9 eb7a 1c40
000005b0: 682a a223 4a40 1f40 682a a223 4a40 1f40
000005c0: 682a a223 4a40 1f40 682a a223 4a40 1f40
000005d0: 682a a223 4a40 1f40 682a a223 4a40 1f40
000005e0: 85d5 dec9 eb7a 1c40 682a a223 4a40 1f40
000005f0: 682a a223 4a40 1f40 85d5 dec9 eb7a 1c40
00000600: 682a a223 4a40 1f40 85d5 dec9 eb7a 1c40
00000610: 529f a748 d6f1 1640 79b1 51f8 287a 1740
00000620: e6de 487c e1d1 1840 682a a223 4a40 1f40
00000630: 85d5 dec9 eb7a 1c40 682a a223 4a40 1f40
00000640: 682a a223 4a40 1f40 682a a223 4a40 1f40
00000650: 85d5 dec9 eb7a 1c40 85d5 dec9 eb7a 1c40
00000660: 85d5 dec9 eb7a 1c40 682a a223 4a40 1f40
00000670: 85d5 dec9 eb7a 1c40 682a a223 4a40 1f40
00000680: 85d5 dec9 eb7a 1c40 682a a223 4a40 1f40
00000690: 682a a223 4a40 1f40 60ad 3586 23dc 1a40
000006a0: 85d5 dec9 eb7a 1c40 682a a223 4a40 1f40
000006b0: afd8 c138 f31a 1340 682a a223 4a40 1f40
000006c0: 682a a223 4a40 1f40 682a a223 4a40 1f40
000006d0: 62a8 5005 7318 0c40 682a a223 4a40 1f40
000006e0: 85d5 dec9 eb7a 1c40 682a a223 4a40 1f40
000006f0: 682a a223 4a40 1f40 682a a223 4a40 1f40
00000700: 85d5 dec9 eb7a 1c40 682a a223 4a40 1f40
00000710: 4955 4e55 f7b5 1940 85d5 dec9 eb7a 1c40
00000720: 682a a223 4a40 1f40 682a a223 4a40 1f40
00000730: 682a a223 4a40 1f40 85d5 dec9 eb7a 1c40
00000740: 4955 4e55 f7b5 1940 682a a223 4a40 1f40
00000750: 682a a223 4a40 1f40 60ad 3586 23dc 1a40
00000760: 682a a223 4a40 1f40 682a a223 4a40 1f40
00000770: 40c5 fed5 9817 1840 60ad 3586 23dc 1a40
00000780: 60ad 3586 23dc 1a40 682a a223 4a40 1f40
00000790: a467 5bae 4a54 1540 79b1 51f8 287a 1740
000007a0: 85d5 dec9 eb7a 1c40 682a a223 4a40 1f40
000007b0: e6d6 5311 68b1 1140 30c2 2b79 0771 1440
000007c0: 682a a223 4a40 1f40 85d5 dec9 eb7a 1c40
000007d0: 85d5 dec9 eb7a 1c40 85d5 dec9 eb7a 1c40
000007e0: 682a a223 4a40 1f40 60ad 3586 23dc 1a40
000007f0: 40c5 fed5 9817 1840 60ad 3586 23dc 1a40

indices i4 [54702]
19969 19967 19966 19964 19962 19961 19957 19956
19955 19953 19952 19946 19944 19943 19940 19939
19938 19937 19935 19934 19933 19931 19929 19928
19927 19926 19925 19921 19920 19918 19915 19913
19912 19911 19910 19909 19908 19907 19906 19904
19902 19900 19898 19897 19895 19893 19892 19890
19888 19887 19886 19884 19881 19879 19878 19875
19874 19873 19872 19871 19870 19868 19865 19863
19861 19853 19852 19851 19850 19849 19848 19847
19846 19844 19842 19839 19838 19836 19835 19834
19833 19831 19830 19829 19827 19823 19820 19818
19815 19814 19812 19811 19809 19808 19806 19803
19802 19801 19800 19799 19797 19794 19793 19792
19791 19790 19787 19785 19784 19782 19780 19779
19776 19775 19774 19773 19771 19769 19768 19767
19765 19763 19761 19759 19758 19756 19754 19752
19749 19748 19746 19745 19743 19740 19739 19738
19737 19730 19728 19727 19722 19720 19719 19718
19714 19713 19712 19711 19710 19709 19708 19707
19706 19705 19703 19702 19701 19700 19695 19694
19692 19691 19690 19687 19685 19684 19683 19681
19680 19678 19676 19673 19672 19670 19669 19667
19665 19664 19663 19659 19657 19656 19655 19654
19651 19650 19646 19645 19644 19643 19641 19640
19638 19637 19636 19635 19634 19632 19629 19628
19626 19625 19624 19623 19620 19619 19617 19616
19614 19612 19609 19607 19605 19603 19599 19598
19595 19591 19588 19587 19584 19583 19580 19579
19577 19576 19574 19572 19571 19569 19567 19563
19562 19561 19560 19559 19558 19557 19555 19554
19553 19552 19550 19548 19546 19545 19544 19543
19542 19541 19539 19538 19537 19535 19533 19531
00000000: 014e 0000 ff4d 0000 fe4d 0000 fc4d 0000
00000010: fa4d 0000 f94d 0000 f54d 0000 f44d 0000
00000020: f34d 0000 f14d 0000 f04d 0000 ea4d 0000
00000030: e84d 0000 e74d 0000 e44d 0000 e34d 0000
00000040: e24d 0000 e14d 0000 df4d 0000 de4d 0000
00000050: dd4d 0000 db4d 0000 d94d 0000 d84d 0000
00000060: d74d 0000 d64d 0000 d54d 0000 d14d 0000
00000070: d04d 0000 ce4d 0000 cb4d 0000 c94d 0000
00000080: c84d 0000 c74d 0000 c64d 0000 c54d 0000
00000090: c44d 0000 c34d 0000 c24d 0000 c04d 0000
000000a0: be4d 0000 bc4d 0000 ba4d 0000 b94d 0000
000000b0: b74d 0000 b54d 0000 b44d 0000 b24d 0000
000000c0: b04d 0000 af4d 0000 ae4d 0000 ac4d 0000
000000d0: a94d 0000 a74d 0000 a64d 0000 a34d 0000
000000e0: a24d 0000 a14d 0000 a04d 0000 9f4d 0000
000000f0: 9e4d 0000 9c4d 0000 994d 0000 974d 0000
00000100: 954d 0000 8d4d 0000 8c4d 0000 8b4d 0000
00000110: 8a4d 0000 894d 0000 884d 0000 874d 0000
00000120: 864d 0000 844d 0000 824d 0000 7f4d 0000
00000130: 7e4d 0000 7c4d 0000 7b4d 0000 7a4d 0000
00000140: 794d 0000 774d 0000 764d 0000 754d 0000
00000150: 734d 0000 6f4d 0000 6c4d 0000 6a4d 0000
00000160: 674d 0000 664d 0000 644d 0000 634d 0000
00000170: 614d 0000 604d 0000 5e4d 0000 5b4d 0000
00000180: 5a4d 0000 594d 0000 584d 0000 574d 0000
00000190: 554d 0000 524d 0000 514d 0000 504d 0000
000001a0: 4f4d 0000 4e4d 0000 4b4d 0000 494d 0000
000001b0: 484d 0000 464d 0000 444d 0000 434d 0000
000001c0: 404d 0000 3f4d 0000 3e4d 0000 3d4d 0000
000001d0: 3b4d 0000 394d 0000 384d 0000 374d 0000
000001e0: 354d 0000 334d 0000 314d 0000 2f4d 0000
000001f0: 2e4d 0000 2c4d 0000 2a4d 0000 284d 0000
00000200: 254d 0000 244d 0000 224d 0000 214d 0000
00000210: 1f4d 0000 1c4d 0000 1b4d 0000 1a4d 0000
00000220: 194d 0000 124d 0000 104d 0000 0f4d 0000
00000230: 0a4d 0000 084d 0000 074d 0000 064d 0000
00000240: 024d 0000 014d 0000 004d 0000 ff4c 0000
00000250: fe4c 0000 fd4c 0000 fc4c 0000 fb4c 0000
00000260: fa4c 0000 f94c 0000 f74c 0000 f64c 0000
00000270: f54c 0000 f44c 0000 ef4c 0000 ee4c 0000
00000280: ec4c 0000 eb4c 0000 ea4c 0000 e74c 0000
00000290: e54c 0000 e44c 0000 e34c 0000 e14c 0000
000002a0: e04c 0000 de4c 0000 dc4c 0000 d94c 0000
000002b0: d84c 0000 d64c 0000 d54c 0000 d34c 0000
000002c0: d14c 0000 d04c 0000 cf4c 0000 cb4c 0000
000002d0: c94c 0000 c84c 0000 c74c 0000 c64c 0000
000002e0: c34c 0000 c24c 0000 be4c 0000 bd4c 0000
000002f0: bc4c 0000 bb4c 0000 b94c 0000 b84c 0000
00000300: b64c 0000 b54c 0000 b44c 0000 b34c 0000
00000310: b24c 0000 b04c 0000 ad4c 0000 ac4c 0000
00000320: aa4c 0000 a94c 0000 a84c 0000 a74c 0000
00000330: a44c 0000 a34c 0000 a14c 0000 a04c 0000
00000340: 9e4c 0000 9c4c 0000 994c 0000 974c 0000
00000350: 954c 0000 934c 0000 8f4c 0000 8e4c 0000
00000360: 8b4c 0000 874c 0000 844c 0000 834c 0000
00000370: 804c 0000 7f4c 0000 7c4c 0000 7b4c 0000
00000380: 794c 0000 784c 0000 764c 0000 744c 0000
00000390: 734c 0000 714c 0000 6f4c 0000 6b4c 0000
000003a0: 6a4c 0000 694c 0000 684c 0000 674c 0000
000003b0: 664c 0000 654c 0000 634c 0000 624c 0000
000003c0: 614c 0000 604c 0000 5e4c 0000 5c4c 0000
000003d0: 5a4c 0000 594c 0000 584c 0000 574c 0000
000003e0: 564c 0000 554c 0000 534c 0000 524c 0000
000003f0: 514c 0000 4f4c 0000 4d4c 0000 4b4c 0000

indptr i4 [55]
0 11296 15743 17815 20942 23070 25175 25540
26901 27821 28359 29722 31158 32996 33488 34856
36478 37466 37692 38882 40362 40905 41756 41943
43048 44414 45519 45662 45945 45958 46907 46936
47042 47822 48619 48748 48955 48978 49650 49696
50556 50714 50728 51214 51733 51740 52695 52720
53314 53787 53824 53909 54527 54552 54702
00000000: 0000 0000 202c 0000 7f3d 0000 9745 0000
00000010: ce51 0000 1e5a 0000 5762 0000 c463 0000
00000020: 1569 0000 ad6c 0000 c76e 0000 1a74 0000
00000030: b679 0000 e480 0000 d082 0000 2888 0000
00000040: 7e8e 0000 5a92 0000 3c93 0000 e297 0000
00000050: aa9d 0000 c99f 0000 1ca3 0000 d7a3 0000
00000060: 28a8 0000 7ead 0000 cfb1 0000 5eb2 0000
00000070: 79b3 0000 86b3 0000 3bb7 0000 58b7 0000
00000080: c2b7 0000 ceba 0000 ebbd 0000 6cbe 0000
00000090: 3bbf 0000 52bf 0000 f2c1 0000 20c2 0000
000000a0: 7cc5 0000 1ac6 0000 28c6 0000 0ec8 0000
000000b0: 15ca 0000 1cca 0000 d7cd 0000 f0cd 0000
000000c0: 42d0 0000 1bd2 0000 40d2 0000 95d2 0000
000000d0: ffd4 0000 18d5 0000 aed5 0000
