output/bertopic_model/ctfidf.safetensors (safetensors, 828196 bytes, 4 tensors)

data f8 [55654]
00000000: 39bc 49b9 ac77 283f 6cf8 c15f cb74 233f
00000010: e03d 1116 b9fe 213f 39bc 49b9 ac77 283f
00000020: 39bc 49b9 ac77 283f f662 7efe be0b 253f
00000030: f662 7efe be0b 253f 506e e5a7 f14e 363f
00000040: 39bc 49b9 ac77 283f 39bc 49b9 ac77 283f
00000050: 8eb0 469f eac0 523f 39bc 49b9 ac77 283f
00000060: 39bc 49b9 ac77 283f 399d d9a8 1e92 433f
00000070: 9c7a a0c2 663e 5d3f 506e e5a7 f14e 263f
00000080: 4c3a 6dc1 a2e3 223f 39bc 49b9 ac77 283f
00000090: 506e e5a7 f14e 263f f662 7efe be0b 353f
000000a0: 39bc 49b9 ac77 283f 39bc 49b9 ac77 283f
000000b0: f662 7efe be0b 253f 506e e5a7 f14e 263f
000000c0: f662 7efe be0b 253f 0187 73e8 7d08 703f
000000d0: 506e e5a7 f14e 363f cf8f ecba 3c6d 563f
000000e0: 39bc 49b9 ac77 283f c1b6 ab36 6e9d 4b3f
000000f0: 506e e5a7 f14e 263f 39bc 49b9 ac77 283f
00000100: 39bc 49b9 ac77 283f a4f4 a20f 312f 3d3f
00000110: ea33 c334 d99d 713f 506e e5a7 f14e 263f
00000120: 39bc 49b9 ac77 283f e8bd 4d5f 025c 593f
00000130: d579 7224 f468 423f 39bc 49b9 ac77 283f
00000140: 506e e5a7 f14e 263f 39bc 49b9 ac77 283f
00000150: 39bc 49b9 ac77 283f 39bc 49b9 ac77 283f
00000160: f662 7efe be0b 353f 8125 890c 8626 343f
00000170: 8407 a9a2 f3c9 673f 506e e5a7 f14e 363f
00000180: 506e e5a7 f14e 263f 39bc 49b9 ac77 283f
00000190: 506e e5a7 f14e 263f e4a3 0b22 917f 473f
000001a0: db0f fc6c ae20 713f ad63 372d e67c 403f
000001b0: 39bc 49b9 ac77 283f 39bc 49b9 ac77 283f
000001c0: 39fa 7de9 c359 5f3f c787 1438 57c3 593f
000001d0: fc70 4a1d 5e9a 613f 64fc 580e ebbf 5e3f
000001e0: 374e 931b 4472 683f f662 7efe be0b 353f
000001f0: 506e e5a7 f14e 263f 73d7 2322 7455 3c3f
00000200: 39bc 49b9 ac77 283f 506e e5a7 f14e 263f
00000210: f662 7efe be0b 253f 7294 bd7d 9e91 3f3f
00000220: 8671 3c98 4d4d 213f f662 7efe be0b 253f
00000230: 506e e5a7 f14e 263f ef8f d289 a3d3 7c3f
00000240: d579 7224 f468 223f 7934 6c58 5209 463f
00000250: 7e70 c6db ee97 523f 39bc 49b9 ac77 283f
00000260: dce2 7339 0311 483f f662 7efe be0b 253f
00000270: 4c3a 6dc1 a2e3 423f 39bc 49b9 ac77 283f
00000280: 19ff 8cb3 5403 4c3f a4f4 a20f 312f 3d3f
00000290: 39bc 49b9 ac77 283f 8125 890c 8626 343f
000002a0: f662 7efe be0b 253f 39bc 49b9 ac77 283f
000002b0: 8125 890c 8626 243f b324 b6bb a556 733f
000002c0: 5789 0996 9ace 603f 39bc 49b9 ac77 283f
000002d0: 506e e5a7 f14e 363f 506e e5a7 f14e 263f
000002e0: 39bc 49b9 ac77 283f 18b3 da74 3cc4 373f
000002f0: 2d5d 23ad 0ea1 313f f662 7efe be0b 253f
00000300: 2c43 c850 f623 433f 1fd4 65b3 484c 753f
00000310: 4c3a 6dc1 a2e3 423f 7990 c0fe 8463 603f
00000320: 39bc 49b9 ac77 283f e9a1 ed19 b4f1 793f
00000330: 39bc 49b9 ac77 283f 39bc 49b9 ac77 283f
00000340: 39bc 49b9 ac77 283f 92ec d19c e050 6f3f
00000350: 39bc 49b9 ac77 283f 8125 890c 8626 443f
00000360: 39bc 49b9 ac77 283f 39bc 49b9 ac77 283f
00000370: 6cf8 c15f cb74 333f 4aaa 5a64 f4f3 393f
00000380: 5561 0dae 1e63 383f 39bc 49b9 ac77 283f
00000390: 42b8 cd12 c939 3e3f 6cf8 c15f cb74 433f
000003a0: df88 c871 8b9c 473f e03d 1116 b9fe 313f
000003b0: da9d 2fcb 6ce3 533f 39bc 49b9 ac77 283f
000003c0: 15ff 74de 90d8 533f 39bc 49b9 ac77 283f
000003d0: 39bc 49b9 ac77 283f b2ec 0a26 6fbd 523f
000003e0: 39bc 49b9 ac77 283f e03d 1116 b9fe 313f
000003f0: f662 7efe be0b 253f 39bc 49b9 ac77 283f
00000400: 8125 890c 8626 243f c50b b503 9671 3a3f
00000410: 6cf8 c15f cb74 433f 39bc 49b9 ac77 283f
00000420: 39bc 49b9 ac77 283f d579 7224 f468 323f
00000430: 506e e5a7 f14e 363f 8125 890c 8626 243f
00000440: 3bce 02bb c3f9 703f 39bc 49b9 ac77 283f
00000450: a8d6 2a8b e347 613f 506e e5a7 f14e 263f
00000460: 39bc 49b9 ac77 283f 6cf8 c15f cb74 233f
00000470: 39bc 49b9 ac77 283f 939c 30f5 f2ae 5e3f
00000480: 506e e5a7 f14e 363f 39bc 49b9 ac77 283f
00000490: 42b8 cd12 c939 3e3f 3d97 a27b 570b 203f
000004a0: 3daf 0b3e e616 4b3f 7126 0b91 9952 443f
000004b0: a4c0 8d50 e638 5b3f 39bc 49b9 ac77 283f
000004c0: 8125 890c 8626 243f 4c3a 6dc1 a2e3 323f
000004d0: ad63 372d e67c 303f fdbf 55f9 f102 543f
000004e0: 506e e5a7 f14e 263f 39bc 49b9 ac77 283f
000004f0: 8125 890c 8626 243f d2dc 19a1 15fe 3a3f
00000500: 506e e5a7 f14e 363f f662 7efe be0b 353f
00000510: 506e e5a7 f14e 363f 39bc 49b9 ac77 283f
00000520: 39bc 49b9 ac77 283f 2c43 c850 f623 533f
00000530: 506e e5a7 f14e 363f e03d 1116 b9fe 213f
00000540: 39bc 49b9 ac77 283f 39bc 49b9 ac77 283f
00000550: 3c47 a219 5640 513f 39bc 49b9 ac77 283f
00000560: 39bc 49b9 ac77 283f 39bc 49b9 ac77 283f
00000570: ad63 372d e67c 303f 506e e5a7 f14e 263f
00000580: f662 7efe be0b 253f 8125 890c 8626 343f
00000590: 39bc 49b9 ac77 283f af46 9a7f e53c 523f
000005a0: 8125 890c 8626 343f 0be0 3c3a de00 4a3f
000005b0: 39bc 49b9 ac77 283f 47cc 2c1e cb49 4d3f
000005c0: 506e e5a7 f14e 363f 11bb e50d 1957 353f
000005d0: 39bc 49b9 ac77 283f e03d 1116 b9fe 313f
000005e0: d579 7224 f468 223f 506e e5a7 f14e 263f
000005f0: ef96 1c7a c519 493f 506e e5a7 f14e 263f
00000600: 506e e5a7 f14e 263f 39bc 49b9 ac77 283f
00000610: 39bc 49b9 ac77 283f 506e e5a7 f14e 263f
00000620: 506e e5a7 f14e 263f 39bc 49b9 ac77 283f
00000630: 6cf8 c15f cb74 233f 39bc 49b9 ac77 283f
00000640: 506e e5a7 f14e 263f ad63 372d e67c 403f
00000650: 42b8 cd12 c939 3e3f 61e3 e35c dd44 563f
00000660: 506e e5a7 f14e 263f f662 7efe be0b 253f
00000670: 2d5d 23ad 0ea1 313f ad63 372d e67c 403f
00000680: 9ef4 ec3c 118e 543f 506e e5a7 f14e 363f
00000690: f662 7efe be0b 353f e03d 1116 b9fe 413f
000006a0: 39bc 49b9 ac77 283f 39bc 49b9 ac77 283f
000006b0: dcb1 50d2 0f46 683f 39bc 49b9 ac77 283f
000006c0: 39bc 49b9 ac77 283f abbc 9eca 247c 473f
000006d0: 506e e5a7 f14e 263f 39bc 49b9 ac77 283f
000006e0: 6cf8 c15f cb74 233f 0af2 ec92 b9b6 6c3f
000006f0: 39bc 49b9 ac77 283f 8125 890c 8626 243f
00000700: fd9e fe49 bf83 4f3f 8125 890c 8626 243f
00000710: 8125 890c 8626 243f 39bc 49b9 ac77 283f
00000720: 39bc 49b9 ac77 283f 506e e5a7 f14e 363f
00000730: 39bc 49b9 ac77 283f 6241 dd19 ae1a 393f
00000740: 39bc 49b9 ac77 283f 6cf8 c15f cb74 233f
00000750: 335c cf36 c947 6b3f 3d97 a27b 570b 203f
00000760: 13d6 a0a3 f541 453f 506e e5a7 f14e 263f
00000770: 506e e5a7 f14e 263f 2e21 705d 0e21 513f
00000780: 73d7 2322 7455 3c3f e03d 1116 b9fe 313f
00000790: 506e e5a7 f14e 263f a4f4 a20f 312f 3d3f
000007a0: f662 7efe be0b 353f 39bc 49b9 ac77 283f
000007b0: 2d5d 23ad 0ea1 213f 39bc 49b9 ac77 283f
000007c0: 6cf8 c15f cb74 233f 2c8c 733f d697 623f
000007d0: 506e e5a7 f14e 263f 39bc 49b9 ac77 283f
000007e0: 39bc 49b9 ac77 283f 39bc 49b9 ac77 283f
000007f0: dce2 7339 0311 383f 39bc 49b9 ac77 283f
0.00018667205280873 0.0001484392413466125 0.00013729104378733172 0.00018667205280873 0.00018667205280873 0.00016056734534399653 0.00016056734534399653 0.0003403987865533186
0.00018667205280873 0.00018667205280873 0.001144627688613151 0.00018667205280873 0.00018667205280873 0.0005972528176244946 0.0017848971861053392 0.0001701993932766593
0.00014411317598690893 0.00018667205280873 0.0001701993932766593 0.00032113469068799306 0.00018667205280873 0.00018667205280873 0.00016056734534399653 0.0001701993932766593
0.00016056734534399653 0.003914348438429861 0.0003403987865533186 0.00136881762200235 0.00018667205280873 0.0008427417900216048 0.0001701993932766593 0.00018667205280873
0.00018667205280873 0.0004453177240398376 0.004300926648466133 0.0001701993932766593 0.00018667205280873 0.0015478156248852574 0.0005618278600144031 0.00018667205280873
0.0001701993932766593 0.00018667205280873 0.00018667205280873 0.00018667205280873 0.00032113469068799306 0.00030747196845889313 0.002903915262579328 0.0003403987865533186
0.0001701993932766593 0.00018667205280873 0.0001701993932766593 0.0007171114594629571 0.004181557989571839 0.0005031703862484659 0.00018667205280873 0.00018667205280873
0.0019134915546313981 0.0015724517582573637 0.00214880353662583 0.001876811549109702 0.0029841737965428344 0.00032113469068799306 0.0001701993932766593 0.00043233952796072685
0.00018667205280873 0.0001701993932766593 0.00016056734534399653 0.00048170203603198965 0.00013200351906384969 0.00016056734534399653 0.0001701993932766593 0.007037772008661832
0.00014045696500360078 0.0006724979474214263 0.001134856472254447 0.00018667205280873 0.000734449934412042 0.00016056734534399653 0.0005764527039476357 0.00018667205280873
0.0008548892575177296 0.0004453177240398376 0.00018667205280873 0.00030747196845889313 0.00016056734534399653 0.00018667205280873 0.00015373598422944656 0.0047213052706719825
0.0020516413936075106 0.00018667205280873 0.0003403987865533186 0.0001701993932766593 0.00018667205280873 0.0003626487349304582 0.0002689991789685705 0.00016056734534399653
0.0005841210091280572 0.005199703204529476 0.0005764527039476357 0.0020005796013880498 0.00018667205280873 0.006334022064813352 0.00018667205280873 0.00018667205280873
0.00018667205280873 0.0038227450336854674 0.00018667205280873 0.0006149439369177863 0.00018667205280873 0.00018667205280873 0.000296878482693225 0.0003960105571915491
0.00037211894055168743 0.00018667205280873 0.0004612079526883397 0.00059375696538645 0.0007205658799345447 0.00027458208757466344 0.0012138903082304837 0.00018667205280873
0.0012113013015805963 0.00018667205280873 0.00018667205280873 0.00114379743915442 0.00018667205280873 0.00027458208757466344 0.00016056734534399653 0.00018667205280873
0.00015373598422944656 0.00040349876845285584 0.00059375696538645 0.00018667205280873 0.00018667205280873 0.00028091393000720155 0.0003403987865533186 0.00015373598422944656
0.004144444057760983 0.00018667205280873 0.002109474583756949 0.0001701993932766593 0.00018667205280873 0.0001484392413466125 0.00018667205280873 0.0018727657923223492
0.0003403987865533186 0.00018667205280873 0.0004612079526883397 0.00012240832240200699 0.0008267044287015645 0.0006201982342528123 0.0016615151564245778 0.00018667205280873
0.00015373598422944656 0.00028822635197381786 0.00025158519312423294 0.0012214053179739886 0.0001701993932766593 0.00018667205280873 0.00015373598422944656 0.0004118731313619953
0.0003403987865533186 0.00032113469068799306 0.0003403987865533186 0.00018667205280873 0.00018667205280873 0.0011682420182561144 0.0003403987865533186 0.00013729104378733172
0.00018667205280873 0.00018667205280873 0.0010529366323094999 0.00018667205280873 0.00018667205280873 0.00018667205280873 0.00025158519312423294 0.0001701993932766593
0.00016056734534399653 0.00030747196845889313 0.00018667205280873 0.0011131516643313845 0.00030747196845889313 0.0007935605139897118 0.00018667205280873 0.0008938066278915212
0.0003403987865533186 0.00032562600781364895 0.00018667205280873 0.00027458208757466344 0.00014045696500360078 0.0001701993932766593 0.0007660116427572176 0.0001701993932766593
0.0001701993932766593 0.00018667205280873 0.00018667205280873 0.0001701993932766593 0.0001701993932766593 0.00018667205280873 0.0001484392413466125 0.00018667205280873
0.0001701993932766593 0.0005031703862484659 0.0004612079526883397 0.0013591920611004326 0.0001701993932766593 0.00016056734534399653 0.0002689991789685705 0.0005031703862484659
0.0012545746173622595 0.0003403987865533186 0.00032113469068799306 0.0005491641751493269 0.00018667205280873 0.00018667205280873 0.0029630955709960393 0.00018667205280873
0.00018667205280873 0.0007167033811493936 0.0001701993932766593 0.00018667205280873 0.0001484392413466125 0.0035050987711697833 0.00018667205280873 0.00015373598422944656
0.0009617504147074459 0.00015373598422944656 0.00015373598422944656 0.00018667205280873 0.00018667205280873 0.0003403987865533186 0.00018667205280873 0.00038305998338208057
0.00018667205280873 0.0001484392413466125 0.0033301286662026585 0.00012240832240200699 0.0006487321290992741 0.0001701993932766593 0.0001701993932766593 0.0010454788478018828
0.00043233952796072685 0.00027458208757466344 0.0001701993932766593 0.0004453177240398376 0.00032113469068799306 0.00018667205280873 0.00013449958948428525 0.00018667205280873
0.0001484392413466125 0.0022696671036199958 0.0001701993932766593 0.00018667205280873 0.00018667205280873 0.00018667205280873 0.000367224967206021 0.00018667205280873

diag f8 [19971]
00000000: ccaa b80c 71d3 1540 e3a3 7f5b 6ff8 1840
00000010: d854 f06e 5818 1740 e618 033a b902 1b40
00000020: 1040 35af e766 1f40 1040 35af e766 1f40
00000030: e618 033a b902 1b40 9a16 2969 85a1 1c40
00000040: 1040 35af e766 1f40 e3a3 7f5b 6ff8 1840
00000050: 9a16 2969 85a1 1c40 1040 35af e766 1f40
00000060: 1040 35af e766 1f40 1040 35af e766 1f40
00000070: 1040 35af e766 1f40 1040 35af e766 1f40
00000080: 1040 35af e766 1f40 9a16 2969 85a1 1c40
00000090: 1040 35af e766 1f40 1040 35af e766 1f40
000000a0: 1040 35af e766 1f40 1040 35af e766 1f40
000000b0: 1040 35af e766 1f40 1040 35af e766 1f40
000000c0: 9a16 2969 85a1 1c40 1040 35af e766 1f40
000000d0: 1040 35af e766 1f40 1040 35af e766 1f40
000000e0: 9a16 2969 85a1 1c40 1040 35af e766 1f40
000000f0: 1040 35af e766 1f40 1040 35af e766 1f40
00000100: 1040 35af e766 1f40 1040 35af e766 1f40
00000110: 1040 35af e766 1f40 1040 35af e766 1f40
00000120: 1040 35af e766 1f40 1040 35af e766 1f40
00000130: 1040 35af e766 1f40 1040 35af e766 1f40
00000140: 1040 35af e766 1f40 9a16 2969 85a1 1c40
00000150: 1040 35af e766 1f40 1040 35af e766 1f40
00000160: 9a16 2969 85a1 1c40 1040 35af e766 1f40
00000170: 1040 35af e766 1f40 1040 35af e766 1f40
00000180: 1040 35af e766 1f40 1040 35af e766 1f40
00000190: 20ac 6a1e 89dc 1940 1040 35af e766 1f40
000001a0: 9a16 2969 85a1 1c40 9a16 2969 85a1 1c40
000001b0: 1040 35af e766 1f40 9a16 2969 85a1 1c40
000001c0: 1040 35af e766 1f40 20ac 6a1e 89dc 1940
000001d0: 1040 35af e766 1f40 1040 35af e766 1f40
000001e0: 20ac 6a1e 89dc 1940 9a16 2969 85a1 1c40
000001f0: e618 033a b902 1b40 9a16 2969 85a1 1c40
00000200: 1040 35af e766 1f40 9a16 2969 85a1 1c40
00000210: 20ac 6a1e 89dc 1940 1040 35af e766 1f40
00000220: 9a16 2969 85a1 1c40 9a16 2969 85a1 1c40
00000230: 1040 35af e766 1f40 1040 35af e766 1f40
00000240: 1040 35af e766 1f40 1040 35af e766 1f40
00000250: 1040 35af e766 1f40 1040 35af e766 1f40
00000260: 9a16 2969 85a1 1c40 9a16 2969 85a1 1c40
00000270: 1040 35af e766 1f40 838e 3b42 b6b9 1240
00000280: 1040 35af e766 1f40 1040 35af e766 1f40
00000290: 1040 35af e766 1f40 1040 35af e766 1f40
000002a0: 9a16 2969 85a1 1c40 1040 35af e766 1f40
000002b0: 1040 35af e766 1f40 9a16 2969 85a1 1c40
000002c0: 9a16 2969 85a1 1c40 1040 35af e766 1f40
000002d0: 9a16 2969 85a1 1c40 1040 35af e766 1f40
000002e0: 1040 35af e766 1f40 e3a3 7f5b 6ff8 1840
000002f0: 9a16 2969 85a1 1c40 e618 033a b902 1b40
00000300: d854 f06e 5818 1740 9a16 2969 85a1 1c40
00000310: 1040 35af e766 1f40 fbe2 174c a434 1640
00000320: 9a16 2969 85a1 1c40 e618 033a b902 1b40
00000330: e618 033a b902 1b40 1040 35af e766 1f40
00000340: 20ac 6a1e 89dc 1940 1040 35af e766 1f40
00000350: 1040 35af e766 1f40 1040 35af e766 1f40
00000360: 1040 35af e766 1f40 9a16 2969 85a1 1c40
00000370: 6f0c 9c31 2c29 1540 20ac 6a1e 89dc 1940
00000380: 9a16 2969 85a1 1c40 9a16 2969 85a1 1c40
00000390: 1040 35af e766 1f40 1040 35af e766 1f40
000003a0: 5538 793e bd7a 1540 5190 4e20 711d 1240
000003b0: e618 033a b902 1b40 1040 35af e766 1f40
000003c0: e618 033a b902 1b40 9a16 2969 85a1 1c40
000003d0: 1040 35af e766 1f40 1040 35af e766 1f40
000003e0: 1040 35af e766 1f40 e3a3 7f5b 6ff8 1840
000003f0: 1040 35af e766 1f40 1040 35af e766 1f40
00000400: 20ac 6a1e 89dc 1940 1040 35af e766 1f40
00000410: 1040 35af e766 1f40 1040 35af e766 1f40
00000420: 1040 35af e766 1f40 1040 35af e766 1f40
00000430: 1040 35af e766 1f40 9a16 2969 85a1 1c40
00000440: 1040 35af e766 1f40 1040 35af e766 1f40
00000450: 9a16 2969 85a1 1c40 1040 35af e766 1f40
00000460: 9a16 2969 85a1 1c40 1040 35af e766 1f40
00000470: 9a16 2969 85a1 1c40 f6e5 ee60 6e97 1440
00000480: 1040 35af e766 1f40 1040 35af e766 1f40
00000490: 20ac 6a1e 89dc 1940 9a16 2969 85a1 1c40
000004a0: 1040 35af e766 1f40 1040 35af e766 1f40
000004b0: e618 033a b902 1b40 1040 35af e766 1f40
000004c0: 1040 35af e766 1f40 1040 35af e766 1f40
000004d0: 1040 35af e766 1f40 9a16 2969 85a1 1c40
000004e0: 1040 35af e766 1f40 1040 35af e766 1f40
000004f0: 1040 35af e766 1f40 1040 35af e766 1f40
00000500: 20ac 6a1e 89dc 1940 e618 033a b902 1b40
00000510: 9a16 2969 85a1 1c40 1040 35af e766 1f40
00000520: 1040 35af e766 1f40 1040 35af e766 1f40
00000530: 1040 35af e766 1f40 1040 35af e766 1f40
00000540: 1040 35af e766 1f40 1040 35af e766 1f40
00000550: 1040 35af e766 1f40 1040 35af e766 1f40
00000560: 1040 35af e766 1f40 483d 1bcc 223e 1840
00000570: 1040 35af e766 1f40 9a16 2969 85a1 1c40
00000580: 1040 35af e766 1f40 1040 35af e766 1f40
00000590: 1040 35af e766 1f40 20ac 6a1e 89dc 1940
000005a0: 9a16 2969 85a1 1c40 9a16 2969 85a1 1c40
000005b0: 1040 35af e766 1f40 1040 35af e766 1f40
000005c0: 1040 35af e766 1f40 1040 35af e766 1f40
000005d0: 1040 35af e766 1f40 1040 35af e766 1f40
000005e0: 9a16 2969 85a1 1c40 1040 35af e766 1f40
000005f0: 1040 35af e766 1f40 9a16 2969 85a1 1c40
00000600: 1040 35af e766 1f40 9a16 2969 85a1 1c40
00000610: d854 f06e 5818 1740 99e3 1e06 afa0 1740
00000620: e3a3 7f5b 6ff8 1840 1040 35af e766 1f40
00000630: 9a16 2969 85a1 1c40 1040 35af e766 1f40
00000640: 1040 35af e766 1f40 1040 35af e766 1f40
00000650: 9a16 2969 85a1 1c40 9a16 2969 85a1 1c40
00000660: 9a16 2969 85a1 1c40 1040 35af e766 1f40
00000670: 9a16 2969 85a1 1c40 1040 35af e766 1f40
00000680: 9a16 2969 85a1 1c40 1040 35af e766 1f40
00000690: 1040 35af e766 1f40 e618 033a b902 1b40
000006a0: 9a16 2969 85a1 1c40 1040 35af e766 1f40
000006b0: 56bc f8e4 4241 1340 1040 35af e766 1f40
000006c0: 1040 35af e766 1f40 1040 35af e766 1f40
000006d0: eed2 de73 7263 0c40 1040 35af e766 1f40
000006e0: 9a16 2969 85a1 1c40 1040 35af e766 1f40
000006f0: 1040 35af e766 1f40 1040 35af e766 1f40
00000700: 9a16 2969 85a1 1c40 1040 35af e766 1f40
00000710: 20ac 6a1e 89dc 1940 9a16 2969 85a1 1c40
00000720: 1040 35af e766 1f40 1040 35af e766 1f40
00000730: 1040 35af e766 1f40 9a16 2969 85a1 1c40
00000740: 20ac 6a1e 89dc 1940 1040 35af e766 1f40
00000750: 1040 35af e766 1f40 e618 033a b902 1b40
00000760: 1040 35af e766 1f40 1040 35af e766 1f40
00000770: 483d 1bcc 223e 1840 e618 033a b902 1b40
00000780: e618 033a b902 1b40 1040 35af e766 1f40
00000790: 5538 793e bd7a 1540 99e3 1e06 afa0 1740
000007a0: 9a16 2969 85a1 1c40 1040 35af e766 1f40
000007b0: 4d68 bf18 95d7 1140 f6e5 ee60 6e97 1440
000007c0: 1040 35af e766 1f40 9a16 2969 85a1 1c40
000007d0: 9a16 2969 85a1 1c40 9a16 2969 85a1 1c40
000007e0: 1040 35af e766 1f40 e618 033a b902 1b40
000007f0: 483d 1bcc 223e 1840 e618 033a b902 1b40
5.456485937853994 6.2426122948317895 5.773774846476236 6.752659708441774 7.8504931808711405 7.8504931808711405 6.752659708441774 7.157735484249907
7.8504931808711405 6.2426122948317895 7.157735484249907 7.8504931808711405 7.8504931808711405 7.8504931808711405 7.8504931808711405 7.8504931808711405
7.8504931808711405 7.157735484249907 7.8504931808711405 7.8504931808711405 7.8504931808711405 7.8504931808711405 7.8504931808711405 7.8504931808711405
7.157735484249907 7.8504931808711405 7.8504931808711405 7.8504931808711405 7.157735484249907 7.8504931808711405 7.8504931808711405 7.8504931808711405
7.8504931808711405 7.8504931808711405 7.8504931808711405 7.8504931808711405 7.8504931808711405 7.8504931808711405 7.8504931808711405 7.8504931808711405
7.8504931808711405 7.157735484249907 7.8504931808711405 7.8504931808711405 7.157735484249907 7.8504931808711405 7.8504931808711405 7.8504931808711405
7.8504931808711405 7.8504931808711405 6.465366816769375 7.8504931808711405 7.157735484249907 7.157735484249907 7.8504931808711405 7.157735484249907
7.8504931808711405 6.465366816769375 7.8504931808711405 7.8504931808711405 6.465366816769375 7.157735484249907 6.752659708441774 7.157735484249907
7.8504931808711405 7.157735484249907 6.465366816769375 7.8504931808711405 7.157735484249907 7.157735484249907 7.8504931808711405 7.8504931808711405
7.8504931808711405 7.8504931808711405 7.8504931808711405 7.8504931808711405 7.157735484249907 7.157735484249907 7.8504931808711405 4.681359324345638
7.8504931808711405 7.8504931808711405 7.8504931808711405 7.8504931808711405 7.157735484249907 7.8504931808711405 7.8504931808711405 7.157735484249907
7.157735484249907 7.8504931808711405 7.157735484249907 7.8504931808711405 7.8504931808711405 6.2426122948317895 7.157735484249907 6.752659708441774
5.773774846476236 7.157735484249907 7.8504931808711405 5.551407994230199 7.157735484249907 6.752659708441774 6.752659708441774 7.8504931808711405
6.465366816769375 7.8504931808711405 7.8504931808711405 7.8504931808711405 7.8504931808711405 7.157735484249907 5.290207648419808 6.465366816769375
7.157735484249907 7.157735484249907 7.8504931808711405 7.8504931808711405 5.3698625337111325 4.528751854701185 6.752659708441774 7.8504931808711405
6.752659708441774 7.157735484249907 7.8504931808711405 7.8504931808711405 7.8504931808711405 6.2426122948317895 7.8504931808711405 7.8504931808711405
6.465366816769375 7.8504931808711405 7.8504931808711405 7.8504931808711405 7.8504931808711405 7.8504931808711405 7.8504931808711405 7.157735484249907
7.8504931808711405 7.8504931808711405 7.157735484249907 7.8504931808711405 7.157735484249907 7.8504931808711405 7.157735484249907 5.147881998616404
7.8504931808711405 7.8504931808711405 6.465366816769375 7.157735484249907 7.8504931808711405 7.8504931808711405 6.752659708441774 7.8504931808711405
7.8504931808711405 7.8504931808711405 7.8504931808711405 7.157735484249907 7.8504931808711405 7.8504931808711405 7.8504931808711405 7.8504931808711405
6.465366816769375 6.752659708441774 7.157735484249907 7.8504931808711405 7.8504931808711405 7.8504931808711405 7.8504931808711405 7.8504931808711405
7.8504931808711405 7.8504931808711405 7.8504931808711405 7.8504931808711405 7.8504931808711405 6.060679616129455 7.8504931808711405 7.157735484249907
7.8504931808711405 7.8504931808711405 7.8504931808711405 6.465366816769375 7.157735484249907 7.157735484249907 7.8504931808711405 7.8504931808711405
7.8504931808711405 7.8504931808711405 7.8504931808711405 7.8504931808711405 7.157735484249907 7.8504931808711405 7.8504931808711405 7.157735484249907
7.8504931808711405 7.157735484249907 5.773774846476236 5.906917663226431 6.2426122948317895 7.8504931808711405 7.157735484249907 7.8504931808711405
7.8504931808711405 7.8504931808711405 7.157735484249907 7.157735484249907 7.157735484249907 7.8504931808711405 7.157735484249907 7.8504931808711405
7.157735484249907 7.8504931808711405 7.8504931808711405 6.752659708441774 7.157735484249907 7.8504931808711405 4.813731744462606 7.8504931808711405
7.8504931808711405 7.8504931808711405 3.5485581447959396 7.8504931808711405 7.157735484249907 7.8504931808711405 7.8504931808711405 7.8504931808711405
7.157735484249907 7.8504931808711405 6.465366816769375 7.157735484249907 7.8504931808711405 7.8504931808711405 7.8504931808711405 7.157735484249907
6.465366816769375 7.8504931808711405 7.8504931808711405 6.752659708441774 7.8504931808711405 7.8504931808711405 6.060679616129455 6.752659708441774
6.752659708441774 7.8504931808711405 5.3698625337111325 5.906917663226431 7.157735484249907 7.8504931808711405 4.460529696161825 5.147881998616404
7.8504931808711405 7.157735484249907 7.157735484249907 7.157735484249907 7.8504931808711405 6.752659708441774 6.060679616129455 6.752659708441774

indices i4 [55654]
00000000: 014e 0000 ff4d 0000 fe4d 0000 fc4d 0000
00000010: fa4d 0000 f94d 0000 f54d 0000 f34d 0000
00000020: f14d 0000 f04d 0000 ea4d 0000 e84d 0000
00000030: e74d 0000 e44d 0000 e34d 0000 e14d 0000
00000040: df4d 0000 de4d 0000 dd4d 0000 db4d 0000
00000050: d94d 0000 d84d 0000 d74d 0000 d64d 0000
00000060: d54d 0000 d14d 0000 d04d 0000 ce4d 0000
00000070: cd4d 0000 cb4d 0000 c94d 0000 c84d 0000
00000080: c74d 0000 c64d 0000 c54d 0000 c44d 0000
00000090: c34d 0000 c24d 0000 c04d 0000 be4d 0000
000000a0: bc4d 0000 b74d 0000 b54d 0000 b44d 0000
000000b0: b24d 0000 b04d 0000 af4d 0000 ae4d 0000
000000c0: ad4d 0000 ac4d 0000 ab4d 0000 a94d 0000
000000d0: a74d 0000 a64d 0000 a54d 0000 a44d 0000
000000e0: a34d 0000 a24d 0000 a14d 0000 a04d 0000
000000f0: 9f4d 0000 9e4d 0000 9c4d 0000 994d 0000
00000100: 974d 0000 954d 0000 8d4d 0000 8c4d 0000
00000110: 8a4d 0000 894d 0000 884d 0000 874d 0000
00000120: 864d 0000 844d 0000 824d 0000 804d 0000
00000130: 7f4d 0000 7e4d 0000 7c4d 0000 7b4d 0000
00000140: 7a4d 0000 794d 0000 784d 0000 774d 0000
00000150: 764d 0000 754d 0000 734d 0000 6f4d 0000
00000160: 6c4d 0000 6b4d 0000 6a4d 0000 664d 0000
00000170: 644d 0000 634d 0000 614d 0000 604d 0000
00000180: 5e4d 0000 5b4d 0000 5a4d 0000 594d 0000
00000190: 584d 0000 574d 0000 554d 0000 524d 0000
000001a0: 514d 0000 504d 0000 4f4d 0000 4e4d 0000
000001b0: 4c4d 0000 4b4d 0000 494d 0000 484d 0000
000001c0: 464d 0000 444d 0000 434d 0000 404d 0000
000001d0: 3f4d 0000 3e4d 0000 3d4d 0000 3b4d 0000
000001e0: 394d 0000 384d 0000 374d 0000 334d 0000
000001f0: 314d 0000 2f4d 0000 2e4d 0000 2a4d 0000
00000200: 284d 0000 254d 0000 244d 0000 234d 0000
00000210: 224d 0000 214d 0000 1f4d 0000 1e4d 0000
00000220: 1c4d 0000 1b4d 0000 194d 0000 124d 0000
00000230: 104d 0000 0f4d 0000 0a4d 0000 074d 0000
00000240: 064d 0000 054d 0000 024d 0000 014d 0000
00000250: 004d 0000 ff4c 0000 fe4c 0000 fd4c 0000
00000260: fc4c 0000 fb4c 0000 fa4c 0000 f94c 0000
00000270: f74c 0000 f64c 0000 f54c 0000 f44c 0000
00000280: f34c 0000 f24c 0000 f14c 0000 f04c 0000
00000290: ef4c 0000 ee4c 0000 ec4c 0000 ea4c 0000
000002a0: e94c 0000 e74c 0000 e54c 0000 e44c 0000
000002b0: e34c 0000 e24c 0000 e14c 0000 e04c 0000
000002c0: de4c 0000 dc4c 0000 d94c 0000 d84c 0000
000002d0: d64c 0000 d54c 0000 d44c 0000 d34c 0000
000002e0: d14c 0000 d04c 0000 ca4c 0000 c94c 0000
000002f0: c84c 0000 c74c 0000 c64c 0000 c34c 0000
00000300: c24c 0000 be4c 0000 bd4c 0000 bc4c 0000
00000310: bb4c 0000 b94c 0000 b84c 0000 b74c 0000
00000320: b64c 0000 b54c 0000 b44c 0000 b34c 0000
00000330: b24c 0000 b04c 0000 ac4c 0000 aa4c 0000
00000340: a94c 0000 a84c 0000 a74c 0000 a44c 0000
00000350: a34c 0000 a14c 0000 a04c 0000 9f4c 0000
00000360: 9e4c 0000 9c4c 0000 994c 0000 974c 0000
00000370: 954c 0000 934c 0000 904c 0000 8f4c 0000
00000380: 874c 0000 844c 0000 834c 0000 804c 0000
00000390: 7f4c 0000 7c4c 0000 794c 0000 784c 0000
000003a0: 764c 0000 734c 0000 714c 0000 6f4c 0000
000003b0: 6b4c 0000 6a4c 0000 694c 0000 684c 0000
000003c0: 674c 0000 664c 0000 654c 0000 634c 0000
000003d0: 624c 0000 614c 0000 604c 0000 5e4c 0000
000003e0: 5c4c 0000 5a4c 0000 594c 0000 584c 0000
000003f0: 574c 0000 564c 0000 554c 0000 534c 0000
19969 19967 19966 19964 19962 19961 19957 19955
19953 19952 19946 19944 19943 19940 19939 19937
19935 19934 19933 19931 19929 19928 19927 19926
19925 19921 19920 19918 19917 19915 19913 19912
19911 19910 19909 19908 19907 19906 19904 19902
19900 19895 19893 19892 19890 19888 19887 19886
19885 19884 19883 19881 19879 19878 19877 19876
19875 19874 19873 19872 19871 19870 19868 19865
19863 19861 19853 19852 19850 19849 19848 19847
19846 19844 19842 19840 19839 19838 19836 19835
19834 19833 19832 19831 19830 19829 19827 19823
19820 19819 19818 19814 19812 19811 19809 19808
19806 19803 19802 19801 19800 19799 19797 19794
19793 19792 19791 19790 19788 19787 19785 19784
19782 19780 19779 19776 19775 19774 19773 19771
19769 19768 19767 19763 19761 19759 19758 19754
19752 19749 19748 19747 19746 19745 19743 19742
19740 19739 19737 19730 19728 19727 19722 19719
19718 19717 19714 19713 19712 19711 19710 19709
19708 19707 19706 19705 19703 19702 19701 19700
19699 19698 19697 19696 19695 19694 19692 19690
19689 19687 19685 19684 19683 19682 19681 19680
19678 19676 19673 19672 19670 19669 19668 19667
19665 19664 19658 19657 19656 19655 19654 19651
19650 19646 19645 19644 19643 19641 19640 19639
19638 19637 19636 19635 19634 19632 19628 19626
19625 19624 19623 19620 19619 19617 19616 19615
19614 19612 19609 19607 19605 19603 19600 19599
19591 19588 19587 19584 19583 19580 19577 19576
19574 19571 19569 19567 19563 19562 19561 19560
19559 19558 19557 19555 19554 19553 19552 19550
19548 19546 19545 19544 19543 19542 19541 19539

indptr i4 [53]
00000000: 0000 0000 ad2a 0000 223c 0000 3848 0000
00000010: 7a4e 0000 ca56 0000 9c62 0000 3a69 0000
00000020: a76a 0000 0870 0000 2272 0000 8277 0000
00000030: 707d 0000 0483 0000 3a8a 0000 4b8f 0000
00000040: 788f 0000 6891 0000 4e92 0000 1897 0000
00000050: 019d 0000 be9d 0000 b09f 0000 32a4 0000
00000060: 42a4 0000 96a9 0000 70ad 0000 8aae 0000
00000070: f3b2 0000 6fb3 0000 a7b3 0000 f9b5 0000
00000080: 0fb9 0000 2dbc 0000 3cbf 0000 edbf 0000
00000090: a2c0 0000 a2c4 0000 10c5 0000 3fc5 0000
000000a0: 71c9 0000 52cc 0000 81ce 0000 8fce 0000
000000b0: e4d0 0000 b5d2 0000 35d3 0000 75d3 0000
000000c0: 88d3 0000 08d5 0000 2dd5 0000 acd7 0000
000000d0: 66d9 0000
0 10925 15394 18488 20090 22218 25244 26938
27303 28680 29218 30594 32112 33540 35386 36683
36728 37224 37454 38680 40193 40382 40880 42034
42050 43414 44400 44682 45811 45935 45991 46585
47375 48173 48956 49133 49314 50338 50448 50495
51569 52306 52865 52879 53476 53941 54069 54133
54152 54536 54573 55212 55654
