output/bertopic_model/ctfidf.safetensors (safetensors, 820708 bytes, 4 tensors)

data f8 [55030]
000000 20 17 2e 56 e5 8c 28 3f 20 17 2e 56 e5 8c 28 3f
       0.00018730449218312076 0.00018730449218312076
000010 4b fd 94 51 ab 85 23 3f 32 40 4e 97 54 0e 22 3f
       0.0001489421490905397 0.00013775618176881246
000020 20 17 2e 56 e5 8c 28 3f 20 17 2e 56 e5 8c 28 3f
       0.00018730449218312076 0.00018730449218312076
000030 3a 8c 6d e5 ff 1d 25 3f 3a 8c 6d e5 ff 1d 25 3f
       0.0001611113427442983 0.0001611113427442983
000040 20 17 2e 56 e5 8c 28 3f 62 80 c2 df 4a 62 36 3f
       0.00018730449218312076 0.0003415520475389453
000050 20 17 2e 56 e5 8c 28 3f 20 17 2e 56 e5 8c 28 3f
       0.00018730449218312076 0.00018730449218312076
000060 20 17 2e 56 e5 8c 28 3f cd 16 16 69 e6 b2 54 3f
       0.00018730449218312076 0.001263356218573919
000070 20 17 2e 56 e5 8c 28 3f 20 17 2e 56 e5 8c 28 3f
       0.00018730449218312076 0.00018730449218312076
000080 ef 6f e5 09 18 a3 43 3f 00 56 a0 ed 95 11 60 3f
       0.000599276292443827 0.0019615104947756645
000090 62 80 c2 df 4a 62 26 3f 37 a2 16 cd 04 f4 22 3f
       0.00017077602376947264 0.00014460142714979734
0000a0 20 17 2e 56 e5 8c 28 3f 62 80 c2 df 4a 62 26 3f
       0.00018730449218312076 0.00017077602376947264
0000b0 3a 8c 6d e5 ff 1d 35 3f 20 17 2e 56 e5 8c 28 3f
       0.0003222226854885966 0.00018730449218312076
0000c0 20 17 2e 56 e5 8c 28 3f 3a 8c 6d e5 ff 1d 35 3f
       0.00018730449218312076 0.0003222226854885966
0000d0 62 80 c2 df 4a 62 26 3f 3a 8c 6d e5 ff 1d 25 3f
       0.00017077602376947264 0.0001611113427442983
0000e0 bc 06 13 a4 f1 a7 6f 3f 62 80 c2 df 4a 62 36 3f
       0.0038642615841986954 0.0003415520475389453
0000f0 67 5e 77 f9 8e c5 54 3f 20 17 2e 56 e5 8c 28 3f
       0.0012678047404416583 0.00018730449218312076
000100 0d d0 c4 ac 61 b5 4b 3f 62 80 c2 df 4a 62 26 3f
       0.000845596974193176 0.00017077602376947264
000110 20 17 2e 56 e5 8c 28 3f 20 17 2e 56 e5 8c 28 3f
       0.00018730449218312076 0.00018730449218312076
000120 ef 7b 5f fa 80 48 3d 3f 02 44 16 1d f3 7e 73 3f
       0.000446826447271619 0.004759740507680911
000130 62 80 c2 df 4a 62 26 3f 20 17 2e 56 e5 8c 28 3f
       0.00017077602376947264 0.00018730449218312076
000140 65 fd d6 42 2e f1 5a 3f 5e 35 83 c8 eb 78 32 3f
       0.0016444160240636993 0.000281865658064392
000150 20 17 2e 56 e5 8c 28 3f 62 80 c2 df 4a 62 26 3f
       0.00018730449218312076 0.00017077602376947264
000160 20 17 2e 56 e5 8c 28 3f 20 17 2e 56 e5 8c 28 3f
       0.00018730449218312076 0.00018730449218312076
000170 20 17 2e 56 e5 8c 28 3f 20 17 2e 56 e5 8c 28 3f
       0.00018730449218312076 0.00018730449218312076
000180 56 52 24 d8 ff ac 3f 3f ca fd 49 24 00 38 34 3f
       0.00048333402823289484 0.00030851367436210127
000190 b4 46 34 37 ec 50 69 3f 62 80 c2 df 4a 62 36 3f
       0.003090344771074916 0.0003415520475389453
0001a0 62 80 c2 df 4a 62 26 3f 20 17 2e 56 e5 8c 28 3f
       0.00017077602376947264 0.00018730449218312076
0001b0 20 17 2e 56 e5 8c 28 3f 87 1f 82 c7 39 f2 4a 3f
       0.00018730449218312076 0.0008223325849181375
0001c0 78 0f ce d1 fd 71 6c 3f 22 01 6e 0c 33 8b 30 3f
       0.0034723241246314394 0.0002524375562913563
0001d0 83 5c ed 02 b3 b8 5c 3f 3e 7c d0 62 fe 00 58 3f
       0.0017530201109446093 0.00146508066541863
0001e0 5c a2 39 94 a2 a9 61 3f e6 5c a4 1b 52 d4 60 3f
       0.0021560836192302934 0.002054367415563629
0001f0 ae 3a 58 de 78 f2 65 3f 3a 8c 6d e5 ff 1d 35 3f
       0.0026790962899732795 0.0003222226854885966
000200 20 17 2e 56 e5 8c 28 3f 52 f3 a1 33 07 6e 3c 3f
       0.00018730449218312076 0.000433804281449392
000210 20 17 2e 56 e5 8c 28 3f 62 80 c2 df 4a 62 26 3f
       0.00018730449218312076 0.00017077602376947264
000220 3a 8c 6d e5 ff 1d 25 3f 3a 8c 6d e5 ff 1d 25 3f
       0.0001611113427442983 0.0001611113427442983
000230 49 08 39 38 4f 5c 31 3f 3a 8c 6d e5 ff 1d 25 3f
       0.00026490148613700755 0.0001611113427442983
000240 62 80 c2 df 4a 62 26 3f 4a 18 73 25 66 df 7e 3f
       0.00017077602376947264 0.007537268647132287
000250 5e 35 83 c8 eb 78 32 3f 08 f5 c3 2d 6f 1c 46 3f
       0.000281865658064392 0.0006747763505071955
000260 3a 8c 6d e5 ff 1d 25 3f bf 55 db 3e 0f a8 52 3f
       0.0001611113427442983 0.0011387013322993048
000270 20 17 2e 56 e5 8c 28 3f 3d 24 3e dd 41 19 40 3f
       0.00018730449218312076 0.000491292152660645
000280 3a 8c 6d e5 ff 1d 25 3f 37 a2 16 cd 04 f4 42 3f
       0.0001611113427442983 0.0005784057085991894
000290 20 17 2e 56 e5 8c 28 3f d8 aa 5d 9c 14 9f 4f 3f
       0.00018730449218312076 0.0009650087965672139
0002a0 ef 7b 5f fa 80 48 3d 3f 20 17 2e 56 e5 8c 28 3f
       0.000446826447271619 0.00018730449218312076
0002b0 ca fd 49 24 00 38 34 3f 3a 8c 6d e5 ff 1d 35 3f
       0.00030851367436210127 0.0003222226854885966
0002c0 20 17 2e 56 e5 8c 28 3f ca fd 49 24 00 38 24 3f
       0.00018730449218312076 0.00015425683718105063
0002d0 44 97 ac 87 c4 ec 72 3f 56 7b 4f c6 ad e9 5b 3f
       0.004620330519889585 0.0017036625879353804
0002e0 62 80 c2 df 4a 62 26 3f 20 17 2e 56 e5 8c 28 3f
       0.00017077602376947264 0.00018730449218312076
0002f0 86 6f b6 95 cc cb 3f 3f d3 90 69 f1 58 b0 21 3f
       0.00048516983744106184 0.0001349552701014391
000300 a5 8f bb 36 30 e3 4a 3f 20 17 2e 56 e5 8c 28 3f
       0.0008205399912779478 0.00018730449218312076
000310 e9 00 ae 3d 88 ee 73 3f 37 a2 16 cd 04 f4 32 3f
       0.004866153899343064 0.0002892028542995947
000320 ce 0f bd 59 fe e7 63 3f 20 17 2e 56 e5 8c 28 3f
       0.002429959085846512 0.00018730449218312076
000330 8c b0 25 9f 1e 60 78 3f 20 17 2e 56 e5 8c 28 3f
       0.005951041808980883 0.00018730449218312076
000340 20 17 2e 56 e5 8c 28 3f 20 17 2e 56 e5 8c 28 3f
       0.00018730449218312076 0.00018730449218312076
000350 1a 7b 77 36 41 8b 71 3f 20 17 2e 56 e5 8c 28 3f
       0.004283194291444992 0.00018730449218312076
000360 ca fd 49 24 00 38 44 3f 20 17 2e 56 e5 8c 28 3f
       0.0006170273487242025 0.00018730449218312076
000370 4b fd 94 51 ab 85 23 3f 6d 8c 55 d4 76 0a 3a 3f
       0.0001489421490905397 0.0003973522292055113
000380 45 f6 10 77 45 78 38 3f 20 17 2e 56 e5 8c 28 3f
       0.0003733796684775896 0.00018730449218312076
000390 ca fd 49 24 00 38 34 3f 4b fd 94 51 ab 85 23 3f
       0.00030851367436210127 0.0001489421490905397
0003a0 c4 4a 5c 00 06 b1 47 3f 32 40 4e 97 54 0e 32 3f
       0.0007230071357489866 0.0002755123635376249
0003b0 29 5f c1 b0 ac f4 53 3f 20 17 2e 56 e5 8c 28 3f
       0.0012180029325658626 0.00018730449218312076
0003c0 0d fe 0e 44 00 67 56 3f 20 17 2e 56 e5 8c 28 3f
       0.0013673307987430744 0.00018730449218312076
0003d0 20 17 2e 56 e5 8c 28 3f 7f 19 6f a9 59 6b 1f 3f
       0.00018730449218312076 0.00011985525848876541
0003e0 5f 30 6f 02 01 04 55 3f 20 17 2e 56 e5 8c 28 3f
       0.0012826928957450285 0.00018730449218312076
0003f0 32 40 4e 97 54 0e 32 3f 3a 8c 6d e5 ff 1d 25 3f
       0.0002755123635376249 0.0001611113427442983
000400 20 17 2e 56 e5 8c 28 3f ca fd 49 24 00 38 24 3f
       0.00018730449218312076 0.00015425683718105063
000410 3c 59 1e 6a 85 88 3a 3f 4b fd 94 51 ab 85 43 3f
       0.00040486581030431726 0.0005957685963621588
000420 20 17 2e 56 e5 8c 28 3f 5e 35 83 c8 eb 78 32 3f
       0.00018730449218312076 0.000281865658064392
000430 62 80 c2 df 4a 62 36 3f e3 07 8c 1e 9c 4d 70 3f
       0.0003415520475389453 0.003980264512167128
000440 20 17 2e 56 e5 8c 28 3f 3f 0b ba 8c 88 e7 5f 3f
       0.00018730449218312076 0.001947291707353485
000450 62 80 c2 df 4a 62 36 3f 20 17 2e 56 e5 8c 28 3f
       0.0003415520475389453 0.00018730449218312076
000460 4b fd 94 51 ab 85 33 3f 20 17 2e 56 e5 8c 28 3f
       0.0002978842981810794 0.00018730449218312076
000470 09 ad 20 b7 8f c9 5e 3f 62 80 c2 df 4a 62 36 3f
       0.0018791106672420585 0.0003415520475389453
000480 ca fd 49 24 00 38 44 3f 3d 24 3e dd 41 19 20 3f
       0.0006170273487242025 0.00012282303816516126
000490 bc 6e a7 05 65 2e 4b 3f 3a cd 38 e3 39 64 44 3f
       0.0008295052787689809 0.0006222994474626494
0004a0 e4 39 ae 9d fb d4 5c 3f 20 17 2e 56 e5 8c 28 3f
       0.0017597634493743347 0.00018730449218312076
0004b0 ca fd 49 24 00 38 34 3f 37 a2 16 cd 04 f4 32 3f
       0.00030851367436210127 0.0002892028542995947
0004c0 22 01 6e 0c 33 8b 30 3f c5 b7 8e ac 95 bb 50 3f
       0.0002524375562913563 0.0010212861691161073
0004d0 62 80 c2 df 4a 62 26 3f 20 17 2e 56 e5 8c 28 3f
       0.00017077602376947264 0.00018730449218312076
0004e0 ca fd 49 24 00 38 24 3f 4a 60 f5 e2 7e 15 3b 3f
       0.00015425683718105063 0.0004132685453064373
0004f0 20 17 2e 56 e5 8c 28 3f d6 e8 e9 2e e0 0b 47 3f
       0.00018730449218312076 0.0007033199925239552
000500 62 80 c2 df 4a 62 36 3f 20 17 2e 56 e5 8c 28 3f
       0.0003415520475389453 0.00018730449218312076
000510 32 40 4e 97 54 0e 32 3f 20 17 2e 56 e5 8c 28 3f
       0.0002755123635376249 0.00018730449218312076
000520 01 24 8e 7a 4c 4f 51 3f 20 17 2e 56 e5 8c 28 3f
       0.0010565039503680487 0.00018730449218312076
000530 20 17 2e 56 e5 8c 28 3f fb 81 c0 55 99 f3 4c 3f
       0.00018730449218312076 0.000883531447019747
000540 62 80 c2 df 4a 62 26 3f 3a 8c 6d e5 ff 1d 25 3f
       0.00017077602376947264 0.0001611113427442983
000550 ca fd 49 24 00 38 34 3f 20 17 2e 56 e5 8c 28 3f
       0.00030851367436210127 0.00018730449218312076
000560 46 52 8d 15 8b 47 3d 3f ca fd 49 24 00 38 34 3f
       0.00044676919565248376 0.00030851367436210127
000570 12 ab 7f d8 9f d1 3d 3f e2 1c 7f 17 74 30 49 3f
       0.0004549994705473219 0.0007687155584727124
000580 62 80 c2 df 4a 62 26 3f 81 8d 7e 4f 9b 69 35 3f
       0.00017077602376947264 0.0003267292190633695
000590 20 17 2e 56 e5 8c 28 3f 32 40 4e 97 54 0e 22 3f
       0.00018730449218312076 0.00013775618176881246
0005a0 5e 35 83 c8 eb 78 32 3f 62 80 c2 df 4a 62 26 3f
       0.000281865658064392 0.00017077602376947264
0005b0 3c ff fb ad 8a 2f 49 3f 62 80 c2 df 4a 62 26 3f
       0.0007686068674672484 0.00017077602376947264
0005c0 62 80 c2 df 4a 62 26 3f 62 80 c2 df 4a 62 26 3f
       0.00017077602376947264 0.00017077602376947264
0005d0 20 17 2e 56 e5 8c 28 3f 20 17 2e 56 e5 8c 28 3f
       0.00018730449218312076 0.00018730449218312076
0005e0 62 80 c2 df 4a 62 26 3f 62 80 c2 df 4a 62 26 3f
       0.00017077602376947264 0.00017077602376947264
0005f0 20 17 2e 56 e5 8c 28 3f 4b fd 94 51 ab 85 23 3f
       0.00018730449218312076 0.0001489421490905397
000600 62 80 c2 df 4a 62 26 3f b3 01 a5 92 cc d0 38 3f
       0.00017077602376947264 0.00037865633443703444
000610 af fc 6e 36 00 54 3e 3f 07 27 d8 84 ee 21 5b 3f
       0.0004627705115431519 0.0016560391699180237
000620 62 80 c2 df 4a 62 26 3f 3a 8c 6d e5 ff 1d 35 3f
       0.00017077602376947264 0.0003222226854885966
000630 3a 8c 6d e5 ff 1d 25 3f d3 90 69 f1 58 b0 31 3f
       0.0001611113427442983 0.0002699105402028782
000640 b3 01 a5 92 cc d0 38 3f b2 6b 5b b4 d7 ef 4e 3f
       0.00037865633443703444 0.0009441188091970836
000650 62 80 c2 df 4a 62 36 3f 3a 8c 6d e5 ff 1d 35 3f
       0.0003415520475389453 0.0003222226854885966
000660 20 17 2e 56 e5 8c 28 3f 3e d0 21 bd e9 91 46 3f
       0.00018730449218312076 0.0006887809088440622
000670 20 17 2e 56 e5 8c 28 3f 20 17 2e 56 e5 8c 28 3f
       0.00018730449218312076 0.00018730449218312076
000680 cb 5e 48 4d 44 8b 69 3f 20 17 2e 56 e5 8c 28 3f
       0.0031181653996660056 0.00018730449218312076
000690 1f 53 13 3f 83 90 47 3f 62 80 c2 df 4a 62 26 3f
       0.0007191315509325924 0.00017077602376947264
0006a0 20 17 2e 56 e5 8c 28 3f 4b fd 94 51 ab 85 23 3f
       0.00018730449218312076 0.0001489421490905397
0006b0 28 14 f2 01 a1 cf 6c 3f 20 17 2e 56 e5 8c 28 3f
       0.003516973941773322 0.00018730449218312076
0006c0 ca fd 49 24 00 38 24 3f d8 aa 5d 9c 14 9f 4f 3f
       0.00015425683718105063 0.0009650087965672139
0006d0 ca fd 49 24 00 38 24 3f ca fd 49 24 00 38 24 3f
       0.00015425683718105063 0.00015425683718105063
0006e0 20 17 2e 56 e5 8c 28 3f 20 17 2e 56 e5 8c 28 3f
       0.00018730449218312076 0.00018730449218312076
0006f0 62 80 c2 df 4a 62 36 3f 20 17 2e 56 e5 8c 28 3f
       0.0003415520475389453 0.00018730449218312076
000700 e2 1c 7f 17 74 30 39 3f 20 17 2e 56 e5 8c 28 3f
       0.0003843577792363562 0.00018730449218312076
000710 20 17 2e 56 e5 8c 28 3f 4b fd 94 51 ab 85 23 3f
       0.00018730449218312076 0.0001489421490905397
000720 ed a0 e8 64 72 5f 6b 3f 20 17 2e 56 e5 8c 28 3f
       0.0033414110432837736 0.00018730449218312076
000730 5b 36 dd cb e2 25 38 3f 26 64 cb 8f 65 54 45 3f
       0.00036846911449548374 0.0006509300142979498
000740 62 80 c2 df 4a 62 26 3f 62 80 c2 df 4a 62 26 3f
       0.00017077602376947264 0.00017077602376947264
000750 47 58 16 9d e9 2f 51 3f 37 a2 16 cd 04 f4 32 3f
       0.0010490208991078707 0.0002892028542995947
000760 32 40 4e 97 54 0e 22 3f 62 80 c2 df 4a 62 26 3f
       0.00013775618176881246 0.00017077602376947264
000770 4b fd 94 51 ab 85 33 3f 3a 8c 6d e5 ff 1d 35 3f
       0.0002978842981810794 0.0003222226854885966
000780 20 17 2e 56 e5 8c 28 3f d3 90 69 f1 58 b0 21 3f
       0.00018730449218312076 0.0001349552701014391
000790 20 17 2e 56 e5 8c 28 3f 4b fd 94 51 ab 85 23 3f
       0.00018730449218312076 0.0001489421490905397
0007a0 35 f6 0c f3 e3 80 60 3f 62 80 c2 df 4a 62 26 3f
       0.0020145847451249707 0.00017077602376947264
0007b0 20 17 2e 56 e5 8c 28 3f 20 17 2e 56 e5 8c 28 3f
       0.00018730449218312076 0.00018730449218312076
0007c0 20 17 2e 56 e5 8c 28 3f 3d 24 3e dd 41 19 30 3f
       0.00018730449218312076 0.0002456460763303225
0007d0 20 17 2e 56 e5 8c 28 3f ca fd 49 24 00 38 24 3f
       0.00018730449218312076 0.00015425683718105063
0007e0 12 98 94 13 b6 fd 44 3f 20 17 2e 56 e5 8c 28 3f
       0.0006405962987272604 0.00018730449218312076
0007f0 b3 01 a5 92 cc d0 38 3f 20 17 2e 56 e5 8c 28 3f
       0.00037865633443703444 0.00018730449218312076

diag f8 [19971]
000000 cc aa b8 0c 71 d3 15 40 e3 a3 7f 5b 6f f8 18 40
       5.456485937853994 6.2426122948317895
000010 d8 54 f0 6e 58 18 17 40 e6 18 03 3a b9 02 1b 40
       5.773774846476236 6.752659708441774
000020 10 40 35 af e7 66 1f 40 10 40 35 af e7 66 1f 40
       7.8504931808711405 7.8504931808711405
000030 e6 18 03 3a b9 02 1b 40 9a 16 29 69 85 a1 1c 40
       6.752659708441774 7.157735484249907
000040 10 40 35 af e7 66 1f 40 e3 a3 7f 5b 6f f8 18 40
       7.8504931808711405 6.2426122948317895
000050 9a 16 29 69 85 a1 1c 40 10 40 35 af e7 66 1f 40
       7.157735484249907 7.8504931808711405
000060 10 40 35 af e7 66 1f 40 10 40 35 af e7 66 1f 40
       7.8504931808711405 7.8504931808711405
000070 10 40 35 af e7 66 1f 40 10 40 35 af e7 66 1f 40
       7.8504931808711405 7.8504931808711405
000080 10 40 35 af e7 66 1f 40 9a 16 29 69 85 a1 1c 40
       7.8504931808711405 7.157735484249907
000090 10 40 35 af e7 66 1f 40 10 40 35 af e7 66 1f 40
       7.8504931808711405 7.8504931808711405
0000a0 10 40 35 af e7 66 1f 40 10 40 35 af e7 66 1f 40
       7.8504931808711405 7.8504931808711405
0000b0 10 40 35 af e7 66 1f 40 10 40 35 af e7 66 1f 40
       7.8504931808711405 7.8504931808711405
0000c0 9a 16 29 69 85 a1 1c 40 10 40 35 af e7 66 1f 40
       7.157735484249907 7.8504931808711405
0000d0 10 40 35 af e7 66 1f 40 10 40 35 af e7 66 1f 40
       7.8504931808711405 7.8504931808711405
0000e0 9a 16 29 69 85 a1 1c 40 10 40 35 af e7 66 1f 40
       7.157735484249907 7.8504931808711405
0000f0 10 40 35 af e7 66 1f 40 10 40 35 af e7 66 1f 40
       7.8504931808711405 7.8504931808711405
000100 10 40 35 af e7 66 1f 40 10 40 35 af e7 66 1f 40
       7.8504931808711405 7.8504931808711405
000110 10 40 35 af e7 66 1f 40 10 40 35 af e7 66 1f 40
       7.8504931808711405 7.8504931808711405
000120 10 40 35 af e7 66 1f 40 10 40 35 af e7 66 1f 40
       7.8504931808711405 7.8504931808711405
000130 10 40 35 af e7 66 1f 40 10 40 35 af e7 66 1f 40
       7.8504931808711405 7.8504931808711405
000140 10 40 35 af e7 66 1f 40 9a 16 29 69 85 a1 1c 40
       7.8504931808711405 7.157735484249907
000150 10 40 35 af e7 66 1f 40 10 40 35 af e7 66 1f 40
       7.8504931808711405 7.8504931808711405
000160 9a 16 29 69 85 a1 1c 40 10 40 35 af e7 66 1f 40
       7.157735484249907 7.8504931808711405
000170 10 40 35 af e7 66 1f 40 10 40 35 af e7 66 1f 40
       7.8504931808711405 7.8504931808711405
000180 10 40 35 af e7 66 1f 40 10 40 35 af e7 66 1f 40
       7.8504931808711405 7.8504931808711405
000190 20 ac 6a 1e 89 dc 19 40 10 40 35 af e7 66 1f 40
       6.465366816769375 7.8504931808711405
0001a0 9a 16 29 69 85 a1 1c 40 9a 16 29 69 85 a1 1c 40
       7.157735484249907 7.157735484249907
0001b0 10 40 35 af e7 66 1f 40 9a 16 29 69 85 a1 1c 40
       7.8504931808711405 7.157735484249907
0001c0 10 40 35 af e7 66 1f 40 20 ac 6a 1e 89 dc 19 40
       7.8504931808711405 6.465366816769375
0001d0 10 40 35 af e7 66 1f 40 10 40 35 af e7 66 1f 40
       7.8504931808711405 7.8504931808711405
0001e0 20 ac 6a 1e 89 dc 19 40 9a 16 29 69 85 a1 1c 40
       6.465366816769375 7.157735484249907
0001f0 e6 18 03 3a b9 02 1b 40 9a 16 29 69 85 a1 1c 40
       6.752659708441774 7.157735484249907
000200 10 40 35 af e7 66 1f 40 9a 16 29 69 85 a1 1c 40
       7.8504931808711405 7.157735484249907
000210 20 ac 6a 1e 89 dc 19 40 10 40 35 af e7 66 1f 40
       6.465366816769375 7.8504931808711405
000220 9a 16 29 69 85 a1 1c 40 9a 16 29 69 85 a1 1c 40
       7.157735484249907 7.157735484249907
000230 10 40 35 af e7 66 1f 40 10 40 35 af e7 66 1f 40
       7.8504931808711405 7.8504931808711405
000240 10 40 35 af e7 66 1f 40 10 40 35 af e7 66 1f 40
       7.8504931808711405 7.8504931808711405
000250 10 40 35 af e7 66 1f 40 10 40 35 af e7 66 1f 40
       7.8504931808711405 7.8504931808711405
000260 9a 16 29 69 85 a1 1c 40 9a 16 29 69 85 a1 1c 40
       7.157735484249907 7.157735484249907
000270 10 40 35 af e7 66 1f 40 83 8e 3b 42 b6 b9 12 40
       7.8504931808711405 4.681359324345638
000280 10 40 35 af e7 66 1f 40 10 40 35 af e7 66 1f 40
       7.8504931808711405 7.8504931808711405
000290 10 40 35 af e7 66 1f 40 10 40 35 af e7 66 1f 40
       7.8504931808711405 7.8504931808711405
0002a0 9a 16 29 69 85 a1 1c 40 10 40 35 af e7 66 1f 40
       7.157735484249907 7.8504931808711405
0002b0 10 40 35 af e7 66 1f 40 9a 16 29 69 85 a1 1c 40
       7.8504931808711405 7.157735484249907
0002c0 9a 16 29 69 85 a1 1c 40 10 40 35 af e7 66 1f 40
       7.157735484249907 7.8504931808711405
0002d0 9a 16 29 69 85 a1 1c 40 10 40 35 af e7 66 1f 40
       7.157735484249907 7.8504931808711405
0002e0 10 40 35 af e7 66 1f 40 e3 a3 7f 5b 6f f8 18 40
       7.8504931808711405 6.2426122948317895
0002f0 9a 16 29 69 85 a1 1c 40 e6 18 03 3a b9 02 1b 40
       7.157735484249907 6.752659708441774
000300 d8 54 f0 6e 58 18 17 40 9a 16 29 69 85 a1 1c 40
       5.773774846476236 7.157735484249907
000310 10 40 35 af e7 66 1f 40 fb e2 17 4c a4 34 16 40
       7.8504931808711405 5.551407994230199
000320 9a 16 29 69 85 a1 1c 40 e6 18 03 3a b9 02 1b 40
       7.157735484249907 6.752659708441774
000330 e6 18 03 3a b9 02 1b 40 10 40 35 af e7 66 1f 40
       6.752659708441774 7.8504931808711405
000340 20 ac 6a 1e 89 dc 19 40 10 40 35 af e7 66 1f 40
       6.465366816769375 7.8504931808711405
000350 10 40 35 af e7 66 1f 40 10 40 35 af e7 66 1f 40
       7.8504931808711405 7.8504931808711405
000360 10 40 35 af e7 66 1f 40 9a 16 29 69 85 a1 1c 40
       7.8504931808711405 7.157735484249907
000370 6f 0c 9c 31 2c 29 15 40 20 ac 6a 1e 89 dc 19 40
       5.290207648419808 6.465366816769375
000380 9a 16 29 69 85 a1 1c 40 9a 16 29 69 85 a1 1c 40
       7.157735484249907 7.157735484249907
000390 10 40 35 af e7 66 1f 40 10 40 35 af e7 66 1f 40
       7.8504931808711405 7.8504931808711405
0003a0 55 38 79 3e bd 7a 15 40 51 90 4e 20 71 1d 12 40
       5.3698625337111325 4.528751854701185
0003b0 e6 18 03 3a b9 02 1b 40 10 40 35 af e7 66 1f 40
       6.752659708441774 7.8504931808711405
0003c0 e6 18 03 3a b9 02 1b 40 9a 16 29 69 85 a1 1c 40
       6.752659708441774 7.157735484249907
0003d0 10 40 35 af e7 66 1f 40 10 40 35 af e7 66 1f 40
       7.8504931808711405 7.8504931808711405
0003e0 10 40 35 af e7 66 1f 40 e3 a3 7f 5b 6f f8 18 40
       7.8504931808711405 6.2426122948317895
0003f0 10 40 35 af e7 66 1f 40 10 40 35 af e7 66 1f 40
       7.8504931808711405 7.8504931808711405
000400 20 ac 6a 1e 89 dc 19 40 10 40 35 af e7 66 1f 40
       6.465366816769375 7.8504931808711405
000410 10 40 35 af e7 66 1f 40 10 40 35 af e7 66 1f 40
       7.8504931808711405 7.8504931808711405
000420 10 40 35 af e7 66 1f 40 10 40 35 af e7 66 1f 40
       7.8504931808711405 7.8504931808711405
000430 10 40 35 af e7 66 1f 40 9a 16 29 69 85 a1 1c 40
       7.8504931808711405 7.157735484249907
000440 10 40 35 af e7 66 1f 40 10 40 35 af e7 66 1f 40
       7.8504931808711405 7.8504931808711405
000450 9a 16 29 69 85 a1 1c 40 10 40 35 af e7 66 1f 40
       7.157735484249907 7.8504931808711405
000460 9a 16 29 69 85 a1 1c 40 10 40 35 af e7 66 1f 40
       7.157735484249907 7.8504931808711405
000470 9a 16 29 69 85 a1 1c 40 f6 e5 ee 60 6e 97 14 40
       7.157735484249907 5.147881998616404
000480 10 40 35 af e7 66 1f 40 10 40 35 af e7 66 1f 40
       7.8504931808711405 7.8504931808711405
000490 20 ac 6a 1e 89 dc 19 40 9a 16 29 69 85 a1 1c 40
       6.465366816769375 7.157735484249907
0004a0 10 40 35 af e7 66 1f 40 10 40 35 af e7 66 1f 40
       7.8504931808711405 7.8504931808711405
0004b0 e6 18 03 3a b9 02 1b 40 10 40 35 af e7 66 1f 40
       6.752659708441774 7.8504931808711405
0004c0 10 40 35 af e7 66 1f 40 10 40 35 af e7 66 1f 40
       7.8504931808711405 7.8504931808711405
0004d0 10 40 35 af e7 66 1f 40 9a 16 29 69 85 a1 1c 40
       7.8504931808711405 7.157735484249907
0004e0 10 40 35 af e7 66 1f 40 10 40 35 af e7 66 1f 40
       7.8504931808711405 7.8504931808711405
0004f0 10 40 35 af e7 66 1f 40 10 40 35 af e7 66 1f 40
       7.8504931808711405 7.8504931808711405
000500 20 ac 6a 1e 89 dc 19 40 e6 18 03 3a b9 02 1b 40
       6.465366816769375 6.752659708441774
000510 9a 16 29 69 85 a1 1c 40 10 40 35 af e7 66 1f 40
       7.157735484249907 7.8504931808711405
000520 10 40 35 af e7 66 1f 40 10 40 35 af e7 66 1f 40
       7.8504931808711405 7.8504931808711405
000530 10 40 35 af e7 66 1f 40 10 40 35 af e7 66 1f 40
       7.8504931808711405 7.8504931808711405
000540 10 40 35 af e7 66 1f 40 10 40 35 af e7 66 1f 40
       7.8504931808711405 7.8504931808711405
000550 10 40 35 af e7 66 1f 40 10 40 35 af e7 66 1f 40
       7.8504931808711405 7.8504931808711405
000560 10 40 35 af e7 66 1f 40 48 3d 1b cc 22 3e 18 40
       7.8504931808711405 6.060679616129455
000570 10 40 35 af e7 66 1f 40 9a 16 29 69 85 a1 1c 40
       7.8504931808711405 7.157735484249907
000580 10 40 35 af e7 66 1f 40 10 40 35 af e7 66 1f 40
       7.8504931808711405 7.8504931808711405
000590 10 40 35 af e7 66 1f 40 20 ac 6a 1e 89 dc 19 40
       7.8504931808711405 6.465366816769375
0005a0 9a 16 29 69 85 a1 1c 40 9a 16 29 69 85 a1 1c 40
       7.157735484249907 7.157735484249907
0005b0 10 40 35 af e7 66 1f 40 10 40 35 af e7 66 1f 40
       7.8504931808711405 7.8504931808711405
0005c0 10 40 35 af e7 66 1f 40 10 40 35 af e7 66 1f 40
       7.8504931808711405 7.8504931808711405
0005d0 10 40 35 af e7 66 1f 40 10 40 35 af e7 66 1f 40
       7.8504931808711405 7.8504931808711405
0005e0 9a 16 29 69 85 a1 1c 40 10 40 35 af e7 66 1f 40
       7.157735484249907 7.8504931808711405
0005f0 10 40 35 af e7 66 1f 40 9a 16 29 69 85 a1 1c 40
       7.8504931808711405 7.157735484249907
000600 10 40 35 af e7 66 1f 40 9a 16 29 69 85 a1 1c 40
       7.8504931808711405 7.157735484249907
000610 d8 54 f0 6e 58 18 17 40 99 e3 1e 06 af a0 17 40
       5.773774846476236 5.906917663226431
000620 e3 a3 7f 5b 6f f8 18 40 10 40 35 af e7 66 1f 40
       6.2426122948317895 7.8504931808711405
000630 9a 16 29 69 85 a1 1c 40 10 40 35 af e7 66 1f 40
       7.157735484249907 7.8504931808711405
000640 10 40 35 af e7 66 1f 40 10 40 35 af e7 66 1f 40
       7.8504931808711405 7.8504931808711405
000650 9a 16 29 69 85 a1 1c 40 9a 16 29 69 85 a1 1c 40
       7.157735484249907 7.157735484249907
000660 9a 16 29 69 85 a1 1c 40 10 40 35 af e7 66 1f 40
       7.157735484249907 7.8504931808711405
000670 9a 16 29 69 85 a1 1c 40 10 40 35 af e7 66 1f 40
       7.157735484249907 7.8504931808711405
000680 9a 16 29 69 85 a1 1c 40 10 40 35 af e7 66 1f 40
       7.157735484249907 7.8504931808711405
000690 10 40 35 af e7 66 1f 40 e6 18 03 3a b9 02 1b 40
       7.8504931808711405 6.752659708441774
0006a0 9a 16 29 69 85 a1 1c 40 10 40 35 af e7 66 1f 40
       7.157735484249907 7.8504931808711405
0006b0 56 bc f8 e4 42 41 13 40 10 40 35 af e7 66 1f 40
       4.813731744462606 7.8504931808711405
0006c0 10 40 35 af e7 66 1f 40 10 40 35 af e7 66 1f 40
       7.8504931808711405 7.8504931808711405
0006d0 ee d2 de 73 72 63 0c 40 10 40 35 af e7 66 1f 40
       3.5485581447959396 7.8504931808711405
0006e0 9a 16 29 69 85 a1 1c 40 10 40 35 af e7 66 1f 40
       7.157735484249907 7.8504931808711405
0006f0 10 40 35 af e7 66 1f 40 10 40 35 af e7 66 1f 40
       7.8504931808711405 7.8504931808711405
000700 9a 16 29 69 85 a1 1c 40 10 40 35 af e7 66 1f 40
       7.157735484249907 7.8504931808711405
000710 20 ac 6a 1e 89 dc 19 40 9a 16 29 69 85 a1 1c 40
       6.465366816769375 7.157735484249907
000720 10 40 35 af e7 66 1f 40 10 40 35 af e7 66 1f 40
       7.8504931808711405 7.8504931808711405
000730 10 40 35 af e7 66 1f 40 9a 16 29 69 85 a1 1c 40
       7.8504931808711405 7.157735484249907
000740 20 ac 6a 1e 89 dc 19 40 10 40 35 af e7 66 1f 40
       6.465366816769375 7.8504931808711405
000750 10 40 35 af e7 66 1f 40 e6 18 03 3a b9 02 1b 40
       7.8504931808711405 6.752659708441774
000760 10 40 35 af e7 66 1f 40 10 40 35 af e7 66 1f 40
       7.8504931808711405 7.8504931808711405
000770 48 3d 1b cc 22 3e 18 40 e6 18 03 3a b9 02 1b 40
       6.060679616129455 6.752659708441774
000780 e6 18 03 3a b9 02 1b 40 10 40 35 af e7 66 1f 40
       6.752659708441774 7.8504931808711405
000790 55 38 79 3e bd 7a 15 40 99 e3 1e 06 af a0 17 40
       5.3698625337111325 5.906917663226431
0007a0 9a 16 29 69 85 a1 1c 40 10 40 35 af e7 66 1f 40
       7.157735484249907 7.8504931808711405
0007b0 4d 68 bf 18 95 d7 11 40 f6 e5 ee 60 6e 97 14 40
       4.460529696161825 5.147881998616404
0007c0 10 40 35 af e7 66 1f 40 9a 16 29 69 85 a1 1c 40
       7.8504931808711405 7.157735484249907
0007d0 9a 16 29 69 85 a1 1c 40 9a 16 29 69 85 a1 1c 40
       7.157735484249907 7.157735484249907
0007e0 10 40 35 af e7 66 1f 40 e6 18 03 3a b9 02 1b 40
       7.8504931808711405 6.752659708441774
0007f0 48 3d 1b cc 22 3e 18 40 e6 18 03 3a b9 02 1b 40
       6.060679616129455 6.752659708441774

indices i4 [55030]
000000 02 4e 00 00 01 4e 00 00 ff 4d 00 00 fe 4d 00 00
       19970 19969 19967 19966
000010 fc 4d 00 00 fa 4d 00 00 f9 4d 00 00 f5 4d 00 00
       19964 19962 19961 19957
000020 f4 4d 00 00 f3 4d 00 00 f1 4d 00 00 f0 4d 00 00
       19956 19955 19953 19952
000030 ed 4d 00 00 ea 4d 00 00 e8 4d 00 00 e7 4d 00 00
       19949 19946 19944 19943
000040 e4 4d 00 00 e3 4d 00 00 e1 4d 00 00 df 4d 00 00
       19940 19939 19937 19935
000050 de 4d 00 00 dd 4d 00 00 db 4d 00 00 d9 4d 00 00
       19934 19933 19931 19929
000060 d8 4d 00 00 d7 4d 00 00 d6 4d 00 00 d5 4d 00 00
       19928 19927 19926 19925
000070 d1 4d 00 00 d0 4d 00 00 ce 4d 00 00 cd 4d 00 00
       19921 19920 19918 19917
000080 cb 4d 00 00 c9 4d 00 00 c8 4d 00 00 c7 4d 00 00
       19915 19913 19912 19911
000090 c6 4d 00 00 c5 4d 00 00 c4 4d 00 00 c3 4d 00 00
       19910 19909 19908 19907
0000a0 c2 4d 00 00 c0 4d 00 00 be 4d 00 00 bc 4d 00 00
       19906 19904 19902 19900
0000b0 b9 4d 00 00 b7 4d 00 00 b5 4d 00 00 b4 4d 00 00
       19897 19895 19893 19892
0000c0 b2 4d 00 00 b0 4d 00 00 af 4d 00 00 ae 4d 00 00
       19890 19888 19887 19886
0000d0 ad 4d 00 00 ac 4d 00 00 aa 4d 00 00 a9 4d 00 00
       19885 19884 19882 19881
0000e0 a7 4d 00 00 a6 4d 00 00 a3 4d 00 00 a2 4d 00 00
       19879 19878 19875 19874
0000f0 a1 4d 00 00 a0 4d 00 00 9f 4d 00 00 9e 4d 00 00
       19873 19872 19871 19870
000100 9b 4d 00 00 99 4d 00 00 97 4d 00 00 95 4d 00 00
       19867 19865 19863 19861
000110 8d 4d 00 00 8c 4d 00 00 8a 4d 00 00 89 4d 00 00
       19853 19852 19850 19849
000120 88 4d 00 00 87 4d 00 00 86 4d 00 00 84 4d 00 00
       19848 19847 19846 19844
000130 83 4d 00 00 82 4d 00 00 80 4d 00 00 7f 4d 00 00
       19843 19842 19840 19839
000140 7e 4d 00 00 7c 4d 00 00 7b 4d 00 00 7a 4d 00 00
       19838 19836 19835 19834
000150 79 4d 00 00 78 4d 00 00 77 4d 00 00 76 4d 00 00
       19833 19832 19831 19830
000160 75 4d 00 00 73 4d 00 00 6f 4d 00 00 6c 4d 00 00
       19829 19827 19823 19820
000170 66 4d 00 00 64 4d 00 00 63 4d 00 00 61 4d 00 00
       19814 19812 19811 19809
000180 5e 4d 00 00 5c 4d 00 00 5b 4d 00 00 5a 4d 00 00
       19806 19804 19803 19802
000190 59 4d 00 00 58 4d 00 00 57 4d 00 00 55 4d 00 00
       19801 19800 19799 19797
0001a0 52 4d 00 00 51 4d 00 00 50 4d 00 00 4f 4d 00 00
       19794 19793 19792 19791
0001b0 4e 4d 00 00 4b 4d 00 00 49 4d 00 00 48 4d 00 00
       19790 19787 19785 19784
0001c0 46 4d 00 00 44 4d 00 00 43 4d 00 00 40 4d 00 00
       19782 19780 19779 19776
0001d0 3f 4d 00 00 3e 4d 00 00 3d 4d 00 00 3b 4d 00 00
       19775 19774 19773 19771
0001e0 39 4d 00 00 38 4d 00 00 37 4d 00 00 35 4d 00 00
       19769 19768 19767 19765
0001f0 33 4d 00 00 31 4d 00 00 2f 4d 00 00 2e 4d 00 00
       19763 19761 19759 19758
000200 2a 4d 00 00 28 4d 00 00 25 4d 00 00 24 4d 00 00
       19754 19752 19749 19748
000210 22 4d 00 00 21 4d 00 00 1f 4d 00 00 1c 4d 00 00
       19746 19745 19743 19740
000220 1b 4d 00 00 19 4d 00 00 12 4d 00 00 10 4d 00 00
       19739 19737 19730 19728
000230 0f 4d 00 00 0a 4d 00 00 07 4d 00 00 06 4d 00 00
       19727 19722 19719 19718
000240 02 4d 00 00 01 4d 00 00 00 4d 00 00 ff 4c 00 00
       19714 19713 19712 19711
000250 fe 4c 00 00 fd 4c 00 00 fc 4c 00 00 fb 4c 00 00
       19710 19709 19708 19707
000260 fa 4c 00 00 f9 4c 00 00 f7 4c 00 00 f6 4c 00 00
       19706 19705 19703 19702
000270 f5 4c 00 00 f4 4c 00 00 ef 4c 00 00 ee 4c 00 00
       19701 19700 19695 19694
000280 ec 4c 00 00 eb 4c 00 00 ea 4c 00 00 e7 4c 00 00
       19692 19691 19690 19687
000290 e5 4c 00 00 e4 4c 00 00 e3 4c 00 00 e1 4c 00 00
       19685 19684 19683 19681
0002a0 e0 4c 00 00 de 4c 00 00 dc 4c 00 00 d9 4c 00 00
       19680 19678 19676 19673
0002b0 d8 4c 00 00 d6 4c 00 00 d5 4c 00 00 d3 4c 00 00
       19672 19670 19669 19667
0002c0 d1 4c 00 00 d0 4c 00 00 cb 4c 00 00 c9 4c 00 00
       19665 19664 19659 19657
0002d0 c8 4c 00 00 c7 4c 00 00 c6 4c 00 00 c3 4c 00 00
       19656 19655 19654 19651
0002e0 c2 4c 00 00 bf 4c 00 00 be 4c 00 00 bd 4c 00 00
       19650 19647 19646 19645
0002f0 bc 4c 00 00 bb 4c 00 00 b9 4c 00 00 b8 4c 00 00
       19644 19643 19641 19640
000300 b6 4c 00 00 b5 4c 00 00 b4 4c 00 00 b3 4c 00 00
       19638 19637 19636 19635
000310 b2 4c 00 00 b0 4c 00 00 ad 4c 00 00 ac 4c 00 00
       19634 19632 19629 19628
000320 aa 4c 00 00 a9 4c 00 00 a8 4c 00 00 a7 4c 00 00
       19626 19625 19624 19623
000330 a5 4c 00 00 a4 4c 00 00 a3 4c 00 00 a1 4c 00 00
       19621 19620 19619 19617
000340 a0 4c 00 00 9e 4c 00 00 9c 4c 00 00 99 4c 00 00
       19616 19614 19612 19609
000350 97 4c 00 00 95 4c 00 00 93 4c 00 00 90 4c 00 00
       19607 19605 19603 19600
000360 8f 4c 00 00 87 4c 00 00 84 4c 00 00 83 4c 00 00
       19599 19591 19588 19587
000370 80 4c 00 00 7f 4c 00 00 7c 4c 00 00 79 4c 00 00
       19584 19583 19580 19577
000380 78 4c 00 00 76 4c 00 00 74 4c 00 00 73 4c 00 00
       19576 19574 19572 19571
000390 71 4c 00 00 70 4c 00 00 6f 4c 00 00 6b 4c 00 00
       19569 19568 19567 19563
0003a0 6a 4c 00 00 69 4c 00 00 68 4c 00 00 67 4c 00 00
       19562 19561 19560 19559
0003b0 66 4c 00 00 65 4c 00 00 63 4c 00 00 62 4c 00 00
       19558 19557 19555 19554
0003c0 61 4c 00 00 60 4c 00 00 5e 4c 00 00 5c 4c 00 00
       19553 19552 19550 19548
0003d0 5a 4c 00 00 59 4c 00 00 58 4c 00 00 57 4c 00 00
       19546 19545 19544 19543
0003e0 56 4c 00 00 55 4c 00 00 53 4c 00 00 52 4c 00 00
       19542 19541 19539 19538
0003f0 51 4c 00 00 4f 4c 00 00 4d 4c 00 00 4c 4c 00 00
       19537 19535 19533 19532

indptr i4 [53]
000000 00 00 00 00 dd 2a 00 00 5d 3c 00 00 52 44 00 00
       0 10973 15453 17490
000010 6f 50 00 00 a1 58 00 00 16 61 00 00 0c 6c 00 00
       20591 22689 24854 27660
000020 79 6d 00 00 93 6f 00 00 07 75 00 00 3a 7a 00 00
       28025 28563 29959 31290
000030 e5 7f 00 00 ee 81 00 00 67 85 00 00 ac 8c 00 00
       32741 33262 34151 36012
000040 d9 8c 00 00 2e 90 00 00 0a 94 00 00 ee 94 00 00
       36057 36910 37898 38126
000050 0e 9a 00 00 f7 9f 00 00 b0 a0 00 00 52 a2 00 00
       39438 40951 41136 41554
000060 87 a3 00 00 dd a8 00 00 20 ad 00 00 2f ad 00 00
       41863 43229 44320 44335
000070 7c b1 00 00 f8 b1 00 00 cd b5 00 00 f4 b8 00 00
       45436 45560 46541 47348
000080 0b bc 00 00 14 c0 00 00 d8 c0 00 00 e9 c3 00 00
       48139 49172 49368 50153
000090 6f c8 00 00 24 c9 00 00 ab cc 00 00 fb cc 00 00
       51311 51492 52395 52475
0000a0 09 cd 00 00 73 cd 00 00 2a d0 00 00 54 d0 00 00
       52489 52595 53290 53332
0000b0 62 d0 00 00 e9 d2 00 00 03 d3 00 00 8c d4 00 00
       53346 53993 54019 54412
0000c0 ac d4 00 00 ce d4 00 00 1d d5 00 00 45 d6 00 00
       54444 54478 54557 54853
0000d0 f6 d6 00 00
       55030
