output/bertopic_model/topic_embeddings.safetensors (safetensors, 79960 bytes, 1 tensors)

topic_embeddings f4 [52, 384]
00000000: 50ba 333c 35e1 523c 7b29 863c dd52 c43b
00000010: add1 bdbb 3932 c83c 12d3 663d 0770 92bc
00000020: ae9e 113a 731b 853b 9a3d 053c 3eba d83a
00000030: 98c9 1abb 9098 4abc edc0 8fbb 7745 3a3c
00000040: 4f4e 10bb bc27 f7bb f32d b1bc 66ca b53c
00000050: 5b08 093b 3e54 0f3d eb5e 183c 8b9d 633c
00000060: c350 85bc 712e 9d3c e318 9fbc 2dae eabb
00000070: 6110 b43c d8fc f7bc 969f 8ebc 625d 663d
00000080: a793 d33b f900 3d39 65d3 183a 31c4 113d
00000090: b073 153c 700b 983c b5fc a73c efa6 d5bb
000000a0: a163 a0bc b424 84bc 3c0b a5bc e14e d83b
000000b0: 859e 7cbb 476a b1bc 2301 3dbc 8b36 483b
000000c0: 2453 8fbc 91d1 cfb9 bc94 2bbd 63dc 04bd
000000d0: 09d7 bfbc 6fa4 81bc 2ec9 34bb 633a b83c
000000e0: f60e 4b3c fca7 133d f8f0 fc3b 7ccc b2bc
000000f0: b5aa 48bc 0174 4cbb ea63 69bc 7f9d 8c3c
00000100: d12f df3c 6fb6 74bb a9e0 bc3b 2d37 d93c
00000110: 918e 07bd 4f8f 553d ad3a 453c 59c8 e43a
00000120: 2d0f 913b 91ef f63b ca5e 4bbc 8364 09bc
00000130: 1f9d 0cbc b3a7 50bd 04bd 7dbb 3df5 c4bc
00000140: 37d8 c6bc 2a33 b03b f763 39bc 5a42 1b3c
00000150: fe22 10bd b93c e4bc ccb1 1f3c 5492 28bd
00000160: 5c40 153c 9ff9 c9bb 35b1 c5bc 1a38 52bd
00000170: 5f52 77bb 06df d63c 44f1 863c 3bff 563c
00000180: 647a c3bc dc26 65bc ede2 28bd 7f04 5d3d
00000190: 8980 4e3c dc78 2b3d 2470 a1bb a483 943c
000001a0: 7466 e63b 3970 10bd 3286 bfbc cb56 abbc
000001b0: 3b3e e0bc 46c6 61bc 42a5 a2bc 2103 a1bc
000001c0: 40be eb3a 651f 33bc 03e9 263d 4dd2 693a
000001d0: a428 b5bb 0d48 b1bc c3b1 5dbc b2e9 873c
000001e0: b134 c73c 5feb bb3c 1bb9 2ebc e759 cd3c
000001f0: 0e1f bcbc fd76 08bd 8560 5f3c 0901 7709
00000200: 20c6 8c3c f60b 58bb 5f52 363c 27b5 133d
00000210: f6cf c23c f2d3 dbbb 9017 0fbd 23a7 05bb
00000220: 69c6 ed3a 2b63 25bc 4f42 403c b241 38bc
00000230: dbeb 10bc 9097 3e3c dcb8 59bc b3c9 f6ba
00000240: 6acf 61bc 1366 6a3b 70ad a93c 319e 31bc
00000250: 993d 17bc 83d4 543d ae9a d83b 983e 53bd
00000260: 4a50 d4bc 3358 8dbc dd79 b73c 8fd2 85bc
00000270: 1060 393c b0f5 b43c df64 233c 22d0 b03c
00000280: 439d 923c 2fac 9bbb c4c9 c43a 1816 683b
00000290: fb6b f8bc 97d9 13bd 07b2 403c 9883 5d3b
000002a0: 3bfb 0abd 5e43 c33c 3356 a0bb 5ea9 29bc
000002b0: 5571 5b3c 287c 333d 9b0a 883b 9caa 8d3c
000002c0: d465 bebc 1c87 fd3c 99cf b73b 9cab ab3c
000002d0: b028 b63c a17a 65bc cf0a 3a3a 9837 bebb
000002e0: e1f6 29bb a2e5 c53c c13e 0f3c a4d2 eebc
000002f0: 5d73 a83c e1a4 353c 15f1 5a3c f2dc 57bc
00000300: 2baf 41bb c42d d0ba 5abd 18bd 7c1b 00bd
00000310: e639 af3b 48e6 babb 065c 3fbd 041a 3e3c
00000320: 86ce acbc 4415 29bc b08a 3dbc 1c63 1abc
00000330: 1eb1 223c 4553 8cbc c0da 4a3c 6ab3 71bc
00000340: cbcb c3bc 1b71 b2bc 538b f4bc 4f0d e4b8
00000350: 599d 813c b4ba c9bc ab16 093d 86a3 8cbd
00000360: defb bbbb d22f 1c3d cba1 95bc 6e4f f23b
00000370: 9819 eb3c 5bf6 15bd 887e 75bd 9282 8589
00000380: 088b acbb 3682 84bc ef5c 19bd 21fd b33d
00000390: 6f97 e73b ca9d 89bb 9e83 0cbd 1cb6 1d3c
000003a0: 83d1 023d bf27 da3c 3633 a6bc ee86 c4bb
000003b0: ef49 8a3c f951 09ba 413a a83b 93ef 0abd
000003c0: 67b5 303d 9ee3 883c 1f79 b23b d825 db3c
000003d0: 31d1 b03c fffc 0f3c 2630 46bd d710 debc
000003e0: 3ed5 943b 3307 493d c5af c73c 1a34 82bc
000003f0: afff 51bd 7911 52bc ba42 753c fdfc e3ba
0.010969713 0.012871076 0.016377201 0.0059913234 -0.0057928176 0.02443801 0.056353636 -0.017875684
0.0005554956 0.00406211 0.008132363 0.0016534997 -0.0023618694 -0.012365475 -0.004387012 0.011369101
-0.0022019332 -0.0075425785 -0.021628356 0.022191238 0.0020909521 0.03499245 0.009299974 0.013892542
-0.016273862 0.019187184 -0.019421047 -0.0071618767 0.021980466 -0.030271932 -0.01741008 0.0562414
0.0064568105 0.00018024807 0.000582984 0.035587493 0.00912182 0.018560141 0.020506242 -0.006520144
-0.019578757 -0.016130783 -0.020146959 0.0066012 -0.0038546633 -0.021657122 -0.011535916 0.0030550088
-0.0174957 -0.00039638256 -0.04188989 -0.03243674 -0.023417966 -0.015825478 -0.0027585733 0.022488778
0.012393704 0.036048874 0.0077191554 -0.021826021 -0.012247731 -0.0031197073 -0.014245013 0.017164944
0.02724448 -0.0037340184 0.0057640863 0.026515568 -0.033094946 0.052138623 0.012037915 0.0017454728
0.004426858 0.0075358828 -0.012412736 -0.00838578 -0.008582382 -0.05094118 -0.0038717398 -0.02404272
-0.024273021 0.005377193 -0.011315337 0.009476269 -0.03518962 -0.027860986 0.00974698 -0.041155174
0.009109583 -0.0061637904 -0.02413235 -0.051323034 -0.0037738306 0.026229393 0.016472466 0.013122375
-0.023862071 -0.013986316 -0.04123204 0.053959366 0.012603887 0.041863307 -0.0049266983 0.018129177
0.0070312563 -0.035263274 -0.023379419 -0.02091541 -0.027373424 -0.013780182 -0.019854192 -0.019654812
0.0017985776 -0.010932778 0.04074956 0.0008919582 -0.0055285264 -0.021640802 -0.013531151 0.016590927
0.024317117 0.022939382 -0.01066425 0.025067283 -0.022964027 -0.0333166 0.013633852 2.973203e-33
0.017184317 -0.0032966114 0.011128037 0.036061432 0.023780804 -0.0067086155 -0.03493458 -0.002039381
0.0018140796 -0.010094444 0.011734559 -0.011246132 -0.008845295 0.011632815 -0.013288703 -0.0018828422
-0.0137823615 0.0035766407 0.020712584 -0.010840938 -0.009230995 0.05196048 0.006610236 -0.051573366
-0.025917191 -0.01725397 0.022396976 -0.016335754 0.011314407 0.02208981 0.00997278 0.02158362
0.017897254 -0.0047507505 0.0015013744 0.003541356 -0.030324927 -0.03609618 0.011761195 0.003380036
-0.033931 0.023835834 -0.0048930882 -0.010355322 0.01339372 0.043819577 0.004151655 0.017293267
-0.023241915 0.030948214 0.0056094644 0.020955853 0.022236198 -0.014006288 0.00070969475 -0.005804967
-0.0025934505 0.024157349 0.008742989 -0.029153176 0.020562822 0.0110866735 0.0133631425 -0.013175236
-0.002955387 -0.001588278 -0.037289955 -0.03127621 0.005347478 -0.005703721 -0.04671862 0.011602882
-0.021094572 -0.0103200115 -0.01156871 -0.009423044 0.009929923 -0.01712955 0.012381256 -0.014752248
-0.023900887 -0.021782449 -0.029851591 -0.00010874366 0.0158221 -0.02462516 0.033468883 -0.06867127
-0.005736812 0.038131543 -0.018265625 0.0073947227 0.028698727 -0.036611896 -0.059935123 -3.2141373e-33
-0.0052655973 -0.01617537 -0.037442144 0.08788515 0.007067613 -0.004199718 -0.034305207 0.009625938
0.031938087 0.02663028 -0.020288091 -0.00599753 0.016880957 -0.000523835 0.0051338975 -0.033919882
0.04314175 0.016710099 0.0054465677 0.026751444 0.021584125 0.008788346 -0.04838576 -0.02710764
0.004542022 0.04907913 0.024375806 -0.015893985 -0.05126923 -0.012821549 0.014969522 -0.0017394122
