output/bertopic_model/topic_embeddings.safetensors (safetensors, 72280 bytes, 1 tensors)

topic_embeddings f4 [47, 384]
0	0x3c1b3013	0.009471911
1	0x3c4b3e1a	0.012404943
2	0x3c834904	0.016026028
3	0x3bf14b52	0.007363715
4	0xbb9afadf	-0.004729613
5	0x3cb59847	0.022167338
6	0x3d68a656	0.056799255
7	0xbc918c79	-0.017767178
8	0xbabf699f	-0.0014603621
9	0x3bc4e49c	0.0060086977
10	0x3c0a0253	0.008423406
11	0x3a239431	0.0006240039
12	0xbb28e132	-0.0025768992
13	0xbc289510	-0.0102894455
14	0xbbbbb269	-0.0057280553
15	0x3c23f57b	0.010007258
16	0xbb4f51df	-0.0031634492
17	0xbc06d499	-0.008229398
18	0xbcb5add6	-0.022177618
19	0x3cbfb5e2	0.023402158
20	0x3b90b78a	0.004416411
21	0x3d17b99c	0.037042245
22	0x3c3bd2f9	0.011463874
23	0x3c62f0ef	0.013851388
24	0xbc74d0f9	-0.014942401
25	0x3c8dbff8	0.017303452
26	0xbcac00e9	-0.020996528
27	0xbc24ccb4	-0.010058571
28	0x3ca9afd0	0.020713717
29	0xbcea22ca	-0.028581042
30	0xbc9591d2	-0.01825801
31	0x3d65d853	0.056114506
32	0x3bf99ea6	0.0076177893
33	0x3b1bc480	0.0023768246
34	0x3ae4739a	0.0017429471
35	0x3d08a710	0.03336245
36	0x3c27a82e	0.010232968
37	0x3ca01515	0.019541303
38	0x3cb7c29a	0.02243166
39	0xbbe7de18	-0.007076036
40	0xbc9ecce9	-0.019384818
41	0xbca5732d	-0.020196522
42	0xbc934037	-0.017974956
43	0x3c0a105f	0.008426755
44	0xbb9c44b0	-0.0047689304
45	0xbca1311f	-0.019676743
46	0xbc1e8873	-0.009676087
47	0x3bee5d41	0.0072743003
48	0xbc9294f4	-0.017893292
49	0x3a012b00	0.0004927367
50	0xbd29950c	-0.041401908
51	0xbd06fdcb	-0.03295688
52	0xbcc25675	-0.023722867
53	0xbc7b641d	-0.015343693
54	0xbb25c6df	-0.0025295538
55	0x3cc49aa9	0.023999529
56	0x3c2cdd45	0.010550802
57	0x3d0e0975	0.034676988
58	0x3bf42799	0.0074510095
59	0xbcb6d5bd	-0.022318715
60	0xbc4f8b8e	-0.01266755
61	0xbb07e8ea	-0.0020738193
62	0xbc7be808	-0.015375145
63	0x3c953a3f	0.01821625
64	0x3cc66804	0.02421952
65	0xbb9a7cfa	-0.0047146054
66	0x3bd8a15b	0.006611032
67	0x3ce6175f	0.028087316
68	0xbd137ab5	-0.036005694
69	0x3d5bdc4e	0.053676896
70	0x3c3d28d6	0.011545381
71	0x3b57611c	0.0032864278
72	0x3bbbf015	0.005735407
73	0x3c0fac59	0.008769118
74	0xbc47f0da	-0.01220342
75	0xbc218fe7	-0.009860969
76	0xbbfa4673	-0.0076377927
77	0xbd4fc3e3	-0.05072392
78	0xbb3ccd71	-0.0028808976
79	0xbcc3a2a2	-0.02388126
80	0xbcd97d83	-0.026549106
81	0x3bc13418	0.0058961026
82	0xbc1a627a	-0.009422893
83	0x3c4abb31	0.0123737315
84	0xbd1c5f58	-0.038176864
85	0xbcf1b61e	-0.029505786
86	0x3c502a2d	0.012705368
87	0xbd2dea64	-0.04245986
88	0x3c371c7e	0.011176227
89	0xbbe19f7d	-0.0068854676
90	0xbcbdce17	-0.02316956
91	0xbd58788f	-0.05284935
92	0xbb3efe48	-0.0029143263
93	0x3cdc2ab4	0.026875831
94	0x3c5d0941	0.013490976
95	0x3c45ab6a	0.012064794
96	0xbcc39700	-0.023875713
97	0xbc586c28	-0.01320938
98	0xbd36f945	-0.044671316
99	0x3d615b88	0.05501893
100	0x3c3d3c26	0.011549985
101	0x3d2cc561	0.042180423
102	0xbbe54432	-0.006996655
103	0x3c8e4a58	0.017369434
104	0x3c041116	0.008060714
105	0xbd0f3f3f	-0.034972426
106	0xbcd6d371	-0.02622387
107	0xbcc25e61	-0.023726644
108	0xbcdc0515	-0.026857892
109	0xbc57dcc7	-0.013175196
110	0xbc9e6341	-0.019334437
111	0xbca6bf8f	-0.020355014
112	0x3b1a54c4	0.002354906
113	0xbc5983ca	-0.01327605
114	0x3d28a8a1	0.041176442
115	0xb9ab24ca	-0.00032643072
116	0xbbeb2078	-0.0071755014
117	0xbcbc5a56	-0.022992294
118	0xbc615e56	-0.013755402
119	0x3c8a4c71	0.016882153
120	0x3cc13c28	0.023588255
121	0x3cd816d4	0.026378073
122	0xbc4de114	-0.01256587
123	0x3ccbc661	0.024874868
124	0xbcb96d47	-0.022635115
125	0xbd070a18	-0.03296861
126	0x3c79db5d	0.015250054
127	0x0971e09f	2.9114936e-33
128	0x3c84db5c	0.01621788
129	0xba9249a6	-0.0011160865
130	0x3c0f00da	0.00872823
131	0x3d1a5716	0.037680708
132	0x3cb11230	0.021615118
133	0xbbbc86cd	-0.005753374
134	0xbd05f7ce	-0.032707028
135	0xba14ba02	-0.0005673469
136	0x39c2d860	0.00037163775
137	0xbc535c2e	-0.012900395
138	0x3c5502b1	0.01300113
139	0xbc26ead2	-0.010187821
140	0xbc0b8e5d	-0.008517829
141	0x3c3eb998	0.011640929
142	0xbc7bd8d1	-0.015371517
143	0xbacb10c4	-0.0015492667
144	0xbc482715	-0.012216349
145	0x3b4a4431	0.00308634
146	0x3cb31942	0.02186263
147	0xbc2d7947	-0.010587997
148	0xbc010db2	-0.0078768
149	0x3d51bd1f	0.05120575
150	0x3bef9114	0.007310996
151	0xbd5272ac	-0.05137889
152	0xbcd47b50	-0.025937706
153	0xbca9b7a4	-0.02071745
154	0x3caca3e3	0.021074241
155	0xbc7914ca	-0.01520271
156	0x3c56dc8b	0.013114105
157	0x3cbf59b7	0.023358209
158	0x3c24f2d7	0.010067663
159	0x3cb562e9	0.02214189
160	0x3c9f721b	0.01946359
161	0xbba0d9f5	-0.004908795
162	0x3ae205c5	0.0017244151
163	0x3b1b8f9d	0.0023736723
164	0xbce684b2	-0.028139446
165	0xbd1c9086	-0.038223766
166	0x3c45c98c	0.012071978
167	0x3b75c8b4	0.0037503662
168	0xbd0cbc1b	-0.03435908
169	0x3cc5dc57	0.024152918
170	0xbb4aa7eb	-0.003092284
171	0xbc136f17	-0.008998654
172	0x3c6b0a7c	0.014345761
173	0x3d310a5f	0.04322278
174	0x3b0ef508	0.002181353
175	0x3c7ef420	0.015561134
176	0xbcbe7236	-0.02324782
177	0x3d0262f6	0.031832658
178	0x3bc27c00	0.005935192
179	0x3c972a7f	0.01845288
180	0x3cbec45d	0.023286993
181	0xbc61870d	-0.013765109
182	0xb90ad9c5	-0.00013241831
183	0xbbfc32ea	-0.007696499
184	0xbb38df72	-0.0028209356
185	0x3cd0bdcb	0.025481125
186	0x3c084e5f	0.008319466
187	0xbcfdedb8	-0.030997142
188	0x3c9e4da5	0.019324133
189	0x3c42fc95	0.011901041
190	0x3c69741f	0.014248877
191	0xbc550df1	-0.013003812
192	0xbb7894ca	-0.0037930482
193	0xbb730b7c	-0.0037085703
194	0xbd1e6ea5	-0.038679738
195	0xbce9aeae	-0.028525677
196	0x3b7a350c	0.003817859
197	0xbb8ef4e4	-0.0043626893
198	0xbd35f9c3	-0.044427644
199	0x3c5106e1	0.012757988
200	0xbcb113e3	-0.021615928
201	0xbc1dcccb	-0.009631346
202	0xbc3b6e6e	-0.011439903
203	0xbc13fa48	-0.00903184
204	0x3c2c338a	0.010510335
205	0xbc8ce174	-0.017197348
206	0x3c393998	0.011305235
207	0xbc6ef047	-0.014583654
208	0xbcb9f7fa	-0.022701252
209	0xbcb37891	-0.021908076
210	0xbcfc4958	-0.030796692
211	0xbb01e055	-0.001981755
212	0x3c78e4ca	0.015191266
213	0xbcd2c796	-0.025729936
214	0x3d08a60a	0.033361472
215	0xbd8e1c20	-0.06938958
216	0xbb089654	-0.0020841556
217	0x3d18dab5	0.03731795
218	0xbc95e2da	-0.018296648
219	0x3bf50cc4	0.0074783284
220	0x3cf0a5fc	0.029376023
221	0xbd1ae4d6	-0.03781589
222	0xbd7ac74a	-0.061225213
223	0x898218e9	-3.1319787e-33
224	0xbb903f07	-0.0044020447
225	0xbc8e3e12	-0.017363582
226	0xbd245480	-0.040119648
227	0x3dbf84e7	0.09351521
228	0x3bc4eb36	0.0060094846
229	0xbb6f41a5	-0.0036507633
230	0xbd0ed932	-0.034875102
231	0x3c0f9873	0.008764374
232	0x3cfd6620	0.030932486
233	0x3cc9c9fe	0.02463245
234	0xbcb8a0b4	-0.022537567
235	0xbbccb2d1	-0.0062469025
236	0x3c8745d8	0.016512796
237	0x397eba3c	0.00024292705
238	0x3c12cb93	0.008959669
239	0xbd0fa544	-0.03506972
240	0x3d37d7aa	0.044883408
241	0x3c8acbb9	0.016942846
242	0x3b830c95	0.0039993026
243	0x3ceec015	0.029144326
244	0x3cc32a98	0.023824021
245	0x3bdf274f	0.006810106
246	0xbd504ad2	-0.050852604
247	0xbcdb472d	-0.026767338
248	0x3bed8b8f	0.0072493027
249	0x3d4166f4	0.047217324
250	0x3ccbf59a	0.024897385
251	0xbc8596f9	-0.016307341
252	0xbd539d7f	-0.05166387
253	0xbc4ecb30	-0.012621686
254	0x3c53f274	0.012936223
255	0xb8a6b49c	-7.949138e-05
