output/bertopic_model/topic_embeddings.safetensors (safetensors, 79960 bytes, 1 tensors)

topic_embeddings f4 [52, 384]
00000000: e522 2b3c 1c8c 683c fe75 7d3c eb6c 113c
00000010: 6366 8bbb 2e97 c03c 35fd 653d 412d 97bc
00000020: 708b 0abb f36e cb3b 724a 1d3c acf7 003b
00000030: 3ea7 4dbb 7f3a 1cbc c361 b2bb 81fb 483c
00000040: 96c9 49bb 61e8 14bc b3e0 b0bc 39ed c93c
00000050: 3d8b fa3a cb19 153d afdb 323c 22a3 4e3c
00000060: f26c 8dbc 3d78 893c d3f1 9dbc 65aa 1dbc
00000070: 8b04 ac3c 0c0a f1bc 80ec 86bc b7f6 693d
00000080: 9d6c c83b bbe8 0c3b 1666 0b3b 621d 113d
00000090: 46b4 233c ec68 983c bcb2 b23c 6abd d9bb
000000a0: 889f a0bc 625f 99bc ceca a4bc a760 e73b
000000b0: e859 6dbb 4483 b8bc 6d20 1fbc 298d 983b
000000c0: 495d 8abc edaf 21bb 9dc2 29bd 1b7d 05bd
000000d0: 1390 c7bc a2ec 7cbc 917a 10bb dec6 bc3c
000000e0: 0d70 3d3c 179a 103d 0a35 c53b 9f9e bfbc
000000f0: 40c1 3dbc 8bdb 1dbb 22f9 60bc c6d7 8f3c
00000100: e2c9 da3c 6dcd 6ebb c82b c93b 67a4 e23c
00000110: 8232 06bd f13a 4d3d 18f7 433c f70e 183b
00000120: 551b 753b bb97 013c f974 39bc 550c 1abc
00000130: cd7d 09bc 70bb 51bd f592 37bb ce19 d0bc
00000140: db2b cebc 6c70 c73b d4c7 21bc 76d3 513c
00000150: 1b64 17bd 905b eabc c25a 313c 3dba 28bd
00000160: 52fd 2d3c 4630 a0bb ff75 b7bc 1584 54bd
00000170: b89d 44bb 4ec4 d03c e110 703c a8ce 483c
00000180: bd68 c5bc 1a36 46bc 974c 36bd e96a 5f3d
00000190: 7d3c 433c 5081 2e3d abb0 fdbb 083b 993c
000001a0: 3e4b 1f3c 738f 0dbd 9fb7 c6bc ed79 babc
000001b0: 4389 d5bc ad0c 5bbc 0996 a5bc 707c a2bc
000001c0: 2c63 623a 9cfe 44bc 6b21 2c3d 78e9 e938
000001d0: 226d a8bb 36fd b2bc 2539 55bc e045 803c
000001e0: 13ca bf3c e236 d03c 2b1a 35bc b075 ce3c
000001f0: d78e bebc a476 0cbd 898f 613c 0099 7309
00000200: 5b81 893c 3a5b 51bb 2a1a 2b3c c8fc 153d
00000210: 4d89 a83c 727b a2bb 6eb6 04bd f25a 00bb
00000220: 6f7c c03a 4272 57bc 116b 4a3c 08cd 34bc
00000230: bbf7 0bbc d24a 3d3c 5c8c 7ebc b88d d9ba
00000240: 6bfb 5abc 047d 2d3b 5214 c13c 1698 27bc
00000250: 2b65 00bc 4a5a 523d 4d21 e53b e12b 53bd
00000260: 5a4f dbbc 12a9 98bc 207b ae3c d945 70bc
00000270: cdda 5e3c 9c15 ba3c 6218 283c 8f4c c73c
00000280: 5e02 9c3c 930e 8ebb 6740 d13a 8f21 423b
00000290: 8e9e edbc 6aad 12bd 6d89 513c 8a1a 593b
000002a0: fa64 0cbd 52cc ce3c 5def 46bb 4d25 2bbc
000002b0: 2880 533c 4823 2e3d d1ff 9c3b a830 733c
000002c0: bdf1 c3bc ecd6 053d ac85 9f3b aabf 9f3c
000002d0: 3e7d ba3c f32b 5bbc 4640 e5b9 9230 d3bb
000002e0: e8c0 33bb 9eb6 d13c d890 1a3c bd54 fbbc
000002f0: 3588 a43c 3655 2b3c 0e39 4f3c b8c0 47bc
00000300: bc37 3ebb 4f6e 8bbb 48a7 1abd d059 f6bc
00000310: 122b 073b 3468 b0bb 2d8c 3cbd ba9a 5d3c
00000320: c55f acbc a3bd 3cbc 8bd4 4abc cdcc 15bc
00000330: ff5b 2f3c cf0a 99bc e039 313c 53cf 6ebc
00000340: 3be3 c4bc ddb0 aebc e767 f9bc 455c ddb9
00000350: b6f7 873c fd33 cabc 2344 0b3d 4e51 8dbd
00000360: f220 39bb c6f8 1a3d efc7 89bc 482e ce3b
00000370: 0f54 f43c 5046 1abd 18c7 73bd dd41 8389
00000380: a09b 8ebb 0d63 8bbc 9bd9 1dbd 36e1 b53d
00000390: 3071 083c 290c c3bb ede0 11bd e204 103c
000003a0: f057 003d 970c de3c 8d66 adbc 6f9b c6bb
000003b0: a730 943c 787a a03a 8f6d d23b 1e53 0fbd
000003c0: 4de0 2e3d 1b09 7f3c e0fe 3a3b ba8f e23c
000003d0: e755 a83c ee92 343c 8c0c 4cbd 0fde e3bc
000003e0: 673e ba3b e68f 4a3d 0669 d33c 9910 7fbc
000003f0: f832 52bd faf3 58bc 598a 783c 8b11 08b9
0.010445331 0.014193561 0.015470026 0.008876066 -0.004254149 0.023509588 0.05614968 -0.018454196
-0.002114024 0.0062082945 0.009600269 0.0019678874 -0.0031380202 -0.009535431 -0.005443783 0.012266994
-0.003079032 -0.009088607 -0.02159152 0.02464925 0.0019114983 0.03640155 0.010916634 0.012612136
-0.017263863 0.016780967 -0.01928035 -0.009623145 0.02099826 -0.029423736 -0.016470194 0.05712005
0.0061164633 0.0021501023 0.0021270565 0.035428412 0.009991711 0.018604718 0.021813743 -0.0066448944
-0.01960732 -0.01872224 -0.020116236 0.0070610824 -0.0036216918 -0.02252353 -0.009712321 0.0046554995
-0.016890185 -0.002467151 -0.041445363 -0.032590013 -0.024360692 -0.015437277 -0.0022045712 0.023044046
0.0115623595 0.0353032 0.0060182856 -0.023391066 -0.011581719 -0.0024087157 -0.013731273 0.017558943
0.026707593 -0.0036438361 0.0061392523 0.027666284 -0.03276301 0.05010504 0.011960767 0.002320228
0.0037400324 0.0079097105 -0.011319392 -0.009402354 -0.00839181 -0.051204145 -0.0028011177 -0.02540293
-0.025167396 0.0060864 -0.009874303 0.012806764 -0.036960702 -0.028608114 0.010824861 -0.041193236
0.010619478 -0.004888567 -0.022395132 -0.051883776 -0.0030001234 0.02548423 0.014652462 0.012256302
-0.024097795 -0.01209786 -0.044506636 0.054545317 0.011916277 0.04260379 -0.0077420077 0.018704906
0.009722529 -0.034560632 -0.02425748 -0.022763217 -0.026066428 -0.013369721 -0.020213144 -0.019834727
0.00086359936 -0.012023594 0.042024057 0.00011153793 -0.005139963 -0.021849256 -0.013014113 0.015658319
0.023411786 0.025416795 -0.011053602 0.025202602 -0.02326147 -0.034292832 0.013767132 2.9322001e-33
0.016785314 -0.0031945244 0.01044325 0.036618024 0.020573283 -0.0049585635 -0.03240054 -0.0019585458
0.0014685522 -0.0131498 0.012354628 -0.011035211 -0.00854295 0.011553483 -0.015536394 -0.0016598022
-0.013365607 0.002647222 0.02356926 -0.010229131 -0.00783662 0.051355638 0.006992495 -0.051555518
-0.026771236 -0.018635307 0.021298945 -0.0146650905 0.013601971 0.022715382 0.01025972 0.024328498
0.019044098 -0.0043352335 0.0015964628 0.0029622053 -0.029006269 -0.03580991 0.0127891125 0.003312739
-0.034275986 0.025243912 -0.0030355074 -0.010445905 0.012908973 0.042514116 0.004791238 0.0148431435
-0.02391898 0.03267567 0.00486823 0.019500572 0.022764798 -0.0133771775 -0.0004372617 -0.006444999
-0.0027428214 0.025599774 0.0094339475 -0.030680055 0.02008448 0.010457328 0.01264788 -0.012191944
-0.002902492 -0.004255093 -0.037757188 -0.030072123 0.0020625037 -0.0053835157 -0.04603212 0.013525659
-0.02104176 -0.011519822 -0.012379776 -0.009143067 0.010703086 -0.018681912 0.010817021 -0.014575797
-0.024034133 -0.02132457 -0.030445052 -0.0004222115 0.01659761 -0.024682993 0.034000527 -0.06900273
-0.0028248397 0.037834905 -0.016818969 0.0062921382 0.029825239 -0.03766471 -0.059516042 -3.159904e-33
-0.004352048 -0.017015005 -0.038537603 0.08880846 0.008327767 -0.0059523773 -0.035614897 0.008790227
0.031333864 0.027105613 -0.021167064 -0.0060610096 0.018089605 0.001224353 0.006421752 -0.034991376
0.04269438 0.015566136 0.0028533265 0.027656425 0.020548774 0.011021359 -0.049816653 -0.027815847
0.0056837085 0.04945364 0.025806915 -0.015567922 -0.05131814 -0.013241762 0.015169703 -0.00012976506
