output/bertopic_model/topic_embeddings.safetensors (safetensors, 76888 bytes, 1 tensors)

topic_embeddings f4 [50, 384]
0.009414711 0.013422468 0.015611363 0.007681967 -0.004461363 0.022839516 0.055500288 -0.017553201
-0.0011661474 0.0057116207 0.009763547 -0.00086474523 -0.0029824644 -0.01152839 -0.006805657 0.008879606
-0.0050548115 -0.008295538 -0.022628054 0.024783425 0.0026256116 0.03648487 0.010567874 0.014529424
-0.0152604105 0.017418815 -0.019270992 -0.007310692 0.017840357 -0.02782935 -0.01726873 0.055123087
0.0071445764 0.0027920066 0.0028331643 0.033816893 0.011011877 0.0180863 0.021559214 -0.0076115937
-0.019031104 -0.019018129 -0.01729639 0.0072873314 -0.0047667553 -0.019780058 -0.009753947 0.0052514793
-0.016816074 -0.0025479675 -0.04061107 -0.031859495 -0.023113186 -0.015521975 -0.002404728 0.022340596
0.010582112 0.033658154 0.0072561195 -0.0233008 -0.013081604 -0.002502694 -0.012637596 0.0181286
0.023546169 -0.004714318 0.008853089 0.025338477 -0.034089837 0.053170525 0.010326391 0.0018164569
0.003838307 0.0069080796 -0.015667655 -0.009725655 -0.0057968562 -0.051293768 -0.00027925838 -0.024469636
-0.024797019 0.004917127 -0.010845971 0.013117031 -0.037592407 -0.029906452 0.0114861345 -0.042499006
0.012624859 -0.005856716 -0.024608318 -0.051151372 -0.0012148508 0.027635045 0.013716783 0.011974223
-0.023957811 -0.010103366 -0.046872634 0.054464985 0.010517319 0.041305598 -0.006512392 0.016974894
0.0074095335 -0.033923257 -0.024612129 -0.022805702 -0.02638548 -0.013574182 -0.020565439 -0.021037547
0.0031291703 -0.0128775025 0.04188351 0.00077797595 -0.0053017936 -0.023230078 -0.014281849 0.017497953
0.02318287 0.02618238 -0.012838679 0.02612186 -0.020878391 -0.03240064 0.015254067 2.8258014e-33
0.016411591 -0.0037465487 0.009223902 0.03733893 0.021484373 -0.006701097 -0.033677865 0.000548424
0.00035081225 -0.0119490465 0.012085441 -0.013708043 -0.009288048 0.008528654 -0.015703004 -0.0004101735
-0.012269656 0.0017744816 0.021083126 -0.010873673 -0.008783692 0.052191693 0.006323877 -0.05121631
-0.026176756 -0.020179978 0.02262394 -0.013774689 0.014357125 0.023744501 0.010707317 0.022675283
0.020009246 -0.0048078266 0.0036691523 0.0034991195 -0.02856185 -0.036384784 0.0090615135 0.0040010447
-0.033199586 0.023551503 -0.0032332528 -0.009533506 0.012878559 0.040833604 0.0025250772 0.015618194
-0.022843631 0.0312788 0.005710325 0.018771918 0.02208992 -0.012762254 -0.00013963277 -0.0057700602
-0.0038123117 0.026471607 0.008199101 -0.028992804 0.019871883 0.009183673 0.01388861 -0.011430571
-0.0032120897 -0.0045723906 -0.03713907 -0.02895638 0.0014085992 -0.004054258 -0.043999717 0.012524914
-0.021209916 -0.008943352 -0.011462009 -0.007785777 0.010617958 -0.01574889 0.010807932 -0.017077126
-0.02212167 -0.021052241 -0.030967651 -0.0006005652 0.016323918 -0.02572001 0.034417722 -0.07115173
-0.0039987024 0.036805816 -0.016757002 0.0070303534 0.029245546 -0.03725904 -0.06093996 -3.1118888e-33
-0.0048197084 -0.017408565 -0.03978141 0.08946793 0.006822277 -0.004400271 -0.033720262 0.010070377
0.031324346 0.02459566 -0.020859506 -0.007093201 0.019054214 0.0010987921 0.00876966 -0.03479403
0.04611899 0.014380303 0.0054315277 0.028570723 0.021184085 0.0058445083 -0.050079785 -0.025859525
0.007152935 0.048039854 0.027270291 -0.01492379 -0.0520906 -0.013205956 0.014094249 -9.5562915e-05
00000000: 2940 1a3c e9e9 5b3c cdc6 7f3c 03b9 fb3b
00000010: a030 92bb f019 bb3c 4554 633d bbcb 8fbc
00000020: 6ad9 98ba 8c28 bb3b 49f7 1f3c 12b0 62ba
00000030: 7375 43bb 93e1 3cbc fd01 dfbb c47b 113c
00000040: d5a2 a5bb 02ea 07bc 785e b9bc 9c06 cb3c
00000050: 7412 2c3b 2971 153d e024 2d3c d20c 6e3c
00000060: cd06 7abc e7b1 8e3c 33de 9dbc 888e efbb
00000070: f125 923c 61fa e3bc 2777 8dbc bfc8 613d
00000080: 0d1d ea3b 19fa 363b 9cac 393b 9583 0a3d
00000090: 296b 343c b829 943c f39c b03c ad6a f9bb
000000a0: 1ee7 9bbc e8cb 9bbc 29b1 8dbc 91ca ee3b
000000b0: 7132 9cbb ca09 a2bc 05cf 1fbc 9a14 ac3b
000000c0: ddc1 89bc cdfb 26bb cb57 26bd 1a7f 02bd
000000d0: dd57 bdbc e24f 7ebc a498 1dbb a003 b73c
000000e0: 9860 2d3c 22dd 093d bec4 ed3b 52e1 bebc
000000f0: 3954 56bc 3d04 24bb eb0d 4fbc 6e82 943c
00000100: e5e3 c03c 917a 9abb 8c0c 113c a392 cf3c
00000110: c9a1 0bbd 56c9 593d 0630 293c 2e16 ee3a
00000120: 1b8c 7b3b 2c5d e23b 7459 80bc 5b58 1fbc
00000130: 8ef3 bdbb 6a19 52bd 6d69 92b9 8c74 c8bc
00000140: 1e23 cbbc da1f a13b 4db3 31bc d1e8 563c
00000150: 7ffa 19bd 60fe f4bc 5730 3c3c 7013 2ebd
00000160: 7fd8 4e3c b2e9 bfbb 6297 c9bc 1a84 51bd
00000170: a13b 9fba e462 e23c 5cbc 603c 882f 443c
00000180: 2c43 c4bc 9788 25bc 85fd 3fbd ad16 5f3d
00000190: d550 2c3c 0f30 293d e765 d5bb ef0e 8b3c
000001a0: accb f23b 1df3 0abd 609f c9bc 06d3 babc
000001b0: 5d26 d8bc 3f66 5ebc da78 a8bc ef56 acbc
000001c0: c412 4d3b 29fc 52bc 0b8e 2b3d 15f1 4b3a
000001d0: abba adbb 014d bebc 6bfe 69bc de57 8f3c
000001e0: 01ea bd3c 6e7c d63c 5359 52bc 83fd d53c
000001f0: 2909 abbc 89b6 04bd 32ec 793c 26c2 6a09
00000200: 9a71 863c a888 75bb d91f 173c b5f0 183d
00000210: ffff af3c e094 dbbb cdf1 09bd 1dc4 0f3a
00000220: 39ed b739 efc5 43bc 0302 463c b397 60bc
00000230: e62c 18bc c5bb 0b3c 96a3 80bc 8e0c d7b9
00000240: ab06 49bc b995 e83a 85b6 ac3c 7d27 32bc
00000250: 79e9 0fbc f5c6 553d 8638 cf3b 32c8 51bd
00000260: a370 d6bc 7b50 a5bc d755 b93c 3caf 61bc
00000270: 263a 6b3c d483 c23c be6d 2f3c 84c1 b93c
00000280: 6eea a33c f98a 9dbb 2976 703b 7c51 653b
00000290: 8afa e9bc 3608 15bd be76 143c 321b 833b
000002a0: 4afc 07bd 15ef c03c fbe4 53bb 6c32 1cbc
000002b0: 9700 533c 2341 273d c47b 253b 74e3 7f3c
000002c0: 9122 bbbc 331e 003d ae1d bb3b 91c7 993c
000002d0: ebf5 b43c c618 51bc 636a 12b9 c612 bdbb
000002e0: fad7 79bb fcda d83c 8655 063c 5182 edbc
000002f0: 5cca a23c 1e77 163c 0d8d 633c 4a47 3bbc
00000300: ec81 52bb fed3 95bb 231f 18bd ee35 edbc
00000310: bfa0 b83a 95d9 84bb 0c39 34bd 4c35 4d3c
00000320: 6bc0 adbc 2387 12bc 26cb 3bbc d51f ffbb
00000330: f2f6 2d3c d103 81bc c113 313c 54e5 8bbc
00000340: 8138 b5bc c075 acbc dfaf fdbc 406f 1dba
00000350: bdb9 853c c5b2 d2bc 99f9 0c3d 00b8 91bd
00000360: 8c07 83bb b2c1 163d fb45 89bc e15e e63b
00000370: 5b94 ef3c ef9c 18bd 2e9c 79bd 4743 8189
00000380: a5ee 9dbb 689c 8ebc d5f1 22bd f63a b73d
00000390: 688d df3b 2630 90bb 421e 0abd 39fe 243c
000003a0: f54d 003d d67c c93c 8ee1 aabc 156e e8bb
000003b0: 9517 9c3c 5805 903a 9fae 0f3c 2f84 0ebd
000003c0: 44e7 3c3d 5d9b 6b3c f5fa b13b 260d ea3c
000003d0: 3f8a ad3c 4a83 bf3b 7620 4dbd 5bd7 d3bc
000003e0: 2b63 ea3b 70c5 443d f265 df3c e982 74bc
000003f0: f45c 55bd cb5d 58bc 91eb 663c f368 c8b8
