output/bertopic_model/topic_embeddings.safetensors (safetensors, 83032 bytes, 1 tensors)

topic_embeddings f4 [54, 384]
00000000: c2c2 3d3c 562e 663c 08dd 7b3c a464 053c
00000010: 3680 9ebb a1c5 ba3c d10a 6a3d ee95 8bbc
00000020: 0c2e aeba 906b f03b b9e4 283c 30de a43a
00000030: dd19 18bb 59e0 2dbc c3a7 b5bb 4b69 473c
00000040: 3546 73bb 6db5 fcbb b140 b4bc cd3b c13c
00000050: 66b5 8a3b fd2c 153d c708 253c c4cf 4e3c
00000060: 57f4 8dbc 289f 8e3c 425a a8bc 7b41 14bc
00000070: a79e aa3c 0335 f3bc 1883 8ebc 1280 693d
00000080: d2aa f43b 617e 273b 66cb 263b bd7f 0e3d
00000090: be88 1e3c adc8 9c3c 94d4 b43c 4425 f3bb
000000a0: edd8 a2bc b573 9cbc 48d5 a7bc d291 ef3b
000000b0: 26cd 6cbb fed0 bbbc 535b 42bc 7cdb aa3b
000000c0: c0c4 84bc ee9d 10bb b03a 2ebd d2db 07bd
000000d0: ed48 c6bc ecb1 78bc c784 66bb 97b9 bc3c
000000e0: 66ae 273c 5e44 0f3d c8b9 af3b b55d c9bc
000000f0: b55b 35bc 2447 67bb 63f4 61bc d6f3 883c
00000100: c281 d53c 8bf3 a2bb e541 f53b dd6b cf3c
00000110: 5679 0ebd 061e 503d 311a 463c 0eaf 173b
00000120: d859 a43b aad9 123c d939 54bc 94c8 28bc
00000130: 9425 11bc 6843 4fbd ad18 66bb 4e25 d0bc
00000140: f2fc d2bc 0e7f c93b 13ee 1fbc 9d8c 493c
00000150: 2be7 18bd 3216 e8bc 61dd 363c a0ad 29bd
00000160: 69b5 363c 2e96 9ebb fb0e b9bc 9558 57bd
00000170: 8856 45bb e4db db3c 08b7 803c 1883 513c
00000180: 3280 c7bc 854e 59bc ff94 34bd d386 5f3d
00000190: 31c3 4c3c 26fe 2b3d 2cdf e7bb 186e 943c
000001a0: 714f 133c f63d 14bd a8d5 c3bc bd1b c3bc
000001b0: cde1 d8bc ce88 56bc 720a 9cbc cec8 acbc
000001c0: 436e 573a d902 3ebc 89da 283d a7f9 ed3a
000001d0: 32ae c0bb 209c bbbc 1a55 60bc d711 7f3c
000001e0: 5eb4 bf3c 174b cf3c de20 31bc 9782 d63c
000001f0: 9ec7 b7bc 8c2c 0cbd 3279 693c 3fa4 7e09
00000200: 5601 863c be5b 10bb 2229 0e3c 1d63 173d
00000210: b566 b13c 8563 a2bb 9d51 05bd f953 12bb
00000220: d9d3 bc3a 6e9f 5ebc d192 3e3c 1335 32bc
00000230: b037 0ebc 33db 4d3c 591a 72bc d9d9 7dba
00000240: e6fe 53bc 3c88 4b3b fbd5 ba3c b6aa 22bc
00000250: 9b6e 0abc 622e 543d d1af b53b e181 56bd
00000260: b201 e1bc 574c 91bc 6577 a53c ca08 7fbc
00000270: 3a70 503c 444d bf3c c855 353c a9ce bc3c
00000280: e37b a43c 11b4 a8bb 9c67 383a 0931 e03a
00000290: cd3d efbc 3fe4 12bd 520a 593c 0502 7d3b
000002a0: ac65 0fbd ee4d c93c aaab 60bb 16d1 24bc
000002b0: df59 573c 3cd3 313d 4c63 a73b e75d 783c
000002c0: f7ab c7bc ee89 093d 26ec 9a3b ebc4 9a3c
000002d0: be49 bf3c a08a 5abc beef b7b9 564c debb
000002e0: 763a 74bb a124 c93c 6b62 113c 9295 fdbc
000002f0: 61b3 9f3c 3ca1 333c b089 633c b4fc 3fbc
00000300: 7b8d 1cbb 1ca6 86bb fca8 19bd 77b4 fabc
00000310: 5cfd 4b3b 2cb1 4fbb 77b3 3fbd bdff 473c
00000320: 1467 a8bc a82a 3abc 78e0 48bc 853c 17bc
00000330: db8d 453c 2571 97bc 3ed2 2a3c 94b9 5fbc
00000340: cd18 c5bc f0c2 b3bc e6ea fbbc f826 77ba
00000350: 2f80 6e3c 50f8 bebc 851b 093d b8c2 8cbd
00000360: c3de 57bb babb 1c3d 7518 84bc bef2 e23b
00000370: 84b6 ed3c 9ef6 1bbd d200 74bd 0427 8889
00000380: a723 a0bb be00 8cbc 3d84 22bd 5ff6 b73d
00000390: 725f e73b acc3 b4bb cedf 10bd b995 123c
000003a0: 3b6a 013d 36ef ca3c b682 b7bc bef5 b2bb
000003b0: 117b 8c3c 0843 df3a 1c69 cf3b 6b76 0cbd
000003c0: da04 303d 7417 873c ecc2 693b deb6 e83c
000003d0: c047 af3c fa85 273c 986a 4dbd 25b4 debc
000003e0: a91d f93b 4061 4c3d eee8 d23c 3aff 88bc
000003f0: 8319 54bd dfdb 54bc e79b 6b3c f483 a6b9
0.011582078 0.014049133 0.015372522 0.00814167 -0.0048370613 0.022799315 0.05713922 -0.017039265
-0.001328887 0.007337041 0.010308438 0.0012578424 -0.0023208775 -0.010612571 -0.0055436804 0.0121711
-0.0037120704 -0.0077120573 -0.022003504 0.023588086 0.00423305 0.036419857 0.010072893 0.012622777
-0.017328424 0.017409876 -0.02055085 -0.009048815 0.020827604 -0.029688364 -0.017396495 0.057006903
0.0074666524 0.0025557505 0.0025450825 0.03478979 0.009676157 0.019138658 0.022074021 -0.007420214
-0.019878829 -0.019098142 -0.020487443 0.0073110843 -0.003613302 -0.022926804 -0.011862594 0.005214153
-0.016207099 -0.002206679 -0.042536438 -0.03316862 -0.024204696 -0.015179139 -0.0035174356 0.023037715
0.010234451 0.03497731 0.005362723 -0.024580816 -0.011069228 -0.0035290206 -0.0137911765 0.016717833
0.02606285 -0.0049728802 0.007484662 0.025319988 -0.034783684 0.050809883 0.012091205 0.0023145112
0.005015593 0.008963028 -0.012953245 -0.010301728 -0.008859057 -0.050601393 -0.0035109923 -0.025408413
-0.02575538 0.0061491793 -0.009761351 0.012301591 -0.037329834 -0.028330896 0.011161179 -0.041425347
0.01115165 -0.00483968 -0.022590151 -0.052574713 -0.003011139 0.02683825 0.015712276 0.012787603
-0.02435312 -0.013263349 -0.044087406 0.054571938 0.012497709 0.04199042 -0.0070761647 0.018118903
0.008991108 -0.036191903 -0.02390559 -0.023816938 -0.026474858 -0.01309414 -0.01904795 -0.021091845
0.00082180294 -0.011597359 0.041224036 0.0018156067 -0.0058801407 -0.022901595 -0.013692165 0.015568218
0.023401435 0.02530436 -0.010811059 0.026185317 -0.022434052 -0.03422217 0.014250087 3.0651366e-33
0.016358059 -0.002202734 0.008676799 0.036959756 0.02165542 -0.0049557113 -0.032548536 -0.0022327884
0.0014406397 -0.013587816 0.011631683 -0.010876912 -0.008680269 0.012564468 -0.01477679 -0.0009683646
-0.0129391905 0.0031056544 0.022807112 -0.009928396 -0.008449222 0.051802047 0.0055446406 -0.052369956
-0.027466629 -0.017736597 0.020198533 -0.01556606 0.012722069 0.023352273 0.011067815 0.023047762
0.020078605 -0.0051484187 0.0007034482 0.0017104457 -0.029204274 -0.035862204 0.013247089 0.003860594
-0.03500907 0.024573293 -0.0034282007 -0.010059616 0.0131439855 0.04341434 0.0051082727 0.015159107
-0.024373991 0.033578806 0.004727858 0.018892726 0.023350593 -0.013338715 -0.00035083102 -0.0067840023
-0.003726629 0.024553599 0.008873562 -0.03095511 0.019494714 0.010963734 0.013887808 -0.011717964
-0.002388804 -0.0041091572 -0.03751467 -0.03060363 0.0031126356 -0.0031691296 -0.04680201 0.012206969
-0.020556964 -0.011362709 -0.012260549 -0.009230738 0.012057747 -0.018486569 0.010426102 -0.013655085
-0.024059677 -0.02194354 -0.030751657 -0.0009428109 0.014556929 -0.023311764 0.03347351 -0.06873077
-0.0032939173 0.038264968 -0.016124943 0.00692591 0.029017694 -0.03807699 -0.059571095 -3.27775e-33
-0.0048870626 -0.017090198 -0.039676894 0.089825384 0.0070609385 -0.00551649 -0.035369687 0.0089468295
0.03159545 0.024772268 -0.022401195 -0.0054614237 0.017148526 0.0017033527 0.0063296687 -0.03429262
0.042973377 0.016490676 0.003566916 0.02840751 0.021396518 0.010224814 -0.050150484 -0.027185509
0.0076024127 0.049897432 0.025745835 -0.016723264 -0.051782142 -0.0129918745 0.014380432 -0.000317603
