output/bertopic_model/topic_embeddings.safetensors (safetensors, 79960 bytes, 1 tensors)

topic_embeddings f4 [52, 384]
0	0x3c1b0a5b	0.009462918
1	0x3c70869d	0.014680532
2	0x3c8340c1	0.016022088
3	0x3c1d022d	0.009583038
4	0xbba45b3a	-0.005015758
5	0x3ca0a6d5	0.019610802
6	0x3d63cb04	0.055613533
7	0xbc8bc29f	-0.017060576
8	0xbad58ffe	-0.0016293523
9	0x3bd63554	0.006537119
10	0x3c1fa452	0.009743767
11	0x399be10d	0.0002973158
12	0xbb486d0d	-0.0030582577
13	0xbc194049	-0.009353706
14	0xbb7ed6c4	-0.0038885335
15	0x3c36e0f3	0.0111620305
16	0xbb0e7260	-0.0021735653
17	0xbc02a438	-0.007973723
18	0xbcae5c63	-0.021284288
19	0x3ccc6d0c	0.024954341
20	0x3ad0e89e	0.0015938466
21	0x3d0cb4b4	0.03435202
22	0x3c359f0d	0.011085284
23	0x3c37e65c	0.011224356
24	0xbc94fa71	-0.018185826
25	0x3c8305e0	0.015994012
26	0xbc9e427f	-0.019318817
27	0xbc1f9006	-0.009738928
28	0x3ca94124	0.020660944
29	0xbcf18ea9	-0.029486971
30	0xbc86f8ca	-0.016476054
31	0x3d698a69	0.057016764
32	0x3beacf39	0.007165816
33	0x3b13984a	0.0022521191
34	0x3b09f270	0.0021049045
35	0x3d0eec00	0.034893036
36	0x3c28d485	0.010304575
37	0x3ca5fcc0	0.020262122
38	0x3cba16be	0.022715922
39	0xbc00bb4c	-0.007857155
40	0xbca418dd	-0.020031387
41	0xbcaa30c9	-0.020775216
42	0xbc9d419d	-0.019196326
43	0x3bf6ea1f	0.0075352336
44	0xbb25b501	-0.0025284889
45	0xbcadc432	-0.021211717
46	0xbc12c0c9	-0.008957096
47	0x3ba96ff9	0.005170819
48	0xbc855ba8	-0.016279057
49	0xbb79d35a	-0.003812036
50	0xbd342f95	-0.04399069
51	0xbd053fbd	-0.03253149
52	0xbccb67cb	-0.024829766
53	0xbc8be5aa	-0.017077286
54	0xbb1f6525	-0.0024321761
55	0x3cb9e51f	0.022692261
56	0x3c1a8254	0.009430487
57	0x3d0e9e3a	0.034818865
58	0x3bb2ab56	0.0054525537
59	0xbcbad9bf	-0.022808908
60	0xbc3b8e97	-0.01144757
61	0xbb0edf9f	-0.002180077
62	0xbc63d803	-0.013906482
63	0x3c8b757e	0.017023798
64	0x3cd8e532	0.026476476
65	0xbb5dbedf	-0.0033835692
66	0x3bcf6280	0.006328881
67	0x3cd1ecf2	0.02562568
68	0xbd0a7723	-0.033805024
69	0x3d4b710d	0.04966836
70	0x3c53371a	0.012891555
71	0x3b37f6e6	0.0028070747
72	0x3b7698a0	0.0037627593
73	0x3c07407c	0.00825512
74	0xbc335832	-0.01094632
75	0xbc18a36a	-0.009316305
76	0xbc0c8f01	-0.008579017
77	0xbd4683fa	-0.048465706
78	0xba879a0a	-0.001034559
79	0xbcc8a935	-0.024494747
80	0xbcd0e52c	-0.025499903
81	0x3bbceac8	0.005765293
82	0xbc33bb4f	-0.010969951
83	0x3c51b18c	0.012798678
84	0xbd14b16e	-0.036302023
85	0xbce6b0bd	-0.028160447
86	0x3c2b5469	0.010457137
87	0xbd2459ea	-0.04012481
88	0x3c1eeb84	0.009699706
89	0xbb94bbb9	-0.00453898
90	0xbcbe3dd1	-0.023222836
91	0xbd53f495	-0.051746923
92	0xbb524d67	-0.0032089592
93	0x3ccaff9e	0.02478009
94	0x3c7c221a	0.01538899
95	0x3c4ac864	0.012376878
96	0xbcc62e81	-0.024192097
97	0xbc5b254d	-0.013375592
98	0xbd3746cf	-0.044745263
99	0x3d64923e	0.05580353
100	0x3c2da98f	0.010599508
101	0x3d2e9418	0.042621702
102	0xbbc25c80	-0.005931437
103	0x3c929adb	0.017896106
104	0x3c0fe7bb	0.008783276
105	0xbd0e912f	-0.034806427
106	0xbccfba15	-0.025357286
107	0xbcc666ea	-0.024218995
108	0xbcd53ac4	-0.026028998
109	0xbc51a275	-0.01279508
110	0xbca6ab01	-0.020345213
111	0xbca7d736	-0.020488363
112	0xb97a1c42	-0.00023852385
113	0xbc38b5c5	-0.011273806
114	0x3d276ed7	0.04087719
115	0xb9eabfe4	-0.00044774928
116	0xbb83c822	-0.0040216604
117	0xbcb3e279	-0.021958577
118	0xbc3c4311	-0.011490599
119	0x3c6fc906	0.01463533
120	0x3cbc7495	0.02300481
121	0x3cc9631c	0.024583392
122	0xbc23928d	-0.009983671
123	0x3ccc73c5	0.024957547
124	0xbcaff23d	-0.021477813
125	0xbd11fcc7	-0.035641458
126	0x3c5edf4e	0.013603045
127	0x0974e56a	2.9478302e-33
128	0x3c8039ef	0.015652625
129	0xba913650	-0.0011078808
130	0x3c179303	0.009251359
131	0x3d1be2bc	0.038058028
132	0x3ca9d7f3	0.020732855
133	0xbb8cc1bd	-0.0042955563
134	0xbd03bbbf	-0.03216147
135	0xbb19c7a5	-0.0023464945
136	0x3ae6fb1a	0.0017622442
137	0xbc3aa95f	-0.01139292
138	0x3c62ba51	0.013838367
139	0xbc1c1e4a	-0.009528706
140	0xbbf29252	-0.0074026966
141	0x3c4044f0	0.011735186
142	0xbc65156a	-0.013982156
143	0xb77b05c7	-1.4962111e-05
144	0xbc68c8e9	-0.014208057
145	0x3b8a8b46	0.0042280285
146	0x3cb0078f	0.02148798
147	0xbc324fe4	-0.010883305
148	0xbc17f451	-0.009274558
149	0x3d4d7e18	0.05016908
150	0x3ba0a456	0.004902403
151	0xbd4cee8c	-0.050032184
152	0xbce04255	-0.02737538
153	0xbc94d708	-0.018168941
154	0x3cb600ae	0.022217121
155	0xbc80a364	-0.01570291
156	0x3c4ee1d2	0.012627082
157	0x3cb86eda	0.022513796
158	0x3c2ed7b2	0.010671543
159	0x3cbbc808	0.02292253
160	0x3c923e04	0.017851837
161	0xbb9ac629	-0.0047233296
162	0x3a24c54e	0.0006285504
163	0x3b39ac16	0.002833133
164	0xbcdc9fa9	-0.0269316
165	0xbd18f76f	-0.037345346
166	0x3c67bb9e	0.0141438525
167	0x3b440a8b	0.002991351
168	0xbd0bf3a4	-0.0341679
169	0x3cc601e6	0.024170827
170	0xbabe86a1	-0.0014535972
171	0xbc2d6b52	-0.010584669
172	0x3c63da26	0.013906991
173	0x3d363910	0.044488013
174	0x3bbd18b7	0.0057707685
175	0x3c618e5d	0.013766852
176	0xbcccbf91	-0.02499369
177	0x3d0902e3	0.03345002
178	0x3b9b72d8	0.004743915
179	0x3ca0ff00	0.019652843
180	0x3cc13091	0.023582729
181	0xbc549012	-0.012973802
182	0xbae12985	-0.0017178511
183	0xbbe0d607	-0.0068614515
184	0xbb58a2a9	-0.0033055937
185	0x3cd6bf8c	0.026214384
186	0x3c158033	0.009124803
187	0xbcf36708	-0.029712215
188	0x3ca0d8de	0.01963466
189	0x3c35129d	0.011051801
190	0x3c32351c	0.01087692
191	0xbc41ae58	-0.011821352
192	0xbb8da53f	-0.0043226774
193	0xbb4bd7b2	-0.0031103906
194	0xbd18d2a1	-0.037310246
195	0xbcebfb02	-0.028806213
196	0x3ac59ce3	0.0015076663
197	0xbb1886cf	-0.0023273712
198	0xbd3394e6	-0.043843172
199	0x3c4fd6d5	0.012685497
200	0xbcb59a88	-0.022168413
201	0xbc39d474	-0.011342157
202	0xbc4ed71d	-0.012624529
203	0xbc22cb25	-0.009936129
204	0x3c33842a	0.010956803
205	0xbc8d1a2e	-0.017224398
206	0x3c25010d	0.010071051
207	0xbc660796	-0.014039895
208	0xbcb15f81	-0.021651985
209	0xbca06161	-0.019577684
210	0xbceec27b	-0.02914547
211	0xbb33858d	-0.0027392835
212	0x3c684cbb	0.01417845
213	0xbcc665f5	-0.024218539
214	0x3d078fee	0.033096246
215	0xbd8813a5	-0.06644372
216	0xbb24de78	-0.0025157016
217	0x3d15991e	0.036522977
218	0xbc81529e	-0.015786465
219	0x3bc6551d	0.0060526268
220	0x3cec83b5	0.028871397
221	0xbd0fae4a	-0.035078324
222	0xbd75514c	-0.059891984
223	0x8983d0a2	-3.17333e-33
224	0xbbb2cee6	-0.005456793
225	0xbc978e84	-0.018500574
226	0xbd205f18	-0.03915319
227	0x3db5ab5f	0.08870577
228	0x3bd8a5a1	0.0066115414
229	0xbbbed8bc	-0.0058241766
230	0xbd0b6cf0	-0.034039438
231	0x3c0767f1	0.008264528
232	0x3cf89a75	0.030347088
233	0x3cd5aec1	0.026084306
234	0xbca750ae	-0.020424213
235	0xbbeb03e9	-0.007172097
236	0x3c934dbb	0.0179814
237	0x3a0f9af5	0.00054781075
238	0x3be5e9a4	0.0070163775
239	0xbd0d5300	-0.034502983
240	0x3d32fcba	0.04369805
241	0x3c6e3eae	0.014541311
242	0x3a79759a	0.000951612
243	0x3cedca28	0.02902706
244	0x3cb8540b	0.022501012
245	0x3c338fd1	0.0109595815
246	0xbd47cc4e	-0.048778825
247	0xbcccee46	-0.025015961
248	0x3bc82448	0.0061078407
249	0x3d484444	0.04889323
250	0x3cc6e58f	0.024279384
251	0xbc82fb89	-0.015989082
252	0xbd5169af	-0.05112618
253	0xbc42f83a	-0.011900002
254	0x3c585377	0.013203493
255	0xba8b7c80	-0.0010641962
